p1_navigation/checkpoint.pth (torch_old, 28417 bytes, 6 tensors)

fc1.weight f4 [64, 37]
0.073358946 0.029769639 -0.00025789393 -0.007440548 -0.09459401 -0.24332051 0.29948086 0.24980569
0.1642309 0.48995999 0.03529202 0.0041890773 0.17995603 0.027365573 0.01462688 0.15007694
0.105514385 0.049492106 0.00883244 -0.17875713 0.0439882 0.030397385 0.1524574 0.054877926
0.11973334 0.09606976 0.14567941 0.14521287 0.14474083 -0.11933739 0.21467242 0.13578926
0.024571499 0.19760132 0.10317991 -0.046092574 -0.021787457 0.22157429 0.14758033 0.112336926
0.14141215 0.08293007 0.2725554 -0.12370349 -0.03959892 0.2350212 -0.14600043 -0.042132262
0.1013967 0.18898925 -0.051058203 0.115913816 0.16348067 -0.13883406 -0.03870329 0.09693607
0.016219115 0.12266123 0.10363726 0.19592403 0.08996728 0.18330711 -0.16062303 0.17944042
0.16320384 0.20307395 0.2418123 -0.07282397 0.1205434 0.117676005 0.03155636 -0.06829966
-0.11645108 -0.03578631 0.0053987713 0.07493231 0.1393199 0.06643996 0.06474906 -0.1813978
0.08113557 0.22332545 0.31105283 0.5500194 0.06254629 0.047908388 0.10106535 0.043883476
0.004129614 -0.16523635 0.03387046 0.1599381 0.17122768 0.25400752 0.09964393 0.08193655
-0.1005652 0.049592204 0.289708 -0.07993789 -0.03343798 0.1690088 0.09063876 -0.08479433
-0.03623144 0.050545268 -0.1326668 -0.12258445 0.14484586 -0.004003056 0.060191564 0.095008165
-0.08290001 -0.0009915208 0.058631446 0.004794821 0.040883176 0.044517286 0.11608667 0.08634136
-0.108643234 0.022927487 0.08621052 0.06422434 0.061015382 0.0071936483 0.08501024 0.14349547
0.0025002738 0.07752372 -0.1408058 0.13501826 0.13764095 0.01641757 0.12700613 -0.006501591
0.18359648 0.0847656 0.11453709 -0.015009426 -0.18306597 0.12780677 0.011353853 -0.035467915
0.17072006 -0.16803591 -0.00070246356 -0.011818541 0.16224992 -0.0075631 -0.08222211 0.13024025
-0.11534419 -0.060123064 0.0052247257 0.034567546 -0.16113725 0.118976384 0.05662012 -0.037622213
0.028507316 -0.019901056 -0.22182141 -0.09417404 -0.048259363 0.03336943 0.10926428 0.2561472
-0.119049855 -0.10866361 0.26380262 0.12566905 0.17948642 0.020771634 -0.053564947 0.051439412
0.060050644 -0.015628403 0.03307102 0.13537483 0.09564534 -0.059384473 -0.15339948 -0.07985988
-0.041989673 -0.04816356 -0.031127807 0.039407503 -0.0007629546 -0.023360875 -0.058779404 0.073036596
0.111441895 -0.09731916 0.20123497 0.08849727 -0.07829269 0.08657004 0.039769243 -0.14113946
0.100920424 -0.16309701 -0.023737945 0.09877664 0.10258188 -0.018508593 -0.2053251 0.017121203
0.07036807 0.2025591 -0.0260436 0.044073787 -0.05548129 0.102276675 0.091163844 0.062296525
-0.0076620635 -0.0070845233 -0.038904082 0.22373722 0.07470549 -0.14615849 0.0070745368 -0.18982616
0.038095564 -0.075773425 0.04424145 -0.19973029 0.020674147 0.05892551 0.062550135 0.10682914
-0.026532818 0.13028048 0.11281115 0.027304018 -0.032459293 -0.08627547 -0.13840117 0.1838912
-0.12851748 0.09887149 -0.06455919 0.0063210954 0.067202955 0.18758939 -0.20223244 0.058690134
-0.14268543 0.040825937 -0.14492679 0.05552081 -0.0994505 -0.031143555 -0.07200759 -0.28645945
00000000: 373d 963d 75df f33c f035 87b9 d7cf f3bb
00000010: 81ba c1bd 0329 79be 8e55 993e 10cd 7f3e
00000020: 252c 283e 09dc fa3e 5d8e 103d 8744 893b
00000030: 6546 383e c42d e03c 95a5 6f3c c5ad 193e
00000040: ed17 d83d 3cb8 4a3d f0b5 103c 1c0c 37be
00000050: f92c 343d f003 f93c cb1d 1c3e adc7 603d
00000060: c136 f53d 39c0 c43d fc2c 153e afb2 143e
00000070: f136 143e 2967 f4bd 16d3 5b3e 570c 0b3e
00000080: 2b4a c93c 0058 4a3e fd4f d33d 91cb 3cbd
00000090: 9c7b b2bc 5fe4 623e 4c1f 173e e710 e63d
000000a0: 59ce 103e 3ed7 a93d 628c 8b3e 4158 fdbd
000000b0: 7a32 22bd 66a9 703e 2381 15be e192 2cbd
000000c0: 13a9 cf3d 6686 413e 6822 51bd 3964 ed3d
000000d0: 7a67 273e 842a 0ebe 5787 1ebd 6b86 c63d
000000e0: f3dd 843c d035 fb3d c63f d43d 4fa0 483e
000000f0: c440 b83d dcb4 3b3e 5d7a 24be 3bbf 373e
00000100: e81e 273e 9ef2 4f3e a59d 773e bc24 95bd
00000110: 75df f63d 1e00 f13d 3e41 013d b1e0 8bbd
00000120: e77d eebd aa94 12bd 2de8 b03b 1c76 993d
00000130: e0a9 0e3e ac11 883d 289b 843d 58c0 39be
00000140: 682a a63d 6daf 643e 5142 9f3e 12ce 0c3f
00000150: 4518 803d 963b 443d 5afb ce3d 29bf 333d
00000160: b751 873b b833 29be c0bb 0a3d d0c6 233e
00000170: 4f56 2f3e 460d 823e 1e12 cc3d 5ace a73d
00000180: 21f5 cdbd 3221 4b3d 9b54 943e 7ab6 a3bd
00000190: 43f6 08bd a510 2d3e d0a0 b93d a6a8 adbd
000001a0: 6b67 14bd 8e08 4f3d ced9 07be 8e0d fbbd
000001b0: 7952 143e 112c 83bb 6e8b 763d a493 c23d
000001c0: 7bc7 a9bd ebf5 81ba 8727 703d e01d 9d3b
000001d0: 1e75 273d c257 363d d9be ed3d bdd3 b03d
000001e0: 5880 debd 6dd2 bb3c 248f b03d 0d88 833d
000001f0: 44eb 793d b2b8 eb3b d919 ae3d 7af0 123e
00000200: a2db 233b c2c4 9e3d 652f 10be 3a42 0a3e
00000210: c0f1 0c3e 247e 863c e50d 023e 4c0b d5bb
00000220: b700 3c3e 9699 ad3d 6c92 ea3d 18ea 75bc
00000230: a575 3bbe c7df 023e 8305 3a3c ce46 11bd
00000240: 3dd1 2e3e 9b11 2cbe 8825 38ba 8ea2 41bc
00000250: d824 263e e2d3 f7bb 1164 a8bd b35d 053e
00000260: 9339 ecbd 9a43 76bd 2d34 ab3b b396 0d3d
00000270: 2a01 25be e4a9 f33d 80ea 673d c019 1abd
00000280: 2d88 e93c 8a07 a3bc 2725 63be 52de c0bd
00000290: 9cab 45bd 62ae 083d f3c5 df3d ba25 833e
000002a0: 69d0 f3bd 078b debd 2311 873e 63af 003e
000002b0: 4acb 373e 4629 aa3c eb66 5bbd 22b2 523d
000002c0: aaf7 753d 2307 80bc 7a75 073d b39f 0a3e
000002d0: b4e1 c33d 223d 73bd c114 1dbe 948d a3bd
000002e0: 5dfd 2bbd 2747 45bd beff febc c369 213d
000002f0: 0401 48ba 4e5f bfbc acc2 70bd 3694 953d
00000300: a63b e43d 454f c7bd 8a10 4e3e 0f3e b53d
00000310: eb57 a0bd a24b b13d 13e5 223d dd86 10be
00000320: 5eaf ce3d e702 27be 1476 c2bc 684b ca3d
00000330: 7316 d23d 559f 97bc be40 52be c441 8c3c
00000340: 221d 903d a76b 4f3e 6359 d5bc b786 343d
00000350: 5940 63bd 6f76 d13d 1cb4 ba3d a42a 7f3d
00000360: 0c12 fbbb 4a25 e8bb e359 1fbd 5f1b 653e
00000370: 31ff 983d 92aa 15be 84d1 e73b ca61 42be
00000380: 180a 1c3d 192f 9bbd 8636 353d 1986 4cbe
00000390: d45c a93c e05b 713d 491a 803d 3cc9 da3d
000003a0: 5a5b d9bc 3f68 053e 8809 e73d adac df3c
000003b0: 09f4 04bd 32b1 b0bd 09b9 0dbe fa4d 3c3e
000003c0: 169a 03be 237d ca3d 9c37 84bd 3121 cf3b
000003d0: b4a1 893d 6f17 403e 0516 4fbe 1165 703d
000003e0: 211c 12be 1939 273d b067 14be ca69 633d
000003f0: b4ac cbbd c520 ffbc b778 93bd d0aa 92be

fc1.bias f4 [64]
0.21737051 0.23531465 -0.048191693 0.027599694 0.20926784 0.086730875 -0.09440139 -0.100217775
0.11281591 0.16515902 0.13085118 0.19562718 0.1191445 0.011087424 0.036632936 -0.15423405
0.22281024 -0.098507285 -0.015122594 0.048224855 0.19795375 0.25285378 -0.12503222 0.24939115
-0.07745316 0.07355911 0.1368091 0.057278454 0.24198923 0.14507863 0.1977035 -0.024098968
-0.062699765 0.015526332 0.22271708 0.09589473 -0.04416743 -0.2168176 -0.084046 -0.039726138
-0.08831995 -0.03171295 0.19338402 -0.10290237 0.0857401 0.03715633 0.07167964 0.07268088
0.03945113 0.13101394 0.18508269 -0.19682409 -0.07905311 -0.037592914 0.118301556 -0.042358592
0.1589 0.081868745 0.1691446 0.12669724 0.051871732 -0.033658702 -0.07574186 -0.12595238
00000000: 6096 5e3e 53f6 703e a764 45bd c118 e23c
00000010: 4f4a 563e f59f b13d 8455 c1bd fa3e cdbd
00000020: 070c e73d 721f 293e dafd 053e 7e52 483e
00000030: 0802 f43d 07a8 353c 6b0c 163d 88ef 1dbe
00000040: 5e28 643e 30be c9bd c2c4 77bc 6d87 453d
00000050: 63b4 4a3e 0d76 813e 7208 00be 6560 7f3e
00000060: c39f 9ebd 29a6 963d af17 0c3e d09c 6a3d
00000070: 06cc 773e 7e8f 143e c972 4a3e 336b c5bc
00000080: bc68 80bd 2862 7e3c f20f 643e 7564 c43d
00000090: e8e8 34bd 6f05 5ebe 4f20 acbd e0b7 22bd
000000a0: 17e1 b4bd 70e5 01bd 7606 463e 7abe d2bd
000000b0: 8198 af3d 3c31 183d c6cc 923d b7d9 943d
000000c0: 8297 213d 8528 063e 5186 3d3e 418c 49be
000000d0: 99e6 a1bd 07fb 19bd 1648 f23d 3480 2dbd
000000e0: aeb6 223e cdaa a73d 3e34 2d3e ecbc 013e
000000f0: 7477 543d b5dd 09bd 8c1e 9bbd a9f9 00be

fc2.weight f4 [64, 64]
0.081093885 0.08893317 -0.09764271 0.1860789 -0.057055574 -0.07723509 0.027836412 0.16785288
0.12742111 0.010659081 0.10058371 0.008289165 0.11364689 0.10541306 0.11679314 -0.12566178
-0.022076257 0.01674742 -0.078132614 -0.15652941 0.1317751 0.13536604 -0.03451209 0.089543
0.13222346 -0.07072609 -0.073480494 0.056720898 -0.010373742 0.119373806 0.17105122 0.03329501
-0.09168488 0.2089688 0.067143425 0.08718609 0.09702174 -0.011490053 -0.12092607 0.12305287
0.24094397 -0.119000815 0.10283176 0.10381164 -0.06573206 0.01597995 0.10181068 0.12166789
0.03529424 -0.0061672055 -0.039328113 0.025209805 0.11992735 0.20355818 -0.0119510675 -0.10185981
-0.057751868 -0.07780495 -0.043607224 -0.036494948 -0.0057837223 -0.17620379 -0.014588882 -0.17319837
-0.015271591 -0.0866331 -0.106057435 0.11678728 -0.0043516112 -0.28181627 -0.20343007 0.06733211
-0.044660226 0.019478714 0.1200521 0.105823 0.03019465 0.017632307 0.11123618 -0.11000349
0.093313836 0.043644316 -0.16623043 -0.19856587 0.087032534 -0.054950647 0.05422533 0.08515604
0.18107395 -0.094571784 0.07909041 0.077208534 -0.0906042 -0.10099275 0.083797954 -0.15054218
-0.08200165 0.059810273 0.018172171 -0.08375656 0.20798564 -0.28117344 0.02941874 0.2000725
-0.096364364 -0.2554708 -0.08860415 0.029418657 -0.0025542104 0.07690486 0.08924182 -0.11644643
0.018650325 0.08940677 -0.1292528 -0.093938984 -0.075493604 0.1354953 0.09435954 -0.076804236
-0.056511387 -0.22483654 0.103318594 -0.07483991 0.05208742 0.11561343 -0.03417663 -0.025592972
0.1399871 -0.13840628 0.1494551 0.07630414 0.08279838 0.029310912 -0.098955095 -0.12147682
-0.16779476 0.06375262 0.012816744 0.057019707 -0.04079641 0.016184278 0.1286839 -0.061532207
-0.04154051 0.088053346 -0.0011027106 -0.037757628 -0.05791456 -0.012501226 0.053885054 -0.10812343
-0.06674644 0.05809122 -0.024084054 -0.0029591746 -0.017151114 -0.12994586 0.12562282 0.02901309
0.020745743 -0.2089774 0.0850783 0.18739268 -0.041722514 -0.14960043 0.06370033 0.20037262
0.1445214 -0.046054393 0.09020549 0.037025772 0.0870178 -0.18700382 0.073203705 0.12356938
0.041441493 0.07394582 -0.040881068 -0.18321566 -0.08923444 0.19279714 -0.051946696 0.08153987
0.03871021 0.08348793 -0.030344352 0.034112982 0.053071357 0.05129876 -0.0013201461 -0.1327821
0.071891986 0.13616684 0.025587747 0.26591393 0.094610676 -0.112404935 -0.0012315611 0.028514242
-0.018136399 -0.015383624 -0.03372185 -0.041700017 0.16278793 0.13457559 0.13821949 -0.046075955
0.056810528 -0.027285613 -0.024106147 -0.105327785 0.08857873 0.15358204 0.10965908 0.2413216
-0.087355055 0.104181744 -0.03128435 -0.06257622 0.03300468 0.12364488 0.15862761 -0.12717889
0.10926722 0.029646398 0.06585631 0.043840088 0.092004634 -0.027661083 0.08764213 0.00029388446
0.29155993 -0.081289 0.1320174 0.10386891 0.08157496 0.13814214 0.039532334 0.11935871
0.028433263 -0.016422937 0.12754004 -0.095026255 -0.049264118 0.1535172 0.044418875 -0.08040249
0.16849329 -0.04412293 0.03982624 0.020977944 0.11707335 0.10526327 -0.016761625 -0.06759344
00000000: 8d14 a63d 9822 b63d e7f8 c7bd 788b 3e3e
00000010: 1bb3 69bd 6e2d 9ebd 3009 e43c a0e1 2b3e
00000020: ae7a 023e 6da3 2e3c d5fe cd3d 47cf 073c
00000030: b3bf e83d cde2 d73d 3e31 ef3d 7bad 00be
00000040: 44d9 b4bc e331 893c fe03 a0bd 3f49 20be
00000050: 0df0 063e 659d 0a3e 8d5c 0dbd 5262 b73d
00000060: 9665 073e d7d8 90bd f17c 96bd 2c54 683d
00000070: a1f6 29bc 417a f43d 0d28 2f3e 5960 083d
00000080: 48c5 bbbd ebfb 553e 7e82 893d 9f8e b23d
00000090: 56b3 c63d c640 3cbc 16a8 f7bd 2503 fc3d
000000a0: 04ba 763e b3b6 f3bd 7599 d23d 329b d43d
000000b0: 889e 86bd 62e8 823c 1e82 d03d 042d f93d
000000c0: b190 103d 4516 cabb 8416 21bd cb84 ce3c
000000d0: 789c f53d 8e71 503e 69ce 43bc e09b d0bd
000000e0: 398d 6cbd 3458 9fbd 7d9d 32bd ba7b 15bd
000000f0: 6185 bdbb c46e 34be 3506 6fbc ea5a 31be
00000100: b235 7abc b26c b1bd a434 d9bd 2b2e ef3d
00000110: f697 8ebb 394a 90be f94f 50be 6be5 893d
00000120: a4ed 36bd d391 9f3c e0dd f53d bbb9 d83d
00000130: c55a f73c a171 903c cbcf e33d 8249 e1bd
00000140: 531b bf3d 62c4 323d 4f38 2abe da54 4bbe
00000150: 1d3e b23d ee13 61bd 611b 5e3d 4a66 ae3d
00000160: 736b 393e daae c1bd 27fa a13d 821f 9e3d
00000170: b28e b9bd 49d5 cebd 439e ab3d bb27 1abe
00000180: 7bf0 a7bd 9efb 743d cedd 943c 8f88 abbd
00000190: 30fa 543e f7f5 8fbe 92ff f03c cedf 4c3e
000001a0: ae5a c5bd 12cd 82be 1876 b5bd 65ff f03c
000001b0: 8a64 27bb 4c80 9d3d 6ac4 b63d 777b eebd
000001c0: 91c8 983c e61a b73d d95a 04be 1563 c0bd
000001d0: 649c 9abd 48bf 0a3e 933f c13d 8a4b 9dbd
000001e0: 7c78 67bd 8d3b 66be b398 d33d ab45 99bd
000001f0: 9e59 553d bcc6 ec3d cbfc 0bbd 5aa8 d1bc
00000200: c758 0f3e 60ba 0dbe c20a 193e 5845 9c3d
00000210: 3292 a93d 701d f03c f8a8 cabd d7c8 f8bd
00000220: 64d2 2bbe bc90 823d 52fd 513c 7f8d 693d
00000230: 231a 27bd e494 843c b6c5 033e 3209 7cbd
00000240: 6226 2abd 5055 b43d d488 90ba bea7 1abd
00000250: d137 6dbd f1d1 4cbc 93b6 5c3d d16f ddbd
00000260: 5cb2 88bd 0ff1 6d3d ec4b c5bc b6ee 41bb
00000270: 7e80 8cbc 8710 05be 45a3 003e dcac ed3c
00000280: faf2 a93c 2cfe 55be 883d ae3d dee3 3f3e
00000290: 3ae5 2abd db30 19be 5275 823d 7b2e 4d3e
000002a0: 6bfd 133e 88a3 3cbd a8bd b83d 56a8 173d
000002b0: 6336 b23d ee7d 3fbe d3eb 953d f111 fd3d
000002c0: 8ebe 293d e870 973d e872 27bd e39c 3bbe
000002d0: 8cc0 b6bd 9d6c 453e 0fc6 54bd 60fe a63d
000002e0: 998e 1e3d b8fb aa3d b894 f8bc 0eba 0b3d
000002f0: 5a61 593d a61e 523d c108 adba 08f8 07be
00000300: 1b3c 933d 526f 0b3e 659d d13c df25 883e
00000310: 3ec3 c13d 8f34 e6bd 556c a1ba b396 e93c
00000320: c992 94bc 980b 7cbc ec1f 0abd a3cd 2abd
00000330: e1b1 263e 2fce 093e 6989 0d3e 24ba 3cbd
00000340: 28b2 683d 1486 dfbc 417a c5bc 18b6 d7bd
00000350: c468 b53d 9c44 1d3e f194 e03d 021d 773e
00000360: 35e7 b2bd 3d5d d53d 0524 00bd f627 80bd
00000370: ea2f 073d 8739 fd3d 476f 223e 2f3b 02be
00000380: 7ec7 df3d 01dd f23c acdf 863d aa91 333d
00000390: ed6c bc3d 7f99 e2bc b87d b33d 8114 9a39
000003a0: 5847 953e d97a a6bd 922f 073e 39b9 d43d
000003b0: c610 a73d 2275 0d3e a8ec 213d 5772 f43d
000003c0: e0ec e83c 6589 86bc db99 023e 209d c2bd
000003d0: 2cc9 49bd 9d33 1d3e 91f0 353d 10aa a4bd
000003e0: 8189 2c3e 3fba 34bd d720 233d f0d9 ab3c
000003f0: 27c4 ef3d 4594 d73d ad4f 89bc 6e6e 8abd

fc2.bias f4 [64]
0.10344412 -0.03772788 0.0116634695 0.2677975 0.14231592 0.12448388 0.21086712 0.08555998
0.1050801 -0.09770192 -0.109896466 -0.08441887 -0.07458555 -0.04699406 -0.10755728 -0.0007725272
0.125454 0.134516 0.14579639 0.0037592063 -0.11866797 0.18434359 -0.040083595 0.08351388
0.23299165 0.039439324 -0.053998888 0.027210427 0.03030112 0.095291235 -0.10197149 -0.047124997
0.18649666 0.033495024 0.031566683 -0.050425336 -0.00037005352 -0.07035938 -0.03184055 0.10732644
-0.08250912 -0.12381822 0.025256073 0.18272473 0.07111497 0.0008519432 -0.09204361 0.0782912
-0.030622333 -0.05198559 -0.04133746 -0.0980951 0.1076401 0.10780693 -0.062470574 -0.09305902
0.0862708 0.068788946 0.089426525 -0.07250295 0.11511556 -0.102840334 -0.056077648 0.019607535
00000000: 83da d33d 8d88 1abd 2318 3f3c c11c 893e
00000010: 44bb 113e 68f1 fe3d 8ded 573e 123a af3d
00000020: 3c34 d73d f217 c8bd 6611 e1bd cde3 acbd
00000030: 4fc0 98bd d87c 40bd fe46 dcbd 6c83 4aba
00000040: 0377 003e 90be 093e a64b 153e 045d 763b
00000050: 3108 f3bd 91c4 3c3e b22e 24bd 5309 ab3d
00000060: 5d95 6e3e 218b 213d f02d 5dbd 67e8 de3c
00000070: 0e3a f83c 0d28 c33d 6ed6 d0bd 2406 41bd
00000080: fbf8 3e3e 1432 093d 114c 013d cc8a 4ebd
00000090: be03 c2b9 9418 90bd 3d6b 02bd f7cd db3d
000000a0: 8bfa a8bd 6894 fdbd d3e5 ce3c 311c 3b3e
000000b0: baa4 913d f154 5f3a 5c81 bcbd 2357 a03d
000000c0: b0db fabc d8ee 54bd 7851 29bd 15e6 c8bd
000000d0: 6a72 dc3d e1c9 dc3d 25e1 7fbd ba95 bebd
000000e0: bfae b03d 38e1 8c3d 4125 b73d 6d7c 94bd
000000f0: b5c1 eb3d f49d d2bd adb1 65bd fb9f a03c

fc3.weight f4 [4, 64]
0.17969713 -0.061386853 0.26510194 0.16364637 0.19165985 0.055961035 -0.08476597 -0.19059777
0.050839435 0.020935366 -0.051023744 -0.037550837 0.42795312 0.09339354 -0.26450953 -0.15325084
0.1338098 0.16279146 0.13974157 -0.0107911015 -0.1138281 0.14048755 0.0467544 0.19789225
0.025158029 0.13988148 0.12856017 0.0932767 0.14834762 0.18539965 -0.067386 -0.0036614235
0.08027538 -0.09327924 0.24379955 -0.052565154 0.2639047 -0.0788083 0.0126542635 0.29259264
-0.13645774 -0.11990107 -0.33371168 0.15812229 0.27947214 0.13120793 0.2132881 0.07318501
0.20723547 0.39123446 0.47279456 -0.12602498 0.18060492 0.13874285 0.14582436 0.15257072
-0.11902854 0.08117772 0.08510843 -0.10283298 0.10611845 -0.15503994 -0.104881294 -0.027880618
0.17865004 0.091856875 0.18612605 0.17624514 0.12273102 -0.04929981 0.14949225 -0.07616821
0.16427726 0.18114567 0.030364338 -0.07613824 0.18374074 0.073664255 -0.06005423 -0.0588762
0.03205575 0.05959612 0.16530085 0.00054079585 -0.009441056 0.041684877 0.087735526 0.1475623
0.13669778 0.14475524 -0.04571508 -0.07176044 0.19556811 0.11686473 -0.1569977 0.16404489
-0.066257074 -0.14467819 0.18661737 0.20895536 0.10679824 0.07209765 -0.02782008 0.25349417
-0.017725306 -0.16045162 0.0038689817 0.23135611 0.35374248 0.012442904 0.06351768 0.12348091
0.3427938 0.3060311 0.37693128 -0.24126786 0.20149736 0.16797727 -0.007961456 -0.108003244
-0.124301 0.08489127 0.05964961 0.042717896 0.25609612 0.025847284 -0.05399591 0.08864243
0.1307546 0.063570514 0.103504255 0.18063328 0.24946448 0.106035315 0.20655836 -0.021087302
0.031712323 0.09994922 -0.20611173 -0.2116456 0.053865105 0.28097507 -0.045938615 -0.10415617
0.17697929 0.17287427 -0.053829134 0.035746492 0.2398358 0.07718125 0.23019592 -0.018612165
0.112965696 0.15484107 -0.049388636 -0.06089637 0.1307878 0.012538314 -0.07357878 -0.03284571
0.16993092 -0.031160753 0.16482276 0.19117562 0.056115687 0.13733086 0.06552217 0.0273617
-0.50740635 -0.15957142 -0.35062313 0.17997272 0.18165644 0.09905971 0.36884734 0.27467299
0.32082877 0.12007979 0.13264364 -0.076822355 0.04669516 -0.0008431623 -0.09160974 0.12630658
-0.049473338 -0.071527034 0.06521471 0.10507073 0.007251577 -0.23634101 -0.29852572 0.19084063
0.17783816 0.13906609 0.079794995 0.10157548 0.28042448 -0.026518553 0.11492891 -0.3160449
-0.051725946 0.1875518 -0.120197 -0.06304681 -0.088283315 0.19687888 0.10962587 -0.0838349
0.068678916 0.15394373 0.047949277 0.25555673 -0.040328927 0.07147367 -0.0180693 0.23070851
0.09093692 0.120825365 0.052051276 0.1869717 0.23170172 0.13191961 -0.062021676 -0.045172
0.19893041 0.12111476 0.1820368 -0.16072077 0.05985348 -0.05371044 0.38656735 0.12158988
0.122684516 -0.09325609 -0.11338636 0.11970835 0.13485084 0.1144668 -0.099709034 -0.12147433
0.29751232 0.05318683 0.24550183 0.10023366 0.072218455 -0.009032588 0.14357582 -0.31838983
-0.40277144 0.20084152 0.12899834 -0.13170853 0.4430145 -0.04104596 -0.13185824 -0.5846252
00000000: 8602 383e c870 7bbd 71bb 873e ea92 273e
00000010: 7b42 443e 6637 653d c899 adbd 102c 43be
00000020: 033d 503d a580 ab3c 46fe 50bd e8ce 19bd
00000030: ac1c db3e 1d45 bf3d cb6d 87be caed 1cbe
00000040: 7005 093e ceb2 263e 6a18 0f3e 29cd 30bc
00000050: b51e e9bd f8db 0f3e 8b81 3f3d 44a4 4a3e
00000060: 3618 ce3c 173d 0f3e 47a5 033e db07 bf3d
00000070: 70e8 173e 68d9 3d3e ac01 8abd 7ef4 6fbb
00000080: 6b67 a43d 3009 bfbd 97a6 793e 8f4e 57bd
00000090: 841e 873e 3f66 a1bd d453 4f3c b4ce 953e
000000a0: 94bb 0bbe b18e f5bd 42dc aabe cfea 213e
000000b0: f916 8f3e 5f5b 063e 3268 5a3e 06e2 953d
000000c0: 8935 543e e24f c83e 2112 f23e b10c 01be
000000d0: 7ff0 383e 9b12 0e3e fb52 153e 803b 1c3e
000000e0: 3cc5 f3bd 8140 a63d 544d ae3d 199a d2bd
000000f0: a154 d93d cac2 1ebe 01cc d6bd e565 e4bc
00000100: 09f0 363e 751f bc3d d497 3e3e 9b79 343e
00000110: 675a fb3d 99ee 49bd 7f14 193e 14fe 9bbd
00000120: 4c38 283e 407e 393e a2be f83c 5eee 9bbd
00000130: 8826 3c3e 49dd 963d 6dfb 75bd 2c28 71bd
00000140: e44c 033d 101b 743d a044 293e 32c4 0d3a
00000150: a9ae 1abc c3bd 2a3d afae b33d 921a 173e
00000160: 81fa 0b3e b83a 143e bc3f 3bbd 23f7 92bd
00000170: 0243 483e c756 ef3d 01c4 20be 62fb 273e
00000180: cab1 87bd 8526 14be a018 3f3e 65f8 553e
00000190: 09b9 da3d efa7 933d f0e6 e3bc fdc9 813e
000001a0: a934 91bc 6e4d 24be be8e 7d3b 9ee8 6c3e
000001b0: bc1d b53e 52dd 4b3c 8f15 823d 8fe3 fc3d
000001c0: ab82 af3e 1cb0 9c3e 23fd c03e ec0e 77be
000001d0: 5355 4e3e 3c02 2c3e c470 02bc ce30 ddbd
000001e0: 8691 febd 79db ad3d 2653 743d f6f8 2e3d
000001f0: 081f 833e afbd d33c d12a 5dbd 2a8a b53d
00000200: 89e4 053e 4231 823d 0afa d33d eef7 383e
00000210: 9e73 7f3e 0b29 d93d 0984 533e 47bf acbc
00000220: c8e4 013d 2db2 cc3d f40e 53be a0b9 58be
00000230: a8a1 5c3d f7db 8f3e 212a 3cbd d44f d5bd
00000240: 0f3a 353e f405 313e f07b 5cbd ea6a 123d
00000250: 8497 753e 3411 9e3d 7bb8 6b3e 8a78 98bc
00000260: 8f5a e73d a88e 1e3e bd4b 4abd 796e 79bd
00000270: 3ded 053e 806d 4d3c 79b0 96bd 3989 06bd
00000280: 5f02 2e3e d644 ffbc 4cc7 283e 8bc3 433e
00000290: 90d9 653d 76a0 0c3e 7d30 863d a525 e03c
000002a0: 62e5 01bf b166 23be e084 b3be c54a 383e
000002b0: 2504 3a3e d1df ca3d 8fd9 bc3e f0a1 8c3e
000002c0: ab43 a43e 65ec f53d bcd3 073e 0a55 9dbd
000002d0: 6d43 3f3d aa07 5dba e39d bbbd 8356 013e
000002e0: 8ea4 4abd c47c 92bd 4a8f 853d 532f d73d
000002f0: a39e ed3b 6103 72be 5dd8 98be ba6b 433e
00000300: 351b 363e 5767 0e3e 8f6b a33d ce06 d03d
00000310: cc93 8f3e 703d d9bc d95f eb3d a3d0 a1be
00000320: 96de 53bd 940d 403e d829 f6bd b01e 81bd
00000330: e2cd b4bd 9e9a 493e 8783 e03d a2b1 abbd
00000340: 88a7 8c3d 6da3 1d3e 7666 443d 55d8 823e
00000350: f22f 25bd ca60 923d 1206 94bc da3e 6c3e
00000360: 233d ba3d 4a73 f73d b833 553d 8275 3f3e
00000370: 3743 6d3e ef15 073e 710a 7ebd 4606 39bd
00000380: 6ab4 4b3e 040b f83d db67 3a3e fc93 24be
00000390: ec28 753d 7aff 5bbd 28ec c53e 1d04 f93d
000003a0: 0542 fb3d 0dfd bebd 1c37 e8bd a729 f53d
000003b0: 5716 0a3e 926d ea3d 4034 ccbd 89c7 f8bd
000003c0: 8953 983e 6fda 593d d564 7b3e 4e47 cd3d
000003d0: 45e7 933d 6cfd 13bc 8a05 133e fe03 a3be
000003e0: 0f38 cebe 66a9 4d3e 2418 043e 9ade 06be
000003f0: ccd2 e23e cf1f 28bd d905 07be ffa9 15bf

fc3.bias f4 [4]
-0.01004814 0.097196266 0.023764845 0.11088394
00000000: f4a0 24bc d60e c73d 7eae c23c 1e17 e33d
