p3_collab-compet/checkpoint_actor_0.pth (torch_old, 183806 bytes, 6 tensors)

fc1.weight f4 [256, 48]
-0.16222613 0.3121798 -0.24109808 0.15496571 -0.11145213 0.033087865 -0.23604243 0.20831044
-0.13870709 0.5382622 -0.17730021 0.13239487 -0.11214199 -0.069382235 -0.11547775 0.2231253
-0.17845279 0.50931543 -0.27287605 0.35076013 -0.122952 0.06644994 -0.23431915 0.42086497
0.10727686 0.768375 -0.11580958 0.50676686 0.10913391 -0.019810727 -0.02101235 0.51227826
0.2115716 0.98287654 -0.050357252 0.42262048 0.09220189 -0.06764959 -0.08320774 0.46966016
0.13409126 0.9145927 -0.10455601 -0.04871979 0.1321183 0.071452975 -0.05790533 -0.01645299
0.1764421 0.38194996 -0.024674062 0.0712172 0.10275737 -0.27185464 0.00829276 0.09510993
0.13846883 0.23522575 0.00043474633 -0.113011494 -0.10905921 -0.0478514 0.089624606 -0.074120104
-0.01375718 -0.049477115 0.23527247 -0.22003621 0.027947214 0.18150379 0.22088075 -0.26486555
0.28940123 0.10883918 -0.18746337 -0.14649914 -0.15020683 -0.27722278 -0.19133738 -0.19600053
0.1662903 -0.17254585 -0.05204217 -0.37893823 0.10396802 -0.15601884 -0.0789175 -0.44449785
-0.06637041 -0.40049094 0.10802988 -0.6470028 -0.13120465 0.20626624 0.037228934 -0.6072322
0.40293884 0.4888539 0.22237752 -0.15215337 0.068132244 -0.0014721127 0.19457902 -0.059334964
0.37983826 0.55413014 0.12153055 0.00825948 0.008237935 -0.0817485 0.09081009 -0.073807165
0.40283233 0.60318965 0.21993788 -0.16749251 -0.013668594 -0.24196383 0.20423774 -0.15267608
-0.13387126 -0.16039306 -0.13364089 -0.43312034 -0.103707105 -0.0021318018 -0.0654855 -0.45654413
-0.16151087 -0.085311815 -0.011528872 -0.3223084 -0.05379852 -0.06490853 0.05024288 -0.42071524
-0.1387088 -0.15273952 -0.32617885 -0.23922417 -0.0019950562 -0.2759584 -0.2195906 -0.27096894
0.2224215 0.34131145 -0.26881397 -0.1659294 0.26206663 -0.019291429 -0.22106619 -0.23159312
0.17772476 0.24041298 0.048954226 0.13962848 0.32451013 -0.036803484 0.026519883 0.16232316
0.20077345 0.23981813 -0.074189045 0.15630576 0.37232968 -0.06747311 -0.16828597 0.1772851
0.3724763 -0.21224424 -0.14160915 0.0008171918 -0.36045352 -0.057110246 -0.114127606 -0.001886234
0.31114992 -0.17954114 -0.22977494 0.39201233 -0.29403415 -0.08133304 -0.1954334 0.3267267
0.35541424 -0.051179938 0.03613261 0.2314773 -0.31304726 0.043393254 -0.047905784 0.21884756
-0.14797692 0.4747258 0.07459022 -0.017036855 -0.06675972 -0.2970282 0.14132567 -0.043090045
-0.1383619 0.46500552 -0.096115224 0.03149509 -0.07114708 -0.28123736 -0.1633053 0.07196849
-0.26149443 0.40793535 -0.36698076 0.026990455 -0.19269365 -0.19614913 -0.32456467 -0.03920435
0.44888583 0.20326337 0.07725212 -0.31064096 -0.0038571875 -0.2600366 0.13675451 -0.19034007
0.28899333 -0.061312888 -0.04595085 -0.4241467 0.064483665 -0.35545844 0.008147804 -0.48617947
0.047338266 -0.38084316 -0.21846409 -0.40935934 0.25072113 -0.221658 -0.1562077 -0.46301264
-0.016750101 0.6258633 -0.18607551 -0.18709825 -0.27869347 -0.3652295 -0.16890682 -0.18856587
0.07907196 0.6357918 -0.10229454 -0.2771837 -0.23367621 -0.655284 -0.12271469 -0.2812761
00000000: 9b1e 26be 08d6 9f3e 6ae2 76be 55af 1e3e
00000010: 0441 e4bd 2487 073d 1bb5 71be 554f 553e
00000020: 3b09 0ebe 8dcb 093f 308e 35be 8592 073e
00000030: b3aa e5bd 4618 8ebd 997f ecbd f57a 643e
00000040: 54bc 36be 7f62 023f 69b6 8bbe d596 b33e
00000050: 42ce fbbd e816 883d 5cf1 6fbe 9d7b d73e
00000060: f8b3 db3d 39b4 443f 932d edbd 79bb 013f
00000070: 9981 df3d 1b4a a2bc 1822 acbc ab24 033f
00000080: 3aa6 583e cc9d 7b3f 6843 4ebd b661 d83e
00000090: 58d4 bc3d de8b 8abd d268 aabd 4c77 f03e
000000a0: 384f 093e bf22 6a3f 7621 d6bd 678e 47bd
000000b0: 054a 073e f055 923d 242e 6dbd 6cc8 86bc
000000c0: 3dad 343e f28e c33e 4221 cabc 53da 913d
000000d0: 7572 d23d 8830 8bbe 5bde 073c ffc8 c23d
000000e0: c6ca 0d3e 05df 703e aaee e339 9272 e7bd
000000f0: 6f5a dfbd d4ff 43bd 1b8d b73d 48cc 97bd
00000100: cc65 61bc 84a8 4abd 44eb 703e 2c51 61be
00000110: 8ef1 e43c 21dc 393e 902e 623e 759c 87be
00000120: 662c 943e 13e7 de3d 66f6 3fbe df03 16be
00000130: d2cf 19be 25f0 8dbe f2ed 43be 5db4 48be
00000140: 0148 2a3e dcaf 30be 2c2a 55bd 3104 c2be
00000150: 2fed d43d 67c3 1fbe 809f a1bd 3995 e3be
00000160: 36ed 87bd 260d cdbe c53e dd3d faa1 25bf
00000170: 835a 06be 7537 533e 5e7d 183d 9273 1bbf
00000180: 004e ce3e 0f4b fa3e efb6 633e 18ce 1bbe
00000190: eb88 8b3d e8f3 c0ba b93f 473e 3809 73bd
000001a0: 297a c23e 79db 0d3f 02e5 f83d c552 073c
000001b0: 67f8 063c c26b a7bd a4fa b93d 3628 97bd
000001c0: 0a40 ce3e a36a 1a3f 6537 613e 2883 2bbe
000001d0: 3df2 5fbc 5ec5 77be b323 513e 1e57 1cbe
000001e0: 8c15 09be 143e 24be 28d9 08be f3c1 ddbe
000001f0: 6464 d4bd b3b5 0bbb 431d 86bd 27c0 e9be
00000200: 1b63 25be f6b7 aebd 98e3 3cbc 9b05 a5be
00000210: d65b 5cbd c3ee 84bd 7acb 4d3d fd67 d7be
00000220: ae09 0ebe c067 1cbe ea00 a7be 2ef7 74be
00000230: 7dbf 02bb 6b4a 8dbe 5cdc 60be 71bc 8abe
00000240: 76c2 633e 60c0 ae3e fca1 89be 66e9 29be
00000250: 992d 863e 0f09 9ebc 2d5f 62be bf26 6dbe
00000260: 7bfd 353e d22e 763e 3a84 483d c5fa 0e3e
00000270: 3126 a63e 40bf 16bd 3a40 d93c 0b38 263e
00000280: 8e97 4d3e e292 753e 6df0 97bd 9e0e 203e
00000290: ffa1 be3e 582f 8abd 2853 2cbe 3a8a 353e
000002a0: 37b5 be3e 8e56 59be fd01 11be d038 563a
000002b0: 5d8d b8be 6fec 69bd bcbb e9bd 833b f7ba
000002c0: 0b4f 9f3e a2d9 37be 1f4a 6bbe d7b5 c83e
000002d0: a58b 96be f091 a6bd b11f 48be b948 a73e
000002e0: dbf8 b53e 0ea2 51bd caff 133d 6308 6d3e
000002f0: bb47 a0be 20bd 313d db38 44bd 9319 603e
00000300: 4387 17be 430f f33e c2c2 983d e090 8bbc
00000310: 52b9 88bd 1514 98be adb7 103e 307f 30bd
00000320: beae 0dbe 3415 ee3e 0fd8 c4bd ff00 013d
00000330: 8fb5 91bd 58fe 8fbe 8139 27be 3764 933d
00000340: 99e2 85be e7dc d03e e7e4 bbbe 161b dd3c
00000350: 7c51 45be 51db 48be 572d a6be be94 20bd
00000360: 5dd4 e53e 4624 503e 5c36 9e3d 550c 9fbe
00000370: dec8 7cbb 8423 85be 6009 0c3e 82e8 42be
00000380: eff6 933e 3923 7bbd f536 3cbd c229 d9be
00000390: 0310 843d a6fe b5be 5e7e 053c 84ec f8be
000003a0: c5e5 413d e0fd c2be 0db5 5fbe 8c97 d1be
000003b0: 855e 803e 51fa 62be e9f4 1fbe fe0f edbe
000003c0: 8237 89bc 9438 203f 948a 3ebe af96 3fbe
000003d0: e9b0 8ebe 5cff babe e9f5 2cbe 6917 41be
000003e0: 7bf0 a13d 40c3 223f cd7f d1bd 06eb 8dbe
000003f0: d148 6fbe b1c0 27bf d751 fbbd 6c03 90be

fc1.bias f4 [256]
-0.013704188 0.0030846833 -0.12858362 -0.33056927 0.03288249 -0.14719553 -0.22184138 -0.19336873
-0.05350713 0.1528655 -0.20258068 -0.18715802 -0.03207823 0.12071484 -0.22099482 -0.25372943
-0.10699888 -0.24985975 -0.21243568 0.062669136 0.30082548 -0.07935929 -0.027659956 -0.23245257
-0.049590122 -0.08631954 0.051388804 -0.20840563 0.17306946 -0.2693177 -0.1563453 -0.12026076
0.16691932 -0.125915 0.07207086 -0.24276146 -0.15753031 0.088761546 -0.30845243 -0.11357958
-0.17070068 -0.17621161 -0.11727076 -0.23937169 -0.2304774 -0.1342766 -0.05250816 -0.36757025
-0.008810874 0.05435829 0.06520651 -0.13635011 -0.16644807 -0.06070269 -0.22397952 -0.19646096
-0.013402846 -0.113797255 -0.10133685 0.049975406 0.112422615 -0.08875586 0.03280544 -0.07081171
-0.13256967 0.070481196 -0.2065899 0.036638767 -0.101305194 -0.072876364 0.021435253 -0.2754272
-0.15095755 -0.09209312 -0.21643634 0.17678854 -0.22788343 -0.27003294 -0.2463818 -0.07492245
-0.07145798 0.20983623 -0.048629336 -0.17914292 -0.004068977 -0.3855724 -0.40568703 -0.05125735
-0.017573036 0.047082204 -0.39419335 -0.1729856 0.07072947 -0.21694481 -0.22984226 -0.228884
-0.2217967 0.0179517 -0.08892494 -0.05511962 -0.119695015 -0.29217395 0.23461168 -0.1295615
-0.0826968 -0.047435883 -0.12361884 -0.26123917 0.104005136 -0.1189523 -0.28477433 -0.10141197
-0.22448969 -0.28781185 -0.3379792 -0.1324538 -0.3334938 -0.006871681 -0.23715058 -0.20278578
-0.06115917 -0.12782446 -0.26888978 -0.06847844 -0.2601712 -0.09647859 -0.32033587 -0.06471876
0.0858349 -0.09678908 -0.12550095 -0.28721562 -0.33947018 -0.08139286 -0.22952992 -0.036166098
-0.005114224 0.14737746 -0.14967757 -0.38182104 -0.12235458 -0.17681406 -0.3277036 -0.20458728
0.27358902 0.24794964 -0.017269904 0.013086344 -0.06681246 -0.16589628 -0.07317885 -0.27661392
0.0015549877 0.06594538 -0.16968425 -0.22964378 -0.00778286 -0.09652245 -0.10210192 -0.02568672
-0.28760332 -0.015082995 -0.036722817 -0.32492757 -0.3768442 -0.2503851 -0.15243255 0.09260439
-0.07348675 -0.2198843 0.015910612 -0.08074713 -0.061938375 0.04317527 0.26784065 -0.27859074
-0.06588833 -0.34238687 0.09130572 -0.21499564 0.10359663 0.1074208 -0.15699776 -0.107150294
-0.06831581 -0.20910904 0.03302109 -0.13088301 -0.22198735 0.03427238 0.013562 0.21205896
-0.015222362 -0.0015507722 -0.17878468 -0.14342153 -0.13058199 -0.24561125 -0.33428767 -0.23639825
-0.2447506 -0.18160427 -0.15551719 -0.15270345 -0.19595975 -0.046106547 -0.19075264 -0.25582758
0.004489063 -0.05855446 -0.21472338 -0.1990894 0.14329153 -0.1860388 -0.2431152 0.13051759
-0.19714612 -0.264623 -0.04475208 -0.10527981 -0.0119573325 -0.26280132 -0.20090537 -0.1967972
0.016121212 -0.19682145 -0.26369953 -0.11230576 -0.007721646 -0.15748641 -0.12273213 -0.09628295
-0.07874308 -0.15458114 -0.08103841 -0.05009266 -0.034880027 -0.11251554 0.23185252 -0.11671616
-0.16035596 -0.40109086 -0.22611077 -0.15946975 -0.31602314 -0.041231647 -0.25884196 -0.34547204
-0.12885484 -0.030088224 -0.32755643 -0.025166178 0.008605848 -0.17478108 -0.031783458 -0.33165273
00000000: 8887 60bc 6628 4a3b 6dab 03be 6040 a9be
00000010: caaf 063d 6dba 16be 632a 63be 7402 46be
00000020: 4b2a 5bbd c688 1c3e 4f71 4fbe 5aa6 3fbe
00000030: 7664 03bd 5839 f73d 774c 62be d3e8 81be
00000040: 3b22 dbbd 3cdb 7fbe bd88 59be ad58 803d
00000050: cc05 9a3e 2087 a2bd 2297 e2bc 0c08 6ebe
00000060: 031f 4bbd 4dc8 b0bd 117d 523d 4968 55be
00000070: 1f39 313e 02e4 89be fb18 20be 464b f6bd
00000080: e6ec 2a3e ddef 00be e399 933d 7696 78be
00000090: a04f 21be 9dc8 b53d 7aed 9dbe 699c e8bd
000000a0: 29cc 2ebe d170 34be a72b f0bd da1d 75be
000000b0: 4402 6cbe ce7f 09be cc12 57bd 2b32 bcbe
000000c0: 7c5b 10bc cca6 5e3d fe8a 853d 5d9f 0bbe
000000d0: 5d71 2abe 62a3 78bd e35a 65be 102d 49be
000000e0: 9c97 5bbc 890e e9bd b289 cfbd 03b3 4c3d
000000f0: d43d e63d a2c5 b5bd ff5e 063d bb05 91bd
00000100: 58c0 07be 7258 903d 4e8c 53be 8812 163d
00000110: 1979 cfbd 3440 95bd fc98 af3c cb04 8dbe
00000120: 9e94 1abe 519b bcbd 7da1 5dbe 0e08 353e
00000130: 465a 69be c241 8abe 834b 7cbe f170 99bd
00000140: 9058 92bd 4fdf 563e 8e2f 47bd 3e71 37be
00000150: 0e55 85bb bf69 c5be 36b6 cfbe 3af3 51bd
00000160: 54f5 8fbc 45d9 403d b6d3 c9be 2323 31be
00000170: 9dda 903d c826 5ebe c55b 6bbe 9160 6abe
00000180: ad1e 63be 720f 933c 471e b6bd 1cc5 61bd
00000190: a922 f5bd d397 95be 0b3e 703e c5ab 04be
000001a0: f15c a9bd 214c 42bd e02b fdbd 24c1 85be
000001b0: a500 d53d 439d f3bd f1cd 91be 14b1 cfbd
000001c0: a0e0 65be 135c 93be 9c0b adbe f8a1 07be
000001d0: b3bf aabe d72b e1bb 9ad7 72be 13a7 4fbe
000001e0: 0a82 7abd 6ae4 02be ecab 89be 6d3e 8cbd
000001f0: 2935 85be 9196 c5bd 1003 a4be 458b 84bd
00000200: 35ca af3d 5a39 c6bd 5283 00be ed0d 93be
00000210: 09cf adbe 4db1 a6bd e409 6bbe e722 14bd
00000220: 3895 a7bb 1eea 163e 1445 19be 0c7e c3be
00000230: 0a95 fabd bf0e 35be c4c8 a7be 547f 51be
00000240: dc13 8c3e 83e6 7d3e 9d79 8dbc 1b68 563c
00000250: f9d4 88bd b7e0 29be cbde 95bd 57a0 8dbe
00000260: bbd0 cb3a 5f0e 873d b5c1 2dbe bd27 6bbe
00000270: 5d07 ffbb 90ad c5bd d01a d1bd f56c d2bc
00000280: be40 93be ab1e 77bc aa6a 16bd e85c a6be
00000290: b9f1 c0be 7a32 80be 4717 1cbe 5fa7 bd3d
000002a0: 3980 96bd 5a29 61be f956 823c c05e a5bd
000002b0: 18b3 7dbd 8dd8 303d 6922 893e 72a3 8ebe
000002c0: 76f0 86bd 554d afbe 7efe ba3d d127 5cbe
000002d0: 782a d43d 70ff db3d 05c4 20be 9d71 dbbd
000002e0: 29e9 8bbd ae20 56be 1f41 073d 3206 06be
000002f0: a750 63be 3261 0c3d 2733 5e3c fc25 593e
00000300: 3767 79bc 4843 cbba 5513 37be 18dd 12be
00000310: 49b7 05be 8481 7bbe c127 abbe 6212 72be
00000320: e79f 7abe 78f6 39be e63f 1fbe 4b5e 1cbe
00000330: aca9 48be 38da 3cbd a954 43be d5fb 82be
00000340: fd18 933b cdd6 6fbd 72e0 5bbe 17de 4bbe
00000350: 04bb 123e f580 3ebe 31f3 78be 67a6 053e
00000360: ace0 49be aa7c 87be f54d 37bd f19c d7bd
00000370: b0e8 43bc e58d 86be 23ba 4dbe 3585 49be
00000380: a210 843c 908b 49be a003 87be 9000 e6bd
00000390: dd05 fdbb 1e44 21be fc5a fbbd ff2f c5bd
000003a0: 0d44 a1bd 854a 1ebe 77f7 a5bd f62d 4dbd
000003b0: 5cde 0ebd 8c6e e6bd bf6a 6d3e e208 efbd
000003c0: 5a34 24be c85b cdbe 9589 67be 0a4c 23be
000003d0: c9cd a1be 84e2 28bd ef86 84be b6e1 b0be
000003e0: 86f2 03be 947b f6bc 7ab5 a7be 4d29 cebc
000003f0: 8bff 0c3c d0f9 32be 5f2f 02bd 63ce a9be

fc2.weight f4 [128, 256]
-0.1079091 -0.052418925 0.026290856 -0.056960315 -0.09651809 -0.040876705 -0.06926964 -0.038409762
-0.04979029 -0.069149435 -0.10291248 -0.0054155537 -0.111783385 -0.033003226 0.07859038 -0.03714915
-0.11614286 -0.060068436 -0.13457488 -0.078894414 -0.08314934 -0.050588492 -0.07815179 0.018868925
-0.1122382 -0.08411592 -0.09788934 0.054714244 -0.14051147 -0.14858387 -0.12508127 -0.051773794
0.115189046 0.0052457224 -0.07776646 -0.12776461 -0.07667539 -0.100605555 0.020400777 -0.041461453
-0.07723446 0.04351144 -0.13937591 -0.10169414 -0.05486873 -0.10052706 -0.12360784 0.014435964
-0.10183012 0.021722639 0.028136728 -0.14203997 -0.045749865 -0.030682715 -0.06316576 -0.07674962
-0.07417823 -0.049448263 -0.01418127 -0.070406936 -0.02943934 -0.009425932 -0.03957728 -0.068980776
-0.030310605 0.121768914 -0.07833076 -0.04633174 -0.07791348 -0.06849918 -0.022028502 -0.0836955
-0.028119434 0.0590797 -0.0166901 0.038819082 -0.03927024 -0.009837367 -0.11800593 -0.05166555
-0.11454997 -0.10536717 -0.00080949964 -0.053543378 -0.0029576472 -0.058954794 0.028525414 -0.034887284
-0.17692016 -0.00050025125 -0.119760394 -0.06948861 -0.03928873 -0.03738726 0.011468297 -0.04067252
-0.07631202 -0.024788653 -0.0032652807 0.039704036 0.012861739 -0.076996 -0.026716067 -0.13793883
-0.109010085 0.05688787 -0.048615888 -0.08075397 -0.053971194 -0.20309043 0.0014913045 -0.0070025865
-0.067183964 -0.12409101 -0.07846945 -0.0066659744 -0.12132876 -0.16000119 -0.1054047 0.016424643
-0.06180255 -0.124488875 -0.117914066 -0.051132753 -0.025705816 -0.05482233 -0.06779661 0.020864032
-0.085411064 0.04483891 -0.0013023737 -0.14634803 -0.055681895 -0.044759948 0.035612747 -0.08755719
-0.049209874 0.066344805 0.00722538 -0.03410388 0.08512144 0.06490743 0.0066326754 -0.038817033
-0.05663127 0.13074774 -0.004795604 -0.074493736 0.062458545 -0.004791136 -0.05061868 -0.08376913
-0.102535255 -0.05906672 -0.10567499 0.030303985 -0.020408254 -0.06552061 -0.040868733 -0.13380572
-0.052316178 -0.029061506 -0.0758443 -0.0732671 0.119078815 -0.029291186 -0.013997473 -0.015479559
-0.19270164 -0.017294718 -0.027987173 0.0061572073 -0.011164663 -0.11777117 0.0759064 -0.07419335
-0.0035341487 -0.05338707 -0.0014317202 -0.13802198 0.056084868 -0.042213235 0.13693771 0.039179083
0.05011818 0.00852969 0.010069446 -0.044309746 -0.04857927 0.04707832 0.032443594 -0.07706024
-0.16769327 0.008184066 -0.07663506 -0.0151796965 0.008705539 -0.03485581 -0.026325652 -0.075458355
-0.034483463 -0.048054166 -0.021700213 0.040070146 -0.004234644 -0.09203206 -0.10046715 0.038474437
-0.06701128 0.05757329 -0.14951873 -0.019782037 -0.034330834 -0.003960076 -0.01306478 -0.03495254
-0.010944116 0.021189412 0.040412344 -0.072113976 -0.029264707 -0.03167868 0.034702428 0.039789416
0.033533264 -0.10277178 0.08763984 -0.04885065 -0.06372781 -0.07803591 -0.039086238 -0.095876224
-0.034109905 0.04798403 -0.07163942 -0.08710134 -0.008770304 0.00500917 -0.050656352 0.08699262
-0.04082398 -0.122978546 -0.002701683 -0.07619237 -0.030931529 -0.11072858 0.023774408 0.045556184
0.01455768 -0.05181115 -0.05485964 0.034647666 -0.10857874 0.04828897 -0.14629753 0.07497997
00000000: 72ff dcbd 3ab5 56bd ec5f d73c 384f 69bd
00000010: 47ab c5bd 556e 27bd 3edd 8dbd 8e53 1dbd
00000020: e7f0 4bbd 389e 8dbd c7c3 d2bd f574 b1bb
00000030: b0ee e4bd 642e 07bd fef3 a03d b529 18bd
00000040: 4fdc edbd 520a 76bd ffcd 09be 6593 a1bd
00000050: 334a aabd e135 4fbd 0c0e a0bd 0193 9a3c
00000060: 24dd e5bd f844 acbd 357a c8bd 0b1c 603d
00000070: 3de2 0fbe 5f26 18be 4e15 00be c210 54bd
00000080: 3ce8 eb3d 4fe4 ab3b 0644 9fbd bad4 02be
00000090: fd07 9dbd 490a cebd 881f a73c 7cd3 29bd
000000a0: 1a2d 9ebd 0d39 323d 8fb8 0ebe 0445 d0bd
000000b0: 09be 60bd 22e1 cdbd 1b26 fdbd d284 6c3c
000000c0: 4f8c d0bd adf3 b13c ff7e e63c ed72 11be
000000d0: 3664 3bbd 515a fbbc 0d5d 81bd e82e 9dbd
000000e0: c1ea 97bd 438a 4abd 8f58 68bc 8331 90bd
000000f0: c52a f1bc 396f 1abc c91b 22bd cb45 8dbd
00000100: f24d f8bc fb61 f93d e16b a0bd 5ac6 3dbd
00000110: 1a91 9fbd 4c49 8cbd 1e75 b4bc 8c68 abbd
00000120: ba5a e6bc 8efd 713d adb9 88bc c200 1f3d
00000130: d5d9 20bd e82c 21bc 18ad f1bd 419f 53bd
00000140: 2d99 eabd beca d7bd 9a34 54ba 4d50 5bbd
00000150: 16d5 41bb 957a 71bd 21ae e93c f8e5 0ebd
00000160: 8f2a 35be 4b23 03ba f044 f5bd 0b50 8ebd
00000170: 38ed 20bd 6223 19bd 86e5 3b3c 3a98 26bd
00000180: 7a49 9cbd 9311 cbbc 52fe 55bb b3a0 223d
00000190: 0bba 523c 14b0 9dbd a7db dabc d63f 0dbe
000001a0: ae40 dfbd 4103 693d 7421 47bd 5662 a5bd
000001b0: e610 5dbd f0f6 4fbe e077 c33a f475 e5bb
000001c0: bf97 89bd 6d23 febd 97b4 a0bd 3f6e dabb
000001d0: 377b f8bd 5ad7 23be 6bde d7bd f98c 863c
000001e0: ac24 7dbd 06f4 febd ee7c f1bd 9470 51bd
000001f0: 0195 d2bc 618d 60bd f3d8 8abd 0ceb aa3c
00000200: ffeb aebd 01a9 373d 69b4 aaba 42dc 15be
00000210: b312 64bd 3556 37bd acde 113d 2f51 b3bd
00000220: 4b90 49bd c9df 873d e1c2 ec3b 83b0 0bbd
00000230: 2654 ae3d 30ee 843d ea56 d93b 9cfe 1ebd
00000240: 31f6 67bd bce2 053e 7124 9dbb 2c90 98bd
00000250: 88d4 7f3d f6fe 9cbb 8855 4fbd 268f abbd
00000260: 01fe d1bd f2ef 71bd 216c d8bd 1040 f83c
00000270: 362f a7bc ab2f 86bd f965 27bd 5e04 09be
00000280: 7d49 56bd 6512 eebc 4254 9bbd 100d 96bd
00000290: 98df f33d 12f4 efbc a855 65bc fa9d 7dbc
000002a0: 9453 45be a7ad 8dbc 5b45 e5bc 66c2 c93b
000002b0: feeb 36bc 0332 f1bd d174 9b3d aff2 97bd
000002c0: 2d9d 67bb 66ac 5abd 8fa8 bbba a255 0dbe
000002d0: 3fb9 653d c9e7 2cbd 6639 0c3e 3f7a 203d
000002e0: b948 4d3d 1dc0 0b3c 51fa 243c 237e 35bd
000002f0: 0efb 46bd 32d5 403d 93e3 043d c2d1 9dbd
00000300: c9b7 2bbe 7616 063c d8f2 9cbd 43b4 78bc
00000310: ada1 0e3c f7c4 0ebd e5a8 d7bc e989 9abd
00000320: 883e 0dbd 72d4 44bd a5c4 b1bc 9820 243d
00000330: c5c2 8abb 4e7b bcbd b9c1 cdbd 5f97 1d3d
00000340: 363d 89bd f8d1 6b3d 701b 19be f00d a2bc
00000350: 7d9e 0cbd 86c3 81bb a90d 56bc 652a 0fbd
00000360: f34e 33bc 6b95 ad3c 6a87 253d 7eb0 93bd
00000370: 8abc efbc 81c1 01bd 2224 0e3d 3afa 223d
00000380: 2d5a 093d 037a d2bd 847c b33d 9f17 48bd
00000390: ba83 82bd 4bd1 9fbd e418 20bd c15a c4bd
000003a0: d4b6 0bbd e78a 443d b0b7 92bd 3062 b2bd
000003b0: 52b1 0fbc f723 a43b 097d 4fbd 3029 b23d
000003c0: 0c37 27bd 2ddc fbbd b80e 31bb bf0a 9cbd
000003d0: 1e64 fdbc aac5 e2bd 8cc2 c23c 1f99 3a3d
000003e0: 5683 6e3c ee37 54bd 80b4 60bd b6ea 0d3d
000003f0: 885e debd a8ca 453d 05cf 15be 198f 993d

fc2.bias f4 [128]
-0.0694189 -0.056769095 -0.4203086 -0.085716896 -0.08743209 -0.10161347 -0.28495812 -0.013813238
-0.0030226351 0.07800619 -0.089594595 -0.16609131 -0.108753435 -0.08143251 0.123434894 -0.12685053
-0.01757692 0.14012556 -0.21382959 -0.19527017 -0.118130326 -0.023298586 -0.011950361 -0.17046742
-0.09035291 -0.12061708 -0.026664523 -0.08300959 -0.084654056 -0.3870286 -0.09943192 -0.18020044
-0.36702582 -0.36035416 -0.11641233 -0.11231596 -0.085118234 -0.050077546 -0.3388053 -0.0021876663
-0.27461845 -0.20255989 -0.008746812 -0.11884455 -0.01508649 0.08657715 -0.12959617 -0.13099074
-0.044345234 -0.45397067 -0.12767443 -0.13104697 -0.10692951 -0.045442544 -0.03100784 -0.06501182
-0.20466052 -0.059775647 -0.09197056 -0.17903714 -0.018552592 -0.02110165 -0.015935745 -0.081441596
-0.31669906 0.05978843 -0.18984677 -0.1447539 -0.20843083 -0.18936352 -0.03555887 0.09398823
-0.28738856 -0.27948204 0.15233287 -0.09539482 -0.17870653 -0.06993491 -0.08171444 0.018432468
-0.14680101 -0.14869574 -0.447117 -0.22535655 -0.34437034 -0.16334185 -0.33999425 0.1691436
0.006909286 -0.06210867 -0.018136805 -0.21076068 -0.25102624 -0.06229772 -0.02784251 -0.24942736
-0.26647395 -0.365659 -0.038439505 0.062393706 -0.11514211 -0.010212915 -0.0816552 -0.1201938
-0.22263125 -0.20325549 0.054041035 -0.029816864 -0.036222763 -0.12677698 -0.35322264 -0.23638913
-0.2534219 -0.271002 -0.25966927 -0.16025439 -0.14967422 -0.055223998 -0.05765741 -0.47082317
-0.18661729 -0.10019089 -0.0600696 -0.05813371 0.12055815 0.03340362 -0.45283163 -0.26095286
00000000: 7f2b 8ebd b686 68bd b032 d7be 578c afbd
00000010: 980f b3bd b91a d0bd 08e6 91be eb50 62bc
00000020: 6717 46bb b6c1 9f3d 5f7d b7bd d713 2abe
00000030: 1fba debd 16c6 a6bd 6fcb fc3d 1be5 01be
00000040: 79fd 8fbc 137d 0f3e 25f6 5abe e7f4 47be
00000050: 50ee f1bd addc bebc 72cb 43bc 038f 2ebe
00000060: f20a b9bd 1606 f7bd 8f6f dabc ef00 aabd
00000070: 1b5f adbd 9d28 c6be f6a2 cbbd 7786 38be
00000080: cfea bbbe 5780 b8be 9669 eebd e905 e6bd
00000090: 7852 aebd 1d1e 4dbd e377 adbe f35e 0fbb
000000a0: ca9a 8cbe dc6b 4fbe ca4e 0fbc c564 f3bd
000000b0: 532d 77bc 5c4f b13d dcb4 04be 7022 06be
000000c0: 59a3 35bd d86e e8be 16bd 02be 2d31 06be
000000d0: dcfd dabd f621 3abd 2704 febc eb24 85bd
000000e0: 8792 51be 4fd7 74bd 105b bcbd 8355 37be
000000f0: 9bfb 97bc 5edd acbc ae8b 82bc daca a6bd
00000100: 6126 a2be b6e4 743d 3167 42be 5e3a 14be
00000110: e46e 55be 83e8 41be 2da6 11bd e77c c03d
00000120: 9824 93be 4518 8fbe 26fd 1b3e 5c5e c3bd
00000130: d8fe 36be 093a 8fbd e659 a7bd b0ff 963c
00000140: 0153 16be b243 18be 85ec e4be dec3 66be
00000150: 4f51 b0be 1643 27be ba13 aebe fb33 2d3e
00000160: 4b67 e23b a965 7ebd a393 94bc a6d1 57be
00000170: 8386 80be e52b 7fbd fa15 e4bc e369 7fbe
00000180: 466f 88be a837 bbbe be72 1dbd 8b90 7f3d
00000190: a0cf ebbd 1254 27bc d73a a7bd 2b28 f6bd
000001a0: 72f9 63be 3522 50be 225a 5d3d 7f42 f4bc
000001b0: 525e 14bd d3d1 01be 99d9 b4be fe0f 72be
000001c0: 84c0 81be c6c0 8abe 5ff3 84be ba19 24be
000001d0: 3344 19be 8f32 62bd 2d2a 6cbd bc0f f1be
000001e0: 9a18 3fbe e230 cdbd 8a0b 76bd 9d1d 6ebd
000001f0: 31e7 f63d 3cd2 083d 8cd9 e7be 9d9b 85be

fc3.weight f4 [2, 128]
-0.0074301106 -0.055736613 -0.06337572 0.10121602 -0.010801294 0.022754854 -0.0038734798 -0.13032222
0.1537234 -0.009652455 0.0036286644 0.5127847 -0.11909584 0.069607936 0.21317114 -0.087498896
0.07754924 0.00032167137 -0.08372477 -0.20585255 -0.17201471 -0.0023330501 -0.008938315 -0.11877892
0.035768133 0.00014846944 -0.034480806 -0.09475745 0.041770283 0.28861058 -0.01154929 -0.037308875
-0.30897903 -0.18218903 0.085314035 -0.054368325 -0.018748453 -0.01798111 -0.030144371 -0.008969935
0.035750836 0.027613759 -0.0075870734 -0.1693772 -0.006987696 0.0061070677 -0.17467569 0.09415692
0.11350022 -0.37441698 0.17193294 0.37905264 0.04681576 0.048061784 -0.009690463 -0.048389863
-0.121551715 0.0304107 -0.0015791366 -0.19158378 -0.023736073 0.010831419 -0.009386206 -0.10164105
-0.027834851 -0.012383057 -0.049572024 -0.09868225 0.22060448 0.18084177 0.015426012 0.057263818
-0.01559089 -0.02797631 0.018442683 0.004035625 0.18412429 -0.2413656 -0.009138896 -0.0006855579
-0.082993515 -0.13687724 -0.39194566 0.25677913 -0.24784559 -0.013604691 -0.044063102 0.07773025
0.0045880503 0.17210306 0.11414179 0.26106393 -0.05538888 0.011881633 0.0031604997 -0.038669325
-0.04435773 -0.11710742 0.06617792 -0.051034022 0.16884857 -0.0006700686 -0.09370786 -0.03258224
0.1532664 0.14379 0.16389728 0.10938994 -0.012100663 0.002943826 -0.12781574 -0.13424595
-0.041330837 -0.16298501 0.05359965 -0.12653184 -0.42259985 0.02632179 -0.0660882 -0.1019685
-0.017533945 -0.03686668 -0.12292002 -0.09170533 0.067961425 0.0054169544 -0.421895 0.0686378
-0.02268604 0.05356615 -0.45317978 0.49680966 -0.35943487 -0.47058827 -0.26220706 -0.009345402
0.060668457 0.4036496 0.005720864 0.007148232 0.10930305 0.33930779 0.5020165 0.08080843
0.48398802 0.49292892 0.08307518 0.03441057 -0.057522826 0.0065773516 0.0076032975 0.021467924
0.35918382 -0.43842262 -0.23678936 -0.21438573 0.28090426 -0.10114836 -0.5030223 0.06848286
-0.16199183 -0.12589622 0.34464437 0.007827676 0.008566648 0.010606346 -0.5503388 -0.017609812
-0.3291434 0.35599682 -0.6368986 -0.077561095 -0.0071997982 0.43804103 0.03797775 -0.34564763
-0.15246981 -0.12366065 0.2111987 0.36676124 0.011181531 0.43853986 0.5963973 0.23970604
0.32131618 -0.016155653 0.30763245 0.09234451 -0.0017053137 0.03605629 -0.012439591 0.38833764
-0.31016335 0.3768587 -0.2749465 0.17757198 -0.3186145 -0.19071522 0.06196601 0.34087634
-0.32700163 0.21652353 0.35060218 0.011324311 -0.07269112 0.028102448 -0.0023467778 0.008831495
0.28000885 -0.017087458 -0.11427371 -0.02145366 -0.19418913 -0.40519193 -0.009410068 0.2890374
0.009427601 -0.13554223 0.7373517 -0.1878266 -0.14996135 0.027881887 0.0031137157 0.065574676
-0.18259193 -0.49958262 0.036510386 0.23493437 -0.27002895 -0.016862363 -0.30534047 -0.38572955
0.11218212 -0.15239975 -0.055066664 0.48265922 0.004470299 -0.002070307 0.029329916 -0.19248149
0.30318347 -0.26806065 -0.066872105 0.031821873 0.16874518 -0.024510205 0.011339734 -0.10710534
0.31864646 0.102414005 -0.24979505 -0.3087115 0.4274661 -0.6561564 -0.20139165 0.1803843
00000000: 4978 f3bb 134c 64bd 21cb 81bd 584a cf3d
00000010: e9f7 30bc 6368 ba3c 35da 7dbb 3073 05be
00000020: ab69 1d3e 5525 1ebc e3ce 6d3b dc45 033f
00000030: 85e8 f3bd 9b8e 8e3d 8949 5a3e 9f32 b3bd
00000040: 23d2 9e3d 00a6 a839 e477 abbd 03cb 52be
00000050: a024 30be 16e6 18bb 0372 12bc 5d42 f3bd
00000060: 9b81 123d 76ae 1b39 bf3b 0dbd 3210 c2bd
00000070: 5117 2b3d c4c4 933e 3c39 3dbc 31d1 18bd
00000080: 8032 9ebe c38f 3abe 20b9 ae3d 52b1 5ebd
00000090: 5b96 99bc 1f4d 93bc 54f1 f6bc a2f6 12bc
000000a0: 786f 123d 4036 e23c fc9c f8bb 3771 2dbe
000000b0: 0bf9 e4bb cc1d c83b 2fde 32be 58d5 c03d
000000c0: ce72 e83d 95b3 bfbe 300f 303e 3013 c23e
000000d0: e2c1 3f3d 6fdc 443d bfc4 1ebc 7334 46bd
000000e0: 1bf0 f8bd dc1f f93c 08fb ceba 8a2e 44be
000000f0: 2772 c2bc 4476 313c 9ac8 19bc 2f29 d0bd
00000100: ea05 e4bc 4ee2 4abc 090c 4bbd eb19 cabd
00000110: 24e6 613e 962e 393e 62bd 7c3c 778d 6a3d
00000120: ef70 7fbc 932e e5bc 1c15 973c 473d 843b
00000130: 148b 3c3e 8b28 77be 4fbb 15bc 03b7 33ba
00000140: 81f8 a9bd 8c29 0cbe 1aad c8be 8e78 833e
00000150: 3ccb 7dbe 36e6 5ebc 837b 34bd 0a31 9f3d
00000160: 5b57 963b c93b 303e 2cc3 e93d 2caa 853e
00000170: 73df 62bd 2eab 423c 6320 4f3b ba63 1ebd
00000180: 73b0 35bd 04d6 efbd 4a88 873d 0d09 51bd
00000190: a4e6 2c3e 8ba7 2fba e8e9 bfbd f474 05bd
000001a0: def1 1c3e b03d 133e b0d4 273e d507 e03d
000001b0: dc41 46bc 34ed 403b 21e2 02be c577 09be
000001c0: 864a 29bd 8be5 26be 4e8b 5b3d 9091 01be
000001d0: 025f d8be cba0 d73c 4059 87bd dcd4 d0bd
000001e0: 59a3 8fbc 8401 17bd 7ebd fbbd 01d0 bbbd
000001f0: 5c2f 8b3d b580 b13b 9f02 d8be fa91 8c3d
00000200: 13d8 b9bc 2e68 5b3d 2e07 e8be d65d fe3e
00000210: d907 b8be f2f0 f0be 0140 86be 751d 19bc
00000220: 7d7f 783d 29ab ce3e 1676 bb3b b73b ea3b
00000230: 47da df3d c0b9 ad3e 2784 003f e47e a53d
00000240: 47cd f73e 2e61 fc3e 5223 aa3d 19f2 0c3d
00000250: 0e9d 6bbd d386 d73b 1525 f93b 80dd af3c
00000260: f1e6 b73e ee78 e0be e978 72be ef87 5bbe
00000270: afd2 8f3e df26 cfbd 12c6 00bf be40 8c3d
00000280: 30e1 25be f0ea 00be 3a75 b03e a73f 003c
00000290: 205b 0c3c 3dc6 2d3c 01e3 0cbf 7442 90bc
000002a0: 7c85 a8be 3745 b63e c90b 23bf 5ad8 9ebd
000002b0: 49ec ebbb ea46 e03e 8f8e 1b3d baf8 b0be
000002c0: 0c21 1cbe cb41 fdbd 7944 583e 21c8 bb3e
000002d0: bd32 373c 4c88 e03e 7ead 183f 8075 753e
000002e0: 8e83 a43e dc58 84bc 0082 9d3e 1e1f bd3d
000002f0: d584 dfba c3af 133d 6dcf 4bbc 31d4 c63e
00000300: bbcd 9ebe a0f3 c03e cac5 8cbe 6ed5 353e
00000310: 7121 a3be da4a 43be 12d0 7d3d 5887 ae3e
00000320: c26c a7be 58b8 5d3e 2182 b33e 9a89 393c
00000330: 15df 94bd 1b37 e63c 66cc 19bb fab1 103c
00000340: 525d 8f3e fffa 8bbc 5608 eabd 96bf afbc
00000350: 84d9 46be 5175 cfbe b02c 1abc b6fc 933e
00000360: 3976 1a3c 95cb 0abe 15c3 3c3f 9e55 40be
00000370: 788f 19be 8e68 e43c 7b0f 4c3b 044c 863d
00000380: 61f9 3abe 4bc9 ffbe ea8b 153d a392 703e
00000390: 3c41 8abe f022 8abc 9655 9cbe 587e c5be
000003a0: bdbf e53d ae0e 1cbe 958d 61bd 1c1f f73e
000003b0: 967b 923b fdad 07bb 4b45 f03c de19 45be
000003c0: dd3a 9b3e 3f3f 89be 3ef4 88bd a757 023d
000003d0: 89cb 2c3e a0c9 c8bc 4bca 393c 0b5a dbbd
000003e0: a125 a33e 6fbe d13d 46ca 7fbe 6f0f 9ebe
000003f0: d6dc da3e def9 27bf 9d39 4ebe a9b6 383e

fc3.bias f4 [2]
0.08734313 0.0133495
00000000: f4e0 b23d dcb7 5a3c
