p3_collab-compet/checkpoint_actor_1.pth (torch_old, 183806 bytes, 6 tensors)

fc1.weight f4 [256, 48]
0	0x3e6bda73	0.2303255
1	0xbc07d6ed	-0.008290988
2	0x3e2c6b15	0.16837724
3	0x3ea7a38c	0.32741964
4	0xbd460dc4	-0.04835297
5	0xbea06435	-0.31326452
6	0x3e31986e	0.17343304
7	0x3ec2f3a6	0.38076514
8	0x3e7c2677	0.24624048
9	0x3e3e8060	0.18603659
10	0x3ca5abe4	0.020223565
11	0x3e1e984b	0.15487783
12	0xbe50212e	-0.20325157
13	0xbedb96d6	-0.42888516
14	0x3da80828	0.08204681
15	0x3e7b80d2	0.2456086
16	0x3eaa3db6	0.33250207
17	0x3e9622f0	0.2932353
18	0x3df3a8f1	0.118974574
19	0x3ed10bd4	0.40829337
20	0xbe849bdf	-0.2590017
21	0xbefa5f44	-0.48900807
22	0x3e214fd3	0.15753107
23	0x3ef4f050	0.47839594
24	0x3d26518e	0.04060512
25	0xbe1acc3d	-0.15116973
26	0xbe879c59	-0.2648647
27	0x3ba2270b	0.004948502
28	0x3d3c8f34	0.046035007
29	0xbebb7a07	-0.36616537
30	0xbe2e25e9	-0.17006649
31	0x3c2b6025	0.010459934
32	0x3e282e83	0.16423993
33	0xbcfd302e	-0.030906763
34	0x3dc46a77	0.09590619
35	0x3e06da42	0.13169196
36	0x3e3bb624	0.183312
37	0xbedab3ba	-0.42715245
38	0x3d812304	0.06305507
39	0x3e37051e	0.17873046
40	0x3e2dbf0b	0.16967408
41	0x3d915399	0.07096023
42	0xbe44c023	-0.1921392
43	0x3cd8e491	0.026476176
44	0x3e894d69	0.26816872
45	0xbef7cf82	-0.48400503
46	0xbe14fab6	-0.14548764
47	0x3d709ba8	0.058742195
48	0x3ef2ee40	0.47447395
49	0x3eef0882	0.46686178
50	0xbe093f73	-0.1340311
51	0x3e45ff1b	0.19335596
52	0xbf0cd292	-0.55008805
53	0xbe5b776d	-0.21432276
54	0xbdcef9ab	-0.10106214
55	0x3e5e7669	0.21724857
56	0x3ebb756b	0.3661302
57	0x3e7d56ef	0.24740194
58	0xbdb8460d	-0.08997736
59	0xbe207bd3	-0.15672235
60	0xbd705e33	-0.058683585
61	0x3debd8df	0.11515974
62	0xba4e9902	-0.00078810763
63	0xbdf15120	-0.117830515
64	0x3e7cd92a	0.24692217
65	0x3e0742c0	0.13209057
66	0x3ce3a6ca	0.027789492
67	0x3add7cad	0.0016898118
68	0x3d4a4f76	0.049392186
69	0x3e833f80	0.25634384
70	0x3c5b8263	0.013397786
71	0xbd30b475	-0.043140847
72	0x3f006916	0.5016035
73	0x3e37f6af	0.17965196
74	0x3c8ead93	0.017416751
75	0x3e7fa08e	0.2496359
76	0x3f00ace9	0.5026384
77	0xbe60f6ef	-0.21969198
78	0x3c5de2ff	0.01354289
79	0x3e4cf01f	0.20013474
80	0x3eafc611	0.343308
81	0xbd22fd9e	-0.03979265
82	0xbe2dac96	-0.16960368
83	0x3e73a917	0.23794971
84	0x3d5b8311	0.05359179
85	0x3be51886	0.006991449
86	0xbe4931a2	-0.1964784
87	0x3e3086f3	0.17238979
88	0x3e585a09	0.21128096
89	0xbd48201f	-0.048858758
90	0x3d31cd94	0.043408945
91	0x3ed010d7	0.40637848
92	0xbe1c505a	-0.15265027
93	0x3e8fed2c	0.28110635
94	0xbce06316	-0.027390998
95	0x3ee46dcd	0.4461502
96	0x3e9e0c06	0.30868548
97	0xbf52e256	-0.8237661
98	0x3dae02ac	0.08496603
99	0x3f0cba7f	0.5497207
100	0xbdeca49a	-0.11554833
101	0x3dc9ddc0	0.098567486
102	0x3d6a290f	0.057168063
103	0x3f247db1	0.6425429
104	0x3ea31543	0.3185216
105	0xbf124081	-0.57129675
106	0x3d1263b0	0.0357396
107	0x3f58d363	0.8469755
108	0x3da5fa70	0.08104408
109	0xbc2f288c	-0.0106908195
110	0x3ba4723a	0.0050184997
111	0x3f43d113	0.76490897
112	0x3e2ddc4f	0.16978572
113	0xbec7a8bc	-0.38995922
114	0xbdbbdc0f	-0.09172832
115	0x3f253f55	0.6454976
116	0x3ec5dd1b	0.38645253
117	0x3a9124d9	0.0011073604
118	0xbddc034f	-0.107428186
119	0x3f290a5b	0.66031426
120	0x3d1d89ca	0.038461484
121	0xbd942027	-0.07232695
122	0xbdc58c53	-0.09645905
123	0xbd1af8ea	-0.03783504
124	0x3da3c91c	0.07997343
125	0x3dc883d0	0.09790766
126	0xbce7d8b5	-0.028301576
127	0xbd7aebd4	-0.06126006
128	0x3cc8508e	0.024452474
129	0x3dbdf683	0.09275534
130	0x3c46ba73	0.012129414
131	0x3c479abc	0.012182888
132	0xbe01a459	-0.1266035
133	0x3bc97d3e	0.0061489632
134	0x3d9759af	0.07390153
135	0xbdb09612	-0.08622374
136	0x3ccba12e	0.02485713
137	0xbc5e5cd6	-0.0135719385
138	0xbe83f209	-0.25770596
139	0xbe2d67f7	-0.1693419
140	0xbecde225	-0.40211597
141	0xbd06b4e3	-0.03288735
142	0xbe1abe7d	-0.15111728
143	0xbe4dea0f	-0.20108818
144	0xbd0336cc	-0.03203468
145	0xbe18778b	-0.14889352
146	0xbc005bf4	-0.007834423
147	0x3ec8b775	0.39202467
148	0x3eb39a2e	0.35078567
149	0xbe50f83c	-0.20407194
150	0x3d237ceb	0.039914053
151	0x3ea718cf	0.32636115
152	0xbd8d59f5	-0.069019236
153	0xbdeb20ce	-0.114808664
154	0x3da2a0b0	0.07940805
155	0x3e85c088	0.26123452
156	0x3dcf607f	0.10125827
157	0xbf000076	-0.50000703
158	0x3d695cda	0.056973316
159	0x3e915f5c	0.28393066
160	0xbd147a24	-0.036249295
161	0xbb80f6fc	-0.003935693
162	0x3ded78d9	0.115953155
163	0x3f00ded2	0.50339997
164	0xbc81102d	-0.015754784
165	0xbf7d94dc	-0.99055266
166	0x3cb30d91	0.021857055
167	0x3f063dbf	0.5243797
168	0xbec1482d	-0.37750378
169	0x3f27afa9	0.6550241
170	0x3d715501	0.058918957
171	0xbec4ac36	-0.38412637
172	0xbee5f9e6	-0.4491722
173	0xbe77b253	-0.24189119
174	0x3db0f2b2	0.086400405
175	0xbec60e86	-0.38682956
176	0xbebbd525	-0.36686054
177	0x3f115ff1	0.5678702
178	0xbc4ee604	-0.012628082
179	0xbe4eda6f	-0.20200513
180	0xbd90f663	-0.070782445
181	0xbf0b66ce	-0.5445374
182	0x3cb1df96	0.02171306
183	0xbe88da95	-0.26729265
184	0xbeb60348	-0.35549378
185	0x3f06dc6f	0.52680105
186	0x3d96757e	0.073466286
187	0xbe06797b	-0.13132279
188	0x3d99ad6f	0.07503783
189	0xbf613312	-0.8796855
190	0xbc2d35b1	-0.010571883
191	0xbe13686b	-0.14395301
192	0x3e97d493	0.2965437
193	0x3e04a098	0.12951887
194	0xbe115175	-0.1419123
195	0xbeb9a3fb	-0.3625792
196	0xbf2d9956	-0.678121
197	0xbe15f41e	-0.14643905
198	0xbd99f5f7	-0.07517617
199	0xbec6face	-0.38863224
200	0x3e53b23c	0.2067346
201	0xbded6029	-0.11590607
202	0xbe585df8	-0.21129596
203	0xbe80c76d	-0.2515215
204	0xbe9f9880	-0.31171036
205	0x3e09b98c	0.13449687
206	0xbe8e95dd	-0.27848712
207	0xbe581d14	-0.21104842
208	0x3e0bdf54	0.13659412
209	0xbcd9bb50	-0.026578575
210	0xbd3a3e2b	-0.045469444
211	0x3ecda054	0.40161383
212	0xbd3ca14b	-0.04605226
213	0x3e4026ed	0.18764849
214	0xbb4823a5	-0.0030538824
215	0x3eabbc14	0.3354193
216	0x3eb97f74	0.36230052
217	0x3e2e75a5	0.17037065
218	0x3d223e45	0.039610166
219	0xbd9095b1	-0.07059801
220	0x3f1b856c	0.6075046
221	0xbde0264f	-0.10944807
222	0x3dcafb9a	0.099112704
223	0x3d4b9273	0.04970021
224	0x3e331b8b	0.17490976
225	0xbddfb645	-0.10923437
226	0xbe462f0f	-0.19353889
227	0xbd95f09c	-0.07321283
228	0x3e9c2f16	0.30504674
229	0x3d76e4fb	0.060276967
230	0xbe0ec933	-0.13943939
231	0xbe0a7e12	-0.13524655
232	0x3e0e2fe6	0.1388546
233	0xbe2f1992	-0.17099598
234	0xbd159799	-0.036521528
235	0x3d180cca	0.03712157
236	0x3dd5275d	0.104078986
237	0x3e260787	0.16213809
238	0x3cd2d000	0.025733948
239	0xbc876d5f	-0.016531644
240	0x3e89c911	0.26911214
241	0x3e69a300	0.22816086
242	0xbe0c6465	-0.13710172
243	0x3e003f87	0.12524234
244	0x3ea223c7	0.3166792
245	0xbea2cda8	-0.31797528
246	0xbdf59f6c	-0.11993298
247	0x3dfd7d70	0.12377441
248	0x3ef1ef48	0.4725287
249	0x3ec0e558	0.37674975
250	0x3e3b8a9a	0.18314591
251	0x3d5cba5a	0.053888656
252	0x3d1e741e	0.038684957
253	0xbecb5e05	-0.3972017
254	0x3e26a19a	0.16272584
255	0x3d4bf75a	0.04979644

fc1.bias f4 [256]
0	0xbe906127	-0.2819912
1	0xbdc5be7a	-0.09655471
2	0xbdd97da5	-0.10619668
3	0x3db6ef78	0.08932394
4	0xbe5cd303	-0.2156487
5	0xbd18c690	-0.03729874
6	0xbd00d407	-0.031452205
7	0x3dd19fab	0.102355324
8	0xbd27636b	-0.040866297
9	0xbe00c5ae	-0.12575409
10	0xbe9e6e53	-0.30943546
11	0xbe557b51	-0.20847823
12	0xbdf9d2c8	-0.121984065
13	0xbbec6ae4	-0.007214891
14	0xbed009d0	-0.40632486
15	0xbd549c12	-0.051906653
16	0xbdb1db98	-0.08684462
17	0x3d966a5c	0.07344505
18	0xbe9767c8	-0.29571366
19	0x3df88cd6	0.12136237
20	0x3d876e47	0.066128306
21	0xbe5e290b	-0.21695344
22	0xbd5b2a4a	-0.053507127
23	0xbdde3f0b	-0.10851868
24	0x3c26abbe	0.0101727825
25	0xbe5dcdd8	-0.21660554
26	0xbdba0636	-0.09083216
27	0xbe21b35e	-0.1579108
28	0xbe677455	-0.22602971
29	0xbe513560	-0.20430517
30	0xbecf52ed	-0.40492955
31	0xbd401daf	-0.04690331
32	0x3e28371f	0.16427277
33	0x3cd957cd	0.026531124
34	0xbda48d99	-0.0803482
35	0xbe6b0a33	-0.2295311
36	0xbeeaf0e7	-0.4588692
37	0xbe570672	-0.20998552
38	0xbe6347d3	-0.22195368
39	0xbd0a7e68	-0.033811957
40	0xbdf85c47	-0.121269755
41	0xbe87773a	-0.2645815
42	0xbe4f457d	-0.20241351
43	0xbe828916	-0.25495213
44	0xbe8f811f	-0.280282
45	0xbde51d0a	-0.111871794
46	0xbe27e239	-0.16394891
47	0xbedd3a27	-0.4320843
48	0x3e61f82e	0.2206733
49	0xbddda7b8	-0.108230054
50	0xbebb43d7	-0.36575195
51	0xbeaf8b45	-0.34285942
52	0xbe119167	-0.14215623
53	0xbe1657b0	-0.14681888
54	0xbed6e55f	-0.4197187
55	0x3c67d1a3	0.014149102
56	0xbe01e627	-0.12685452
57	0x3d701ff4	0.058624223
58	0x3cbe2b14	0.0232139
59	0xbd733848	-0.059379846
60	0xbe3a6146	-0.1820117
61	0xbe1540c1	-0.14575483
62	0xbe70d53d	-0.23518844
63	0xbddcb7cd	-0.10777245
64	0x3e197cfc	0.14989084
65	0xbe313c45	-0.17308147
66	0xbea6cb23	-0.32576856
67	0xbdd22f43	-0.10262921
68	0xbece4416	-0.4028632
69	0xbe1fe4f8	-0.15614688
70	0x3dbe017c	0.09277627
71	0xbe9eda87	-0.31026098
72	0xbe5e2572	-0.21693972
73	0xbe9f9513	-0.31168422
74	0xbe2276fa	-0.15865698
75	0x3e2bc01c	0.16772503
76	0xbe9c87de	-0.30572408
77	0xbeae0085	-0.3398477
78	0xbeaf20f1	-0.3420482
79	0xbdee6bcb	-0.116416536
80	0xbe02ddcd	-0.12779923
81	0x3d0ae654	0.033911064
82	0xbb5ef2ac	-0.0034019155
83	0xbdca0112	-0.098634854
84	0xbbcc420e	-0.0062334603
85	0xbef7ee3c	-0.48423946
86	0xbe933050	-0.28747797
87	0x3da4b6ae	0.08042656
88	0xbe01f213	-0.1269
89	0xbd05e351	-0.03268749
90	0xbe3a3104	-0.1818276
91	0xbdf29420	-0.11844659
92	0x3d6575b4	0.056020454
93	0x3e8182ac	0.25295007
94	0xbec475ff	-0.38371274
95	0xbdb734b6	-0.08945601
96	0xbd4d16aa	-0.050070442
97	0x3dd42c31	0.10359991
98	0x3dd94eb8	0.106107175
99	0xbdffd51a	-0.12491818
100	0xbe5d798b	-0.21628396
101	0xbe47e748	-0.1952182
102	0xbd7ff33c	-0.062487826
103	0xbea7c0e1	-0.32764342
104	0xbea8fd83	-0.33005914
105	0xbe2ecea8	-0.1707102
106	0xbe455a79	-0.19272794
107	0xbe24882d	-0.16067572
108	0xbd70dcd5	-0.05880435
109	0xbe42d080	-0.19024849
110	0xbe9464b8	-0.28983092
111	0xbe0495bd	-0.12947746
112	0xbe56ff60	-0.20995855
113	0xbe8ccfe1	-0.2750235
114	0x3ccc7116	0.024956267
115	0xbe3d6f02	-0.18499377
116	0xbded9063	-0.11599805
117	0xbd13b8c5	-0.03606488
118	0xbe82f1ec	-0.25575197
119	0xbe1dcfde	-0.15411326
120	0xbd1d5471	-0.038410608
121	0xbed6c23b	-0.4194506
122	0xbeb0e332	-0.34548336
123	0xbe480b48	-0.19535553
124	0xbd6ec639	-0.05829451
125	0xbe90aae0	-0.28255367
126	0xbe791a08	-0.24326336
127	0xbdc88f80	-0.097929955
128	0xbe35c6e0	-0.17751646
129	0x3cb6817d	0.022278542
130	0xbd5de48a	-0.05417303
131	0xbec1b2b1	-0.37831643
132	0xbe9a6147	-0.30152342
133	0xbecb94bf	-0.39761922
134	0xbe0b9e32	-0.13634565
135	0xbdc4c66b	-0.09608158
136	0xbe3f4bdc	-0.18681282
137	0xbd5544e0	-0.052067637
138	0xbe5f2693	-0.21792059
139	0xbe738de3	-0.23784594
140	0xbe800b18	-0.25008464
141	0xbe2eebee	-0.17082188
142	0xbdfbc20b	-0.1229287
143	0xbde5c237	-0.11218684
144	0x3d8a7427	0.067604356
145	0xbdd2958b	-0.10282429
146	0xbea3cd60	-0.31992626
147	0x3c668f8e	0.014072312
148	0xbc1a6b53	-0.009425002
149	0xbe9e8ce5	-0.3096687
150	0xbd97d25f	-0.07413172
151	0xbe4ff2f3	-0.20307522
152	0x3dd41b87	0.10356813
153	0xbe01ffcf	-0.1269524
154	0xbd9fe25d	-0.07806847
155	0xbed5b2c9	-0.41737965
156	0xbe90aa88	-0.28255105
157	0x3b5fdb46	0.0034157797
158	0xbad73302	-0.00164184
159	0xbc472257	-0.012154183
160	0xbd2b8544	-0.04187514
161	0xbdac3544	-0.08408597
162	0xbe625fb7	-0.22106825
163	0xbeb12f7f	-0.3460655
164	0xbe793e2f	-0.24340127
165	0xbe09cf92	-0.13458088
166	0xbe30ac8f	-0.17253326
167	0x3e73eef1	0.23821618
168	0xbe3c3fa8	-0.18383658
169	0xbebb0738	-0.36528945
170	0x3c4d4e85	0.012530928
171	0xbe23a099	-0.15979232
172	0x3d815684	0.0631533
173	0xbdea1723	-0.11430194
174	0x3bea133f	0.0071434076
175	0xbe2be7db	-0.16787665
176	0x3d622283	0.055208694
177	0xbe65aa9b	-0.22428362
178	0x3caa5a5b	0.020795038
179	0xbccd9ad6	-0.025098246
180	0xbe84c046	-0.25927943
181	0xbe86910a	-0.2628253
182	0xbcf35513	-0.029703652
183	0x3e25853f	0.1616411
184	0xbdc62b8e	-0.09676276
185	0xbe8374a0	-0.25674915
186	0xbe6206a0	-0.2207284
187	0x3e04d120	0.129704
188	0xbe1996f4	-0.1499899
189	0x3dfb28c8	0.12263638
190	0x3c710647	0.014710969
191	0xbe71050f	-0.23537086
192	0xbd8cf2e9	-0.06882269
193	0x3cfaf20e	0.030632999
194	0xbec6cafa	-0.38826734
195	0xbdba1cf3	-0.09087553
196	0xbe595fa0	-0.21227884
197	0xbe533cc8	-0.20628655
198	0xbd897897	-0.06712454
199	0xbebe3e1b	-0.37156758
200	0xbdf9aadb	-0.12190791
201	0x3ccf7aca	0.025327105
202	0xbdcabb36	-0.09898989
203	0xbe6e71f5	-0.23285659
204	0x3de56752	0.112013474
205	0x3d5ff03e	0.054672472
206	0xbe265d5d	-0.16246553
207	0xbe9740c7	-0.2954161
208	0xbeb75ca7	-0.35812876
209	0x3c1f3db3	0.0097193
210	0xbe97c3e4	-0.2964164
211	0xbea9516c	-0.33069932
212	0x3ce91682	0.028453115
213	0xbdf7d852	-0.12101807
214	0xbd43dbc3	-0.047817003
215	0xbe48a2ab	-0.19593303
216	0xbeabb179	-0.33533838
217	0xbd93cc4f	-0.07216703
218	0xbe902c0e	-0.2815861
219	0xbe132b7f	-0.14372061
220	0x3d506071	0.050873224
221	0xbe9aaca1	-0.3020983
222	0xbe8a3246	-0.2699148
223	0xbe143f23	-0.1447721
224	0x3e48bd52	0.1960347
225	0x3dee6b64	0.11641577
226	0xbe9c4ac2	-0.30525786
227	0xbb85cd85	-0.0040833377
228	0xbda2dcb7	-0.07952254
229	0xbdf17e0e	-0.11791621
230	0xbe609d67	-0.21935044
231	0x3d841a6a	0.064503506
232	0xbd855235	-0.0650982
233	0xbdf811c2	-0.12112762
234	0xbd6aa0a3	-0.0572821
235	0xbdeed636	-0.11661951
236	0xbcbf539c	-0.023355298
237	0x3d81ebf1	0.063438304
238	0xbe48589e	-0.19565055
239	0xbdb5c5d4	-0.08875623
240	0x3e93eb8a	0.2889064
241	0xbe59ca8a	-0.21268669
242	0x3d75ea94	0.060038164
243	0xbe820352	-0.25393158
244	0xbe959889	-0.29217938
245	0xbe75607b	-0.23962586
246	0xbde642ac	-0.112431854
247	0xbe336262	-0.17517999
248	0xbd96edeb	-0.07369598
249	0xbdaba4ee	-0.08381067
250	0xbe874a24	-0.26423752
251	0x3d41b075	0.047287423
252	0x3bf14dbb	0.0073640025
253	0xbeb2a049	-0.34887913
254	0xbd6d4af0	-0.057932794
255	0xbe5daa54	-0.21647006

fc2.weight f4 [128, 256]
0	0xbe8ae328	-0.2712643
1	0x3ca40745	0.020022998
2	0xbd0344eb	-0.032048147
3	0xbe8d312b	-0.27576575
4	0xbe360868	-0.17776644
5	0xbe673308	-0.2257806
6	0xbe2052a8	-0.15656531
7	0xbdbc2f5c	-0.091887206
8	0xbe4a56b2	-0.19759634
9	0xbe364019	-0.17797889
10	0xbc167f23	-0.009185585
11	0xbe6d0e17	-0.23149906
12	0xbe9d07ee	-0.30670112
13	0x3ddf3b42	0.108999744
14	0x3d602e60	0.054731727
15	0x3d44ebf0	0.04807657
16	0xbdbc7be9	-0.092033215
17	0x3db99c39	0.09063
18	0xbec01ffb	-0.375244
19	0xbeac07b1	-0.33599618
20	0xbf27a254	-0.6548207
21	0xbefabccc	-0.48972166
22	0x3dfc1163	0.12308004
23	0xbe49f273	-0.19721393
24	0xbea43d64	-0.32078087
25	0xbe0f3f77	-0.13989054
26	0xbd006a0b	-0.03135113
27	0x3defbf70	0.11706436
28	0xbe80d05f	-0.25158975
29	0xbe220943	-0.15823846
30	0xbe8d02e7	-0.27541277
31	0xbe42baa5	-0.19016512
32	0xbeaf2702	-0.34209448
33	0xbe88b8d9	-0.26703528
34	0xbf1e65da	-0.61874163
35	0xbec06299	-0.37575224
36	0xbefa48d9	-0.48883703
37	0xbe14169e	-0.14461753
38	0xbee39022	-0.44445902
39	0x3dcf8e48	0.1013456
40	0xbe2be267	-0.16785584
41	0x3e248e2a	0.16069856
42	0xbe388562	-0.18019632
43	0xbed2dd65	-0.41184536
44	0xbe7f6c5e	-0.24943683
45	0xbe130152	-0.14355972
46	0xbe942a40	-0.28938484
47	0xbdad86cc	-0.08472976
48	0xbd42cda3	-0.04755939
49	0xbe89ee60	-0.26939678
50	0xbda61189	-0.08108813
51	0xbea359dd	-0.31904498
52	0xbd41ccfe	-0.047314636
53	0xbef505a6	-0.47855872
54	0x3df92d69	0.121668644
55	0x3d930258	0.071781814
56	0xbd8f8061	-0.07006908
57	0xbebbeead	-0.36705533
58	0xbe30c7b7	-0.17263685
59	0xbbb62a42	-0.0055592367
60	0x3de0eea1	0.10983015
61	0xbded26be	-0.11579655
62	0x3e3fc9df	0.18729351
63	0xbe34267f	-0.1759281
64	0xbebb0fbf	-0.3653545
65	0x3e941a6b	0.28926405
66	0x3bd1f283	0.0064070835
67	0xbdcba717	-0.09943979
68	0x3e025f25	0.12731607
69	0xbed3b701	-0.41350558
70	0xbc9afc62	-0.018919174
71	0xbe95cbc0	-0.2925701
72	0x3ed88de8	0.42295766
73	0x3b9239ce	0.0044624573
74	0xbe3e096f	-0.18558286
75	0xbeeaca85	-0.45857635
76	0xbdb8e309	-0.090276785
77	0xbe1133e7	-0.14179955
78	0x3c81ac92	0.015829358
79	0xbe1d86c8	-0.15383446
80	0x3e9ba46c	0.3039888
81	0xbca4e9f7	-0.020131094
82	0x3e67ea73	0.22648029
83	0xbdde8e76	-0.10867016
84	0xbe374d64	-0.17900616
85	0xbe0091fe	-0.12555692
86	0x3eb36639	0.35038927
87	0xbdc03981	-0.09385968
88	0xbe169d0b	-0.14708345
89	0x3dc6e229	0.097111054
90	0xbe80ddee	-0.2516932
91	0x3e15bffd	0.14624019
92	0xbeab7d11	-0.33493856
93	0xbed4d682	-0.41569906
94	0xbe2a9140	-0.16656971
95	0x3e9c0bf1	0.3047786
96	0xbd8e1d52	-0.06939186
97	0x3dfd00ae	0.12353645
98	0xbe78632e	-0.24256584
99	0xbd2a6cc3	-0.04160763
100	0xbdd4f3e6	-0.103980824
101	0xbe819a6f	-0.25313136
102	0xbe2564a1	-0.16151668
103	0xbc6c2cea	-0.014415005
104	0xbf421a6c	-0.75821567
105	0x3e6a6a2b	0.22892062
106	0x3bf64e2e	0.007516644
107	0xbea55154	-0.3228861
108	0x3e0cd0ad	0.13751478
109	0xbe6adbb9	-0.2293538
110	0xbe1067ed	-0.14102145
111	0x3e83a75e	0.2571363
112	0x3d6cb4c7	0.05778959
113	0xbebb785f	-0.36615273
114	0x3e0ec196	0.13941035
115	0xbea583d5	-0.32327142
116	0xbe5032a2	-0.20331815
117	0x3c21e58a	0.0098813865
118	0xbe6e853b	-0.23293011
119	0xbdbfaf5c	-0.09359619
120	0xbe1a3fc1	-0.15063383
121	0xbd8e1356	-0.06937282
122	0xbe8140dd	-0.252448
123	0xbd7296c6	-0.05922582
124	0xbd688f46	-0.05677726
125	0x3d46c6ab	0.04852931
126	0xbd0514e4	-0.032490626
127	0xbe8519a1	-0.25996116
128	0x3c2d3e14	0.010573883
129	0xbd3f5594	-0.046712473
130	0xbe6c3b34	-0.23069459
131	0xbeac82cf	-0.3369355
132	0xbe9048a5	-0.28180423
133	0xbdf0a8cd	-0.11750946
134	0xbe081708	-0.13290036
135	0xbac407cb	-0.0014955936
136	0xbe786332	-0.2425659
137	0xbe4bc307	-0.19898616
138	0xbe0af896	-0.1357139
139	0xbe62ca0b	-0.22147386
140	0x3bde92a3	0.006792383
141	0x3b49df60	0.0030803308
142	0xbe893af4	-0.2680279
143	0xbe1acefe	-0.15118024
144	0x3e23c5ed	0.15993471
145	0xbdc2f3fe	-0.09519194
146	0xbd617cf2	-0.055050798
147	0xbe3f3c08	-0.18675244
148	0x3db826d4	0.08991781
149	0xbddd790e	-0.10814105
150	0xbe518538	-0.20460975
151	0xbf0c8326	-0.54887617
152	0xbc6072bc	-0.01369923
153	0xbf1d8eed	-0.6154621
154	0xbda22b21	-0.079183824
155	0xbdb59e44	-0.088680774
156	0xbd6a806f	-0.05725139
157	0xbe7333fd	-0.237503
158	0x3db11919	0.08647365
159	0xbea109f4	-0.31452906
160	0xbe196b14	-0.14982253
161	0x3d03e010	0.032196105
162	0x3d8e422a	0.069462135
163	0xbd46688e	-0.048439555
164	0x3ed5becd	0.41747132
165	0xbdf6d0f4	-0.120515734
166	0x3ccea33f	0.025224326
167	0xbe5f166b	-0.21785896
168	0xbe1a8fa8	-0.15093863
169	0x3d0f5f56	0.03500303
170	0xbe89c418	-0.2690742
171	0x3c98a923	0.018635338
172	0x3aabb27e	0.001309946
173	0xbeef3889	-0.4672282
174	0xbc900a10	-0.017582923
175	0xbe346691	-0.17617251
176	0xbe60a3a6	-0.21937427
177	0x3e2742bd	0.16334052
178	0xbe1259f1	-0.14292122
179	0xbf09cebc	-0.53831077
180	0xb8a14ed3	-7.6917604e-05
181	0x3e1c7071	0.15277268
182	0x3e1097d5	0.1412042
183	0x3ddbd0e5	0.10733203
184	0xbed290e5	-0.4112617
185	0xbd8427a0	-0.0645287
186	0xbd8026a1	-0.06257368
187	0xbeded940	-0.43525124
188	0x3d0e6ac0	0.034769773
189	0x3d90d22e	0.070713386
190	0xbdb6e979	-0.0893125
191	0xbeea231a	-0.45729905
192	0xbdb1d922	-0.08683993
193	0xbd2de4ab	-0.042454403
194	0x3e811155	0.25208536
195	0x3c675020	0.014118224
196	0x3c9b455d	0.018953973
197	0xbd4c674a	-0.04990319
198	0x3d98cb2d	0.07460628
199	0x3e2de7d2	0.16982964
200	0xbd3c1a2c	-0.045923397
201	0xbe76aa1f	-0.24088334
202	0x3da8696a	0.08223231
203	0x3de188dd	0.11012433
204	0xbe774161	-0.24146034
205	0xbe376c06	-0.17912301
206	0xbea9b199	-0.3314331
207	0xbe93a0b9	-0.2883356
208	0xbe3babef	-0.18327306
209	0xbdad6f10	-0.08468449
210	0x3db59b5e	0.088675246
211	0xbe2b6baa	-0.1674029
212	0xbddacc46	-0.10683493
213	0xbdca52be	-0.09879063
214	0x3d8aa783	0.067702316
215	0xbead9091	-0.33899358
216	0x3e5a34b5	0.21309169
217	0x3e0c335c	0.13691467
218	0xbc3b3539	-0.0114262635
219	0xbdc56cf7	-0.09639924
220	0x3e9082bf	0.2822475
221	0xbeec2c59	-0.46127585
222	0xbe30708f	-0.17230438
223	0xbe18dcae	-0.14927933
224	0x3ea3177f	0.31853864
225	0xbe1391ce	-0.14411089
226	0xbe2104b1	-0.15724446
227	0xbd764e10	-0.06013304
228	0xbeaa1b0b	-0.33223757
229	0x3d896b6f	0.067099445
230	0xbdd92aa3	-0.106038354
231	0xbd707642	-0.05870653
232	0xbeca1e93	-0.3947645
233	0x3e890193	0.26759014
234	0xbf06471a	-0.5245224
235	0x3ddb5e88	0.1071139
236	0x3e6c0422	0.23048452
237	0xbd9cfc20	-0.076652765
238	0xbf093e61	-0.5361081
239	0x3c57ed9b	0.013179208
240	0xbeaa0143	-0.33204088
241	0xbebeaa3a	-0.37239248
242	0x3e1729b9	0.1476201
243	0xbcb76ee2	-0.02239174
244	0xbee91f26	-0.45531577
245	0xbe03d028	-0.12872374
246	0xbc4bc9da	-0.012438262
247	0xbb8f2b3f	-0.004369169
248	0xbe9381dd	-0.28810015
249	0xbe6505f0	-0.22365546
250	0xbe6f10f1	-0.23346306
251	0xbe96319c	-0.29334724
252	0xbe369a08	-0.17832196
253	0x3e8f98cb	0.2804626
254	0xbe29e446	-0.16590986
255	0x3d3abd48	0.04559067

fc2.bias f4 [128]
0	0xbd6eacc4	-0.05827023
1	0xbd2f0181	-0.042726044
2	0xbe4454b8	-0.19172943
3	0xbd9dc739	-0.07704014
4	0xbdb83a7b	-0.08995529
5	0xbe2673f3	-0.16255169
6	0xbe00fbaa	-0.12596002
7	0xbdb9afae	-0.09066711
8	0xbdc02dad	-0.09383712
9	0xbad71fc3	-0.0016412664
10	0xbc83d35f	-0.016092
11	0x3d846f51	0.064665444
12	0xbe8f60c0	-0.28003502
13	0x3c99d521	0.018778386
14	0x3d045303	0.03230573
15	0xbdd6cb0c	-0.10487947
16	0xbd0d4d6d	-0.034497667
17	0xbdb27c71	-0.087151416
18	0x3d8884cd	0.06665955
19	0xbd73d253	-0.059526753
20	0xbd944d9c	-0.07241365
21	0xbdb86609	-0.09003837
22	0xbe60c244	-0.21949106
23	0xbe00709b	-0.12542956
24	0xbd91b3f2	-0.071144
25	0xbe1913f4	-0.14949018
26	0xbe90524f	-0.28187796
27	0xbc95a5d8	-0.018267557
28	0xbdf7cda3	-0.12099769
29	0xbe1244c1	-0.1428404
30	0xbdd85096	-0.105622455
31	0xbe5d7d68	-0.2162987
32	0xbe4960e6	-0.1966587
33	0xbeb2f59a	-0.34953004
34	0x3bcc2bfb	0.006230829
35	0xbd52f830	-0.05150622
36	0xbe47452f	-0.19459985
37	0xbe908b8d	-0.2823147
38	0xbbb0b9c4	-0.0053932387
39	0xbc7cbe93	-0.015426296
40	0xbdf8f6fd	-0.12156484
41	0xbdb0c9a8	-0.08632213
42	0xbe55cd4e	-0.20879099
43	0xbe6fa719	-0.23403586
44	0xbe3a6ced	-0.18205614
45	0xbe18d0c0	-0.14923382
46	0xbe9e4c44	-0.3091756
47	0xbe1bdfe0	-0.1522212
48	0xbe18abd7	-0.14909302
49	0xbe2900e8	-0.16504252
50	0xbd936912	-0.07197775
51	0x3d3b428e	0.04571777
52	0xbea768bc	-0.32697093
53	0xbe5a5028	-0.2131964
54	0xbe8cb2db	-0.27480206
55	0xbe43d065	-0.19122465
56	0xbe3be83a	-0.18350306
57	0xbdc4a69f	-0.09602093
58	0xbe0a98dc	-0.13534874
59	0x3da42046	0.08013968
60	0xbe0f2a7b	-0.13981049
61	0x3c5ed223	0.013599905
62	0xbe437c27	-0.19090329
63	0xbd3b2a4b	-0.04569463
64	0xbe489e69	-0.19591679
65	0xbe63eb40	-0.2225771
66	0xbdcb0815	-0.09913651
67	0xbe6acc72	-0.22929552
68	0x3c872bc0	0.016500354
69	0xbdcc7a13	-0.09984221
70	0xbe464ee4	-0.19366032
71	0xbd17d0ef	-0.03706449
72	0xbda17820	-0.0788424
73	0xbe93ec4e	-0.28891224
74	0xbec42639	-0.38310412
75	0xbdda2eff	-0.10653495
76	0xbdedb505	-0.11606792
77	0xbd9b7dc1	-0.07592345
78	0xbeaabff0	-0.33349562
79	0xbd73b6a3	-0.059500348
80	0x3d7bec39	0.061504576
81	0x3d93d5c2	0.072185054
82	0xbe439916	-0.19101366
83	0xbe1ce654	-0.15322238
84	0xbe62ff5b	-0.22167723
85	0xbe782f04	-0.24236685
86	0xbebb5094	-0.36584914
87	0xbc7a52bd	-0.015278515
88	0x3cb6597e	0.02225947
89	0xbe23885f	-0.1596999
90	0x3d5148ca	0.051094808
91	0xbdefd4e8	-0.117105305
92	0xbe061a14	-0.13095886
93	0xbea66c80	-0.32504654
94	0xbd057535	-0.03258248
95	0xbd8b16a1	-0.067914255
96	0xbe006759	-0.12539424
97	0xbe25b376	-0.1618174
98	0xbde16f41	-0.11007548
99	0xbbfd50ba	-0.0077305706
100	0x3db06adb	0.08614131
101	0x3dea40f1	0.11438168
102	0xbe817849	-0.25287083
103	0xbe2ef1bf	-0.17084406
104	0xbdca852d	-0.098886825
105	0xbe07eda3	-0.13274245
106	0x3d3de966	0.046365164
107	0xbe035062	-0.12823632
108	0xbdb672df	-0.08908629
109	0xbd1d9039	-0.03846762
110	0xbe5330bc	-0.2062406
111	0xbe50e644	-0.2040034
112	0xbe04a20f	-0.12952445
113	0xbe41a203	-0.18909459
114	0x3c544c17	0.012957594
115	0xbac70c5c	-0.0015186178
116	0xbe2fb4f0	-0.17158866
117	0xbd563e38	-0.05230543
118	0xbd9f9718	-0.07792491
119	0xbe6669af	-0.22501253
120	0xbdb014ec	-0.085977405
121	0xbd8bbadf	-0.06822752
122	0xbe4c8de7	-0.19976006
123	0xbe5b8c38	-0.21440208
124	0xbd84ea3d	-0.0648999
125	0xbe501d47	-0.20323668
126	0xbe5c612c	-0.21521443
127	0xbe1cd3f1	-0.15315224

fc3.weight f4 [2, 128]
0	0xbd5d3c30	-0.054012477
1	0x3cbbdb9e	0.02293187
2	0x3e481f98	0.19543302
3	0xbc5da394	-0.01352777
4	0xbd59d2e2	-0.05317963
5	0x3dc34bf1	0.09535969
6	0x3c5f189a	0.013616705
7	0x3d1a47cd	0.03766613
8	0x3c917b7d	0.01775908
9	0xbd77c741	-0.060492758
10	0x3da1d8f8	0.07902712
11	0x3eb5c91a	0.3550499
12	0xbd6d37ab	-0.057914417
13	0xbe0de917	-0.13858448
14	0x3d48b051	0.048996273
15	0x3dc67faf	0.096923225
16	0x3c942041	0.018081786
17	0x3be5cd3f	0.0070129926
18	0x3dc85bcf	0.09783136
19	0x3b8c12dc	0.004274709
20	0xbd3f771a	-0.046744443
21	0xbd4667b9	-0.04843876
22	0xbddf3ef6	-0.10900681
23	0xbd826fbe	-0.063689694
24	0xbd576c90	-0.052593768
25	0x3e008478	0.12550533
26	0xbe024ff8	-0.12725818
27	0x3b5e8e97	0.0033959502
28	0x3e845cba	0.25851995
29	0x3e9528e8	0.29132771
30	0xbc7524d8	-0.0149623975
31	0xbdac8a09	-0.084247656
32	0xbd0bef45	-0.034163732
33	0xbd11ec8f	-0.03562599
34	0x3bf449d7	0.0074550915
35	0x3d0cff76	0.034423314
36	0xbe819bad	-0.25314084
37	0x3e251ffa	0.1612548
38	0xbd75bdbb	-0.059995394
39	0x3e3c2e9b	0.18377154
40	0xbd2b97d3	-0.041892838
41	0xbd8fa316	-0.07013528
42	0x3e9f45d5	0.31107965
43	0x3bd3e2e8	0.0064662583
44	0xbe523719	-0.2052883
45	0x3cb986f6	0.022647362
46	0xbe294324	-0.16529518
47	0x3c35ad2e	0.011088653
48	0x3cc39836	0.02387629
49	0xbc2d0f10	-0.010562673
50	0x3e61d008	0.22052014
51	0xbdf79ec5	-0.1209083
52	0xbda74edc	-0.08169338
53	0xbc365436	-0.011128476
54	0xbd2a534b	-0.04158334
55	0x3e27d35e	0.16389224
56	0x3e0db778	0.13839519
57	0xbce5a680	-0.028033495
58	0x3df581f9	0.11987681
59	0x3bb0c0b2	0.005394065
60	0xbe045f26	-0.12926921
61	0x3d50793c	0.050896868
62	0xbdde70dc	-0.1086137
63	0x3b3e3a88	0.0029026587
64	0x3e126927	0.14297925
65	0xbdb66049	-0.08905084
66	0xbdf0826b	-0.11743625
67	0xbce300bd	-0.027710313
68	0x3c8e7e62	0.017394248
69	0x3dbe52ca	0.092931345
70	0x3d925f03	0.07147028
71	0x3a4395b4	0.0007460967
72	0xbe14c649	-0.14528765
73	0x3d5134cd	0.051075745
74	0xbe0f2af8	-0.13981235
75	0x3b50edf0	0.0031880103
76	0x3c892c7f	0.01674485
77	0xbe5408a0	-0.20706415
78	0xbd8f53dd	-0.069984175
79	0xbdf335a7	-0.11875468
80	0xbc807840	-0.01568234
81	0xbd870b6f	-0.06593978
82	0x3d309861	0.04311407
83	0xbdaf1b03	-0.08550074
84	0xbe55abbf	-0.20866297
85	0x3d0f469a	0.03497944
86	0xbd45da9b	-0.04830418
87	0x3c314d8d	0.010821712
88	0x3e10d5eb	0.14144103
89	0xbdc7ab6d	-0.09749494
90	0xbd024c15	-0.03181084
91	0x3c27cad4	0.010241229
92	0x3c86d0aa	0.01645692
93	0x3d07458b	0.033025306
94	0x3e2009d4	0.15628749
95	0x3da42c5d	0.08016274
96	0x3de8e5e6	0.11371975
97	0xbdca220d	-0.09869776
98	0x3e082868	0.13296664
99	0xbd432706	-0.047644638
100	0x3cf19adc	0.029492788
101	0x3d97c365	0.074103154
102	0xbcf3d574	-0.029764868
103	0x3d8f03ff	0.06983184
104	0x3cd14b17	0.025548501
105	0xbdb900c2	-0.09033348
106	0x3b23e997	0.0025011057
107	0x3dc021ea	0.093814686
108	0x3d0d19e3	0.034448516
109	0xbdd00897	-0.101578884
110	0x3e5703d7	0.20997559
111	0xbc6cd935	-0.014456083
112	0xbc205d4b	-0.009787868
113	0x3a900506	0.0010987825
114	0x3e9ed835	0.31024328
115	0xba698e9b	-0.00089094945
116	0x3ea50b84	0.32235348
117	0xbe4b8b7d	-0.1987743
118	0x3d7ebe85	0.062193412
119	0xbceb1299	-0.028695391
120	0xbc205842	-0.009786667
121	0x3e27ef02	0.16399768
122	0x3ddbbf03	0.10729792
123	0xbdd3bb35	-0.10338441
124	0x3e5ce54c	0.21571845
125	0xbe62452e	-0.22096702
126	0x3d0b5652	0.03401787
127	0x3d23e44b	0.04001264
128	0xbecbfce5	-0.3984138
129	0xbd1c9c83	-0.0382352
130	0xbdf3c7bd	-0.119033314
131	0x3d047f96	0.032348238
132	0xbde060d5	-0.10955969
133	0x3ec84ca2	0.39120966
134	0x3b63ba8e	0.0034748646
135	0xbce893b7	-0.028390748
136	0xbe986134	-0.2976166
137	0x3e8c9b94	0.27462447
138	0x3db82c8a	0.0899287
139	0x3d804703	0.062635444
140	0xbe6dd087	-0.23224078
141	0x3badc5c2	0.0053031156
142	0xbd86c5af	-0.06580674
143	0xbeb3a20b	-0.35084566
144	0xbbb64297	-0.0055621373
145	0xbc9608f2	-0.018314812
146	0xbe14efbe	-0.1454458
147	0xbbbe1700	-0.0058010817
148	0x3d0675fa	0.032827355
149	0xbe3468b8	-0.17618072
150	0x3df4aed4	0.11947408
151	0x3e8d9b67	0.27657625
152	0xbe09c1a4	-0.13452774
153	0x3e3f982e	0.18710396
154	0x3e34a2a9	0.17640175
155	0x3eacc971	0.33747438
156	0xbd5c8aac	-0.053843185
157	0xbddf56f4	-0.10905257
158	0xbceea128	-0.02912958
159	0xbe4ac643	-0.19802193
160	0x3d5172b3	0.051134776
161	0xbeb39e5a	-0.3508175
162	0xbeb36c03	-0.35043344
163	0x3e9bf1b4	0.30457842
164	0x3e37dade	0.17954585
165	0x3e4b370f	0.19845222
166	0x3e849dd4	0.25901663
167	0x3d52a415	0.051426012
168	0x3e33e191	0.17566516
169	0xbe84456f	-0.25834224
170	0xbe219aef	-0.15781759
171	0xbe647ae8	-0.2231251
172	0xbdb4f0fd	-0.08835027
173	0xbd054df4	-0.032545045
174	0x3da456ff	0.08024406
175	0xbc8d67a3	-0.017261332
176	0xbe54e410	-0.20790124
177	0x3d19bc7e	0.037533276
178	0x3e6658bb	0.22494785
179	0x3d0bbbc6	0.03411462
180	0xbe125b1a	-0.14292565
181	0x3e886b1a	0.26644212
182	0x3e867733	0.26262817
183	0xbea1cc59	-0.31601217
184	0xbc86354f	-0.016382841
185	0x3dcea7c4	0.100905925
186	0xbe61c07b	-0.22046082
187	0xbed60b21	-0.41805366
188	0x3e37fe86	0.17968187
189	0xbe75d481	-0.24006845
190	0x3eb40209	0.35157803
191	0xbc07bb20	-0.00828436
192	0xbe893edd	-0.26805773
193	0x3da5772a	0.08079369
194	0x3d4be73c	0.04978107
195	0x3e485f68	0.19567645
196	0x3dc3cb3b	0.095602475
197	0x3e91f59c	0.28507698
198	0xbe526b37	-0.20548712
199	0xbd673690	-0.05644852
200	0xbcd9e5f1	-0.026598902
201	0x3e592373	0.21204929
202	0x3d981480	0.07425785
203	0x3bb22bad	0.0054373355
204	0xbd13a7de	-0.036048763
205	0xbeb9d548	-0.36295533
206	0xbe069805	-0.13143928
207	0x3db326cc	0.08747634
208	0x3f027dfc	0.50973487
209	0x3ebfc4f0	0.3745494
210	0xbeb8c1c7	-0.3608534
211	0xbeb98445	-0.36233726
212	0x3d29db16	0.041468702
213	0xbecdacae	-0.40170807
214	0x3e9465c7	0.289839
215	0xbcaf6f36	-0.021415334
216	0xbdabcd88	-0.08388811
217	0x3f23343b	0.6375157
218	0xbf271260	-0.65262413
219	0xbeddbe47	-0.43309233
220	0xbbf3a787	-0.0074357423
221	0x3ee7133d	0.45131865
222	0x3d9c6a30	0.07637441
223	0xbd56c4da	-0.052433826
224	0xbe22566d	-0.15853281
225	0x3a2950a3	0.0006458854
226	0x3d774f6d	0.06037848
227	0x3d92bc36	0.07164805
228	0x3ea97a05	0.33100906
229	0x3d9d45bb	0.07679316
230	0x3eab9d89	0.33518627
231	0xbe690d69	-0.22759022
232	0xbba37e2e	-0.004989407
233	0x3e47ae2e	0.19500038
234	0x3eb46ae5	0.35237804
235	0x3d8454dd	0.06461499
236	0xbd18cc33	-0.037304115
237	0xbed444e9	-0.41458824
238	0xbdde070b	-0.10841187
239	0x3ea8ab0b	0.32942995
240	0xbb1892ca	-0.0023280852
241	0xbe0d46e3	-0.13796572
242	0xbdb3732e	-0.08762203
243	0x3cacdacc	0.021100424
244	0xbe900447	-0.28128263
245	0xbc2a46e2	-0.010392876
246	0xbe818a92	-0.25301033
247	0xbe9a2583	-0.30106744
248	0x3e80d7c1	0.25164607
249	0x37e180d0	2.6882073e-05
250	0xbd3df198	-0.04637298
251	0x3e18afef	0.14910863
252	0xbd189335	-0.037249763
253	0x3e21315e	0.15741488
254	0x3e9d4789	0.3071864
255	0xbeb8eeea	-0.36119777

fc3.bias f4 [2]
0	0xbd5149ce	-0.051095776
1	0x3f1cf1fa	0.61306727
