p3_collab-compet/checkpoint_critic_1.pth (torch_old, 185340 bytes, 5 tensors)

fcs1.weight f4 [256, 48]
00000000: a328 8e3e d02a ec3e c7eb 1d3c 2b17 17bd
00000010: da39 483e 6a96 c1be da5d d5bb 261b d4bb
00000020: 112e fa3c 14dd b53c e4c9 c9bd 4ca7 47bd
00000030: 8bb6 423e 8f13 b53d 4d8b 013c b94b afbd
00000040: 17d1 ac3d b4f2 1ebe 810a 0b3d 6f7a 96bd
00000050: 579f 78be a9be ab3e b015 973d cdfb 26be
00000060: 9242 9c3e 77fc 5f3e 3187 afbd 145a 0f3c
00000070: 9811 88be ea40 e2be ee0a fabd 3998 2e3d
00000080: 8ada d73d b78f 43be cfa4 b63d 82e3 813d
00000090: 96d9 74be 174b ea3d 6da5 8b3d 4cf8 f33d
000000a0: e66d a23d 3c57 b8be 9594 2cbd fafb 82bc
000000b0: 83cc 4c3e 192c ab3e 454d 10bd 5740 793d
000000c0: be4d 053e f716 b23d 0f58 253d 6daf 7a3d
000000d0: d1d5 c1bd 7840 863d a4d3 063c 74ef 083e
000000e0: 8484 773e 6ce2 843e af61 3ebc 1491 313e
000000f0: c8e2 6e3d 3ba8 0c3c 5bd7 9fbc 72eb 433e
00000100: 99a3 243e 5d1d 4f3e f11a 8abd cee8 4d3e
00000110: d38f 8d3e caec 28be 514c b0bd 4f4e f23d
00000120: 41ab d43d 8bf6 813f e7ce 21bd d9a4 53bd
00000130: 5291 5b3c 3839 b63d 0525 b0bd 01b1 7ebd
00000140: 406d 253e 4d7c 7e3f 46f9 4fbd aeca ccbc
00000150: d469 f2bd 37f9 4d3d c61f 3dbc 2036 85bd
00000160: 484a 453e 4081 823f 0f86 e03d 38ab a1bd
00000170: da69 8abe 20c5 d0bd a915 b63d 8704 60bd
00000180: 4f84 f93d b6e5 f1be 9d2a 293c 22ef 973d
00000190: ffce c8bd b745 53be f178 77bb 9eb9 2c3e
000001a0: 92d3 843e e0f2 01bf 869e 7dbd 1857 61bd
000001b0: 8941 adbd 4b0b 37be 3543 183d 8362 9cbd
000001c0: 6aa9 8a3e f224 23bf e671 9bbd 2d48 133e
000001d0: c208 15bd d241 583e cfe4 6b3c 4ebe 833e
000001e0: b9b3 353e d6df 513f 15d4 2e3d 4ef9 9fbd
000001f0: 5df7 d23d 57a9 44be c338 fd3d 4571 1fbe
00000200: 1c96 3b3e 76c2 543f 526d 453c 73b5 07bd
00000210: b14b e03d f57d 4bbe 33fb efba adfa cabc
00000220: 4bf1 3b3d 2e3e 0b3f a464 e5bd e53d b3be
00000230: 1a35 693d d9f1 7d3e bcac babd f11a 92be
00000240: f35c 80bd 50fa 0e3d be3e e43b 1bed 18be
00000250: 9d72 e03e d392 42be 54df f6bc 71a9 00be
00000260: c34c 923d 9308 b13c 8b50 17bd 5d54 8c3d
00000270: 99c1 5b3e 9adc 24be d552 b63c cf90 36bd
00000280: 247d b03d e5da cb3d 3365 393c eede 853e
00000290: 457c 4dbd f962 4fbd a8d6 4bbd 9a24 9d3e
000002a0: d4e8 4d3e 7acd 6abe ea30 3dbc c0a1 2f3d
000002b0: 2139 f1be f5e9 8fbe 269a c33c b266 bc3d
000002c0: d475 fe3e 0315 90be 30fa a23d 7f55 213e
000002d0: b722 5abe 4c7f 01be dc15 debc bec8 eb3d
000002e0: e986 633f 18b9 7fbe 0acf 8d3d 66e1 9abd
000002f0: dd85 a23d 493b 92bd be05 673d d0c0 bebd
00000300: 5569 e33e 1087 973d da23 d2bb 0f7c 65be
00000310: b77b 753d bbde 2ebe a03e a3bd a700 7fbe
00000320: 9352 a53e 1f69 933c e1a4 05be 0059 febc
00000330: 0ba8 213e 209b bdbe 050f f1bd b010 6d3d
00000340: 8af9 c03e fa90 063d 3399 3d3d d7a0 98bd
00000350: eee5 2c3e bfac 3abf 763d b93d e7ee 8abd
00000360: 3d5d ff3c 8379 80be 46cc d7bd e226 8dbd
00000370: 1e3d a5bd a49f d9bd 18d3 cfbd e80c 5fbd
00000380: 4e08 a33b bcc3 8ebe 7f90 2fbd 1018 04be
00000390: 263a 95bd 261f e9be 42cf 4c3d 7c54 fbbc
000003a0: 9907 293d 88e9 71be 6449 dbbd b4d0 10be
000003b0: ce3e 16be 73b5 4bbf 39a0 41bd 0656 4cbe
000003c0: 6186 313f c2db afbd ea82 f4bd f9a1 a23d
000003d0: 57ae f63d 0bf9 d5bd ae45 dabd 2df5 043e
000003e0: ed45 453f de64 09be 5d50 683d d2e5 7fbd
000003f0: 1522 08bd 8f31 2fbe 1dc3 933d 8b93 febc
0.27765378 0.46126413 0.009638733 -0.03688733 0.19553319 -0.3781007 -0.006511432 -0.006472963
0.030539544 0.022200145 -0.09852961 -0.04874353 0.19014947 0.08841621 0.007906747 -0.08559365
0.08438318 -0.15522271 0.033945564 -0.07347571 -0.24279533 0.335439 0.073771834 -0.16306992
0.3051954 0.21873651 -0.085707076 0.008749504 -0.26575923 -0.4419015 -0.12209116 0.04262564
0.1053973 -0.19097792 0.089181535 0.06342222 -0.23911127 0.114401035 0.06818662 0.11912593
0.07931118 -0.36004055 -0.042133886 -0.015989292 0.1999989 0.3343208 -0.03522994 0.060852375
0.13017938 0.086957864 0.040367182 0.061202455 -0.0946461 0.06555265 0.00822917 0.13372594
0.24171644 0.25953996 -0.011619969 0.17340499 0.058321744 0.008585031 -0.01951187 0.19132784
0.16078033 0.20226045 -0.0674342 0.20108339 0.27648792 -0.16496578 -0.08608306 0.118313424
0.103842266 1.0153364 -0.039503958 -0.051670883 0.013401346 0.08897632 -0.08600811 -0.062180523
0.16154957 0.9940842 -0.050774835 -0.024998989 -0.11836591 0.050286498 -0.01154322 -0.06504464
0.19266617 1.0195694 0.1096307 -0.078939855 -0.27033883 -0.101938486 0.0889085 -0.054691818
0.12183439 -0.47245568 0.010325101 0.07418658 -0.09805106 -0.20632063 -0.0037761296 0.16867682
0.25942665 -0.5076122 -0.061918758 -0.0550147 -0.084597655 -0.17875402 0.03717347 -0.07635977
0.27082378 -0.6372825 -0.07590084 0.14383002 -0.036385305 0.21118858 0.014397814 0.25731128
0.1774434 0.8198217 0.042682726 -0.07811223 0.10301087 -0.19205223 0.12364342 -0.15570553
0.18318981 0.83109224 0.01204999 -0.033132028 0.10951937 -0.19872268 -0.0018309116 -0.024777735
0.04588441 0.54391754 -0.11200836 -0.3500816 0.056935407 0.24799289 -0.09114978 -0.2853618
-0.06267729 0.034906685 0.0069654873 -0.14934199 0.43837443 -0.19001321 -0.030135788 -0.12564637
0.071435474 0.021610534 -0.036942046 0.068520285 0.2146057 -0.16099778 0.022256294 -0.044571694
0.08617619 0.0995386 0.011315632 0.26146644 -0.05016734 -0.050631497 -0.04976526 0.30691987
0.20108348 -0.22929946 -0.011547307 0.042878866 -0.47113898 -0.28108183 0.023877215 0.09199275
0.4969927 -0.2814103 0.07957876 0.1575527 -0.21302305 -0.12646216 -0.027110033 0.11512898
0.8887773 -0.24972951 0.06924255 -0.075625226 0.07935689 -0.07140214 0.05640196 -0.0931412
0.444163 0.07398808 -0.0064129652 -0.22410606 0.059932437 -0.17077152 -0.07970929 -0.24902593
0.32289562 0.017994462 -0.13051178 -0.031048298 0.1578676 -0.37032413 -0.11770443 0.057877243
0.37690383 0.032853104 0.04628868 -0.07452553 0.16884586 -0.7291984 0.09044926 -0.06783848
0.03117239 -0.25092706 -0.10537009 -0.06892182 -0.08068298 -0.10626152 -0.10147685 -0.054455668
0.004975355 -0.27883708 -0.04286241 -0.12899804 -0.072864816 -0.45531577 0.050002344 -0.030679934
0.04126701 -0.23624241 -0.107073575 -0.14142114 -0.14672396 -0.79573745 -0.04727194 -0.1995469
0.6934567 -0.08586837 -0.119390324 0.0794105 0.120449714 -0.10447892 -0.106578216 0.12984152
0.77059823 -0.13417384 0.056717265 -0.062475033 -0.03323563 -0.17108749 0.07214949 -0.031076213

fcs1.bias f4 [256]
00000000: d5b6 3bbe 6156 3fbe a9da cbbe 7a66 e5be
00000010: 3ee5 51be 9b3d c9bc 8f5a 8cbe 6505 eb3e
00000020: b4a1 0abe 0325 e2be 2f72 e2be 4279 dabe
00000030: b360 0b3e 721b 6cbe 78bd 05bf ec38 0dbd
00000040: 9181 03bf a98f c1be 743f 2ebe a10d 33be
00000050: d990 77bc ba6a 4fbe 1fb6 9ebd ddd9 72be
00000060: bddc d8bd d5f2 9c3d 8cc2 2f3e 6656 d8be
00000070: d83c 6ebe c5a8 9dbe 6e6b 61bd d2c6 8fbd
00000080: 6539 113f e05e aebe 2ecd 233e 471f 01bf
00000090: 4136 f8be 1cf8 2fbe 7d35 90be bc2b dcbe
000000a0: 3041 d3be 2928 bd3d e536 d4bd 5baa 8abe
000000b0: 5e0c 0bbf 365c b83d 541a cd3d 178b 2dbf
000000c0: 57f4 893d 2d5f 0bbe 884e 16bf fc2b 9ebe
000000d0: 0785 8abe 71a2 a3be 12e0 a83e ea54 8c3d
000000e0: de66 afbe 9037 8cbe f4a0 183e 2864 aabe
000000f0: 3be2 a8be 8123 37be 3624 df3e 323c 84be
00000100: a05d edbd da99 61be 8a23 94bd afef e9bd
00000110: 8bfd f0bd 70d2 b8bd 0c91 c43d 8743 c0be
00000120: f4c7 44be 5cb3 383d 33b0 88bd fbdc 053f
00000130: 0115 da3d 319d 1c3e 5432 a4be 5155 68be
00000140: 516f 3cbd db06 d3be f25d c9be 578b bbbe
00000150: f7f1 3fbe f799 85be 2c30 11bf ccdb abbe
00000160: 3c6c 693d 5575 513d 9921 07be 0283 973e
00000170: eb10 3abe 48b8 333f e668 1abe e623 91bc
00000180: c3f8 813e d58a e63e 63b5 03be 5eb9 aebe
00000190: c23a b4be 3530 0fbd de45 fe3c 47f2 163e
000001a0: f17a 42be aa96 58be a667 df3b 4a8e a5be
000001b0: 955a afbd 6a42 abbe 1a53 6ebe 8e82 62be
000001c0: 753c 1bbe ebcf 98be ae56 aabe b13d f6be
000001d0: 7032 a7be f67d 4d3c 7117 9cbe 6e37 dfbe
000001e0: fa04 9e3e 0092 d6be c036 913e c412 debe
000001f0: 12f9 cbbe 2c0b 003e 8dd4 14bf a01a babe
00000200: 6695 a53e c560 95bd 02f3 efbe 5fad b5be
00000210: 5cc2 6dbb 8640 09bf 3430 2abe e89f 8cbd
00000220: 9d27 04bf 72b2 913d a51f edbe 9d98 2fbf
00000230: 0cc3 aabd 5d4b ccbe 2f46 84be 54dd 313e
00000240: 4f98 da3d 3471 80be d917 f7be a12f 15be
00000250: 5841 033e 0ba0 9abe cd13 87be 2381 8a3e
00000260: 60c2 bd3d a9ec 93be 82db c4bd 013d c7be
00000270: 8286 813e 6906 153f 9ccd 2b3c 35fd 32be
00000280: 7284 2dbe 9a37 c1bd 1b1b 03be ca5b a8be
00000290: 1ef5 64be 9635 4cbe b9a3 dfbe 7df3 eb3d
000002a0: 8300 85be 2878 7bbd bc41 f2bd 7407 d23d
000002b0: 627a c5be 4655 9b3e 3f7b 02be d081 5d3d
000002c0: c15b b3bb dad9 a6be 89ed 8cbe d0d9 373c
000002d0: c154 e0bb 895c bcbd ae10 febe 0b7d 56be
000002e0: e308 ac3a 54e2 f83d 10c1 95be bfe7 bcbd
000002f0: 71da 02bd 905a 023d bc93 d2bd 2da5 113e
00000300: 8a78 5ebe f246 563e ae2b 89be f1f1 96bd
00000310: 3222 863e c499 27be 05be 3dbe 6c16 6bbe
00000320: c231 edbe 562f 3e3d 1816 963d b10a c6be
00000330: e49b 95be 18a0 693e cdc4 f4bd ae19 6bbe
00000340: 6ce5 19bd 9b37 e53c b686 f5be 2ba6 febe
00000350: 9f4b 89bd cc6f f43d c4cf dabe 29ea 40be
00000360: 3663 b2be e24c a23e a614 4abf 59a4 e6be
00000370: 074f 81be 2367 83be 6656 74be 83be afbe
00000380: f6e6 ab3e c3d8 4ebe c0f9 05bf 0f55 f1bd
00000390: 38ad e33e 4062 cfbe 736a 9ebe 3b90 6c3d
000003a0: a9bd 31be 319e 07bf 57b2 c7be 6f33 1dbd
000003b0: e6f6 b43c 51b7 853e 70ce 59bc 206d bbbe
000003c0: fef6 a9be 2f67 063c 2f18 16be 9434 823e
000003d0: 0590 5dbe 4815 4fbe 6336 69be 10cc d0be
000003e0: 1ff2 703d 4ff5 4d3d fd96 ffbe e28f fb3a
000003f0: 2c6f 81be 1add 19bf c467 ca3c ad32 febe
-0.18331464 -0.18685295 -0.39815262 -0.44804746 -0.20497605 -0.024565509 -0.2741284 0.45902553
-0.13538247 -0.44168863 -0.4422774 -0.42670637 0.13611107 -0.23057345 -0.5224223 -0.034478113
-0.5136958 -0.37804917 -0.17016393 -0.17485668 -0.015110218 -0.20255557 -0.077495806 -0.23715921
-0.105889775 0.07663504 0.17164057 -0.42253417 -0.23265398 -0.30792823 -0.055034094 -0.07020344
0.567282 -0.3405676 0.15996239 -0.5043835 -0.48478892 -0.1718449 -0.28165808 -0.43002117
-0.41260672 0.092361756 -0.10362033 -0.27083096 -0.54315746 0.09001963 0.10014787 -0.6779036
0.06736057 -0.13610525 -0.5871358 -0.30892932 -0.27054617 -0.3195987 0.32983452 0.068521336
-0.3425817 -0.2738614 0.14905149 -0.33279538 -0.329851 -0.17884637 0.43582314 -0.25827175
-0.11590123 -0.22031346 -0.07233341 -0.11422669 -0.117671095 -0.09024513 0.09597978 -0.3755152
-0.19216901 0.045092925 -0.06674232 0.52290314 0.106485374 0.15294339 -0.32069647 -0.22688796
-0.046004597 -0.41216168 -0.39329487 -0.36629745 -0.18744646 -0.26094028 -0.5671413 -0.3356613
0.056987986 0.051137287 -0.1319641 0.2959214 -0.18170516 0.70203066 -0.15079078 -0.017717313
0.25385103 0.45027795 -0.12862162 -0.341258 -0.3520108 -0.034958083 0.031039175 0.14740859
-0.18992211 -0.21151224 0.006817776 -0.3233512 -0.08562199 -0.33449107 -0.23273888 -0.22120115
-0.15159781 -0.2984613 -0.33269256 -0.48093942 -0.32655668 0.012542238 -0.30486634 -0.43596977
0.30863172 -0.41908264 0.28362083 -0.43373692 -0.39838463 0.12504262 -0.58136827 -0.36348438
0.32340544 -0.07293848 -0.46865088 -0.35483834 -0.0036279177 -0.5361408 -0.1661995 -0.06866437
-0.51622945 0.07114114 -0.46313205 -0.68592244 -0.083379835 -0.39901248 -0.25834796 0.17369586
0.10673582 -0.25086367 -0.48260382 -0.1456895 0.12817895 -0.30200228 -0.26382294 0.27051648
0.0926559 -0.28891495 -0.0961218 -0.3891373 0.25297934 0.58212906 0.010486033 -0.17479403
-0.16945055 -0.09434433 -0.12803309 -0.3288253 -0.2235913 -0.19942316 -0.43679598 0.11521051
-0.25976953 -0.061393887 -0.11828944 0.10255328 -0.38569933 0.30338496 -0.12742327 0.054078877
-0.0054735844 -0.32588083 -0.27524975 0.011221364 -0.006846041 -0.09197337 -0.496221 -0.20946138
0.0013125207 0.12152544 -0.29248857 -0.092238896 -0.031946603 0.03182465 -0.10282084 0.14223166
-0.2172567 0.20925501 -0.26791137 -0.073703654 0.26197964 -0.1636725 -0.18529518 -0.22957772
-0.46327025 0.04643186 0.07328433 -0.38680032 -0.29220498 0.22814977 -0.11951599 -0.22959015
-0.03757231 0.027980616 -0.4795434 -0.4973615 -0.06703877 0.11935386 -0.42736638 -0.18839325
-0.34841317 0.31699282 -0.78937757 -0.45047262 -0.25255606 -0.25664625 -0.23861083 -0.34325036
0.33574647 -0.20199876 -0.52334213 -0.11783802 0.44468093 -0.40504646 -0.3094059 0.057754736
-0.17357506 -0.52975756 -0.3900325 -0.03837913 0.022090387 0.26116422 -0.013293847 -0.36606693
-0.33196253 0.008203312 -0.14657663 0.2543074 -0.2163697 -0.20222962 -0.22774653 -0.40780687
0.058824655 0.050282773 -0.49919882 0.0019192661 -0.2528013 -0.60103 0.024707682 -0.49648038

fc2.weight f4 [128, 260]
00000000: 75ed ebbc bc62 703d 36de dcbd 9bf6 abbe
00000010: b2bd 133d c885 333c e044 f7bd 7640 12bf
00000020: f815 3ebe dbd3 10be c00f 14be 1b33 23be
00000030: 220c f1bd 5acb 59bc e2dd 09be 10c5 ca3c
00000040: 9091 0ebd d3b7 8e3d 253b 0fbf 1f88 7dbd
00000050: 40fe 75bd 5c96 73bb bc42 01be 17d0 79bc
00000060: bc44 80bc c236 4cbe dab1 e1bd f3ce 87bd
00000070: b420 0fbe 28f4 fcbd b878 5dbc f1da 9abd
00000080: 27fc 0abd 4695 97bc 93f6 39be 104a 2bbd
00000090: 8659 5bbb 831a f33c 14dd 2abd 8783 0ebc
000000a0: 47c6 7cbe 09a2 66bf 630a 16be 1c9b a3bd
000000b0: 5147 34bd f217 09be 85f2 7ebd f738 0f3d
000000c0: b294 f9bd b047 6bbe c683 a93d 8a54 adbd
000000d0: d0cb 823d d3e5 6ebd 584c 63bd bd57 11be
000000e0: 2331 16be bf0c bbbe 377e 11bd 0900 1a3d
000000f0: 42f9 72be e491 a1bc 2f95 84bd 8212 383d
00000100: f800 b8bd 5878 29be b993 fbbc 76a0 51be
00000110: 6216 a6bd b505 13be 7ada 713d 2a90 41bd
00000120: 3e5e 4d3c b0c3 4cbb 2dcf 4bbe 3cec d0bd
00000130: 369d 04be 508d b7bd 6587 6abe a7ca a4bd
00000140: f139 16be d8ab 18bf 9a36 1bbc 2846 acbc
00000150: 4233 25be 346e 53be 0718 533c 4513 25be
00000160: 2156 093d 382c 8fbd 3576 04bd 27a0 85be
00000170: 96b1 37bd 52a9 0bbd b115 b2bd 4ff2 03be
00000180: 3283 82be 62b6 02bf 8d4f 15bd e701 adbd
00000190: 39da 27bd d1d5 fc3b 2212 0bbd 105a 473c
000001a0: 8722 82bd 3090 b4bd 39cb 993b 1c68 f33c
000001b0: 3f4d 23be b5f4 84bd aba9 973c 84dc 70bd
000001c0: a7c2 2dbe 08de 91be 4c25 87bc 5e0e 24bd
000001d0: 3f29 0f3e 1955 01bd b020 08be eb1a d6bd
000001e0: ef80 6c3d 2237 a5bc ea56 e3be 622d 66bd
000001f0: f542 3abe a123 b2be 93c7 8e3d 0207 04be
00000200: a430 54be 4985 26be 5e54 00bd 07e9 f5bd
00000210: 4574 fb3c 919d 9fbc 96a1 6cbc 55ad de3b
00000220: c935 38be 72b3 f5bd 1849 853d d6e1 833c
00000230: c3b9 f5bd 8b57 d63c 3021 483b 49f6 20bd
00000240: b979 dcbd 34c0 febc 227b cbbd f3f3 3fbe
00000250: 2174 fe3c 4b26 c4bc 1188 0dbd 93d2 67be
00000260: fe29 76be 2ad7 0ebd 25fa 913b c505 bfbd
00000270: 6e5a 6ebe eb37 41be 183f b9bd f97f 4abe
00000280: 7d81 25be 050f 473c 018b 62bd 3a68 09be
00000290: 76cb a43d 4f8c 18be f56f 713d 71e4 86be
000002a0: 4a64 af3c 70df fb3c 2ad2 13be e366 5f3d
000002b0: 19e4 0ebd 22e0 25be 9b4d 4ebd 44f7 a6bd
000002c0: 6d2e eebe 3a27 ec3b c032 a3bd ab1a d23c
000002d0: a2f8 c53d b52e f3bc 03e7 eebd c801 49bc
000002e0: 461e f0bc b567 ddbb 66e2 13be 9f4c a6bd
000002f0: 48ea 99be 7c21 b33d f7e7 edbd 4257 d6bd
00000300: 312a 25bd 2d75 583d 3607 69bd 1b31 60be
00000310: 0c4b f0bd c14c a1bc 9bb5 63bd 6d1c c2bd
00000320: 5d15 bfbd 5a49 dabd d47d fcbe 9b13 753d
00000330: bdc4 ce3c 28a5 33be f123 6fbd 1f30 02bf
00000340: 5ca2 49bc 172b 823d 67e0 4ebc 07a3 063d
00000350: f5bf b53d 4498 8ebd 84d5 a4bd e970 e5bd
00000360: 2b32 ffbc ccec cabe a780 d13b a05c e2bd
00000370: 7811 a6bd a59a bebd 6c6a 59be e81f 413d
00000380: 4704 cbbc 53a2 70bd 1d4a ce3c 6c63 fabe
00000390: b85f abbe c060 a3bd 0267 34be 57a9 d6bd
000003a0: 9e67 4bbd 53a2 88bd a9a7 573c 4a70 533d
000003b0: f455 42be 8e4a 98bd bdc4 56be 00a1 c2bd
000003c0: fe12 2dbd 7f93 00be 9633 d03d f4c8 a7bd
000003d0: 3813 3c3d dcc4 bfbc 01f2 5fbd 18d9 43bb
000003e0: 2d02 25be 0e4d 9bbd a544 7dbd aa8e 07be
000003f0: 9631 dc3d be58 203d 82ed 5abe 385f 4abd
-0.028799752 0.05868791 -0.10784571 -0.33586583 0.03606958 0.010957189 -0.12073684 -0.5712961
-0.18563068 -0.14143316 -0.14459133 -0.15937464 -0.11769892 -0.013293112 -0.13463548 0.02475217
-0.034806788 0.069686554 -0.5594962 -0.061897393 -0.060056925 -0.0037168479 -0.12623113 -0.015247366
-0.015657775 -0.19942763 -0.110202506 -0.06631269 -0.13977319 -0.123512566 -0.013517551 -0.07561291
-0.033931877 -0.018503796 -0.18160467 -0.04181868 -0.0033470108 0.029675728 -0.041714743 -0.008698351
-0.24685012 -0.90090996 -0.146524 -0.07988569 -0.044013325 -0.1338804 -0.062243003 0.034966435
-0.121865645 -0.22976565 0.08277087 -0.0846339 0.063865304 -0.058324646 -0.05549273 -0.14193626
-0.14667182 -0.36533162 -0.03552076 0.03759769 -0.23727897 -0.019722886 -0.06473767 0.044939525
-0.0898456 -0.16549814 -0.030710088 -0.20471367 -0.08109738 -0.14357646 0.059046246 -0.047256626
0.012534676 -0.0031244569 -0.1990325 -0.10201308 -0.12950596 -0.089625 -0.22903211 -0.08046465
-0.1467054 -0.5963721 -0.009473467 -0.021029547 -0.16132835 -0.20647508 0.0128841465 -0.16120632
0.033529405 -0.06990856 -0.032339294 -0.2609875 -0.044847094 -0.034097023 -0.086955436 -0.12885402
-0.2549072 -0.51059544 -0.03645282 -0.084476285 -0.040979598 0.0077159186 -0.03395284 0.012167469
-0.06354242 -0.08816564 0.0046934155 0.02971273 -0.15947436 -0.06491987 0.018513521 -0.05880405
-0.16968785 -0.2848971 -0.016497277 -0.040052764 0.13980578 -0.031575296 -0.1329372 -0.10454353
0.05774015 -0.020167891 -0.44402248 -0.056195624 -0.18189605 -0.34792808 0.069716595 -0.12893298
-0.2072168 -0.16261782 -0.03133046 -0.12007337 0.03069509 -0.019484313 -0.014442822 0.006795565
-0.17989267 -0.11997117 0.06508082 0.016098898 -0.11998322 0.02616479 0.003053736 -0.039297376
-0.10765404 -0.031097509 -0.09935595 -0.18745403 0.031061234 -0.02394404 -0.03455359 -0.22638921
-0.24039456 -0.034873165 0.0044548684 -0.09327272 -0.23276684 -0.18868987 -0.09045237 -0.1977538
-0.16162677 0.012149577 -0.055308346 -0.13418666 0.080466196 -0.14897273 0.05894466 -0.26346162
0.021410126 0.030746192 -0.1443564 0.05454148 -0.0348855 -0.16198781 -0.05036698 -0.08152631
-0.46519795 0.0072068246 -0.07968664 0.025647482 0.096665636 -0.029685358 -0.11665156 -0.012268491
-0.02931131 -0.0067567476 -0.14441833 -0.08120083 -0.30061555 0.08746621 -0.116165094 -0.10465862
-0.04032344 0.052846123 -0.056891643 -0.21893732 -0.11733064 -0.01968992 -0.055593114 -0.09478078
-0.093302466 -0.10658522 -0.4931475 0.05983315 0.025240296 -0.17543471 -0.058383886 -0.50854677
-0.012306776 0.06355875 -0.012626744 0.03287032 0.088745035 -0.06962636 -0.080485374 -0.112031765
-0.031151852 -0.39633787 0.0063935104 -0.11052823 -0.08108801 -0.0930684 -0.21232003 0.04714957
-0.024782313 -0.058748554 0.025181824 -0.48903978 -0.33471465 -0.07977438 -0.1761742 -0.10481518
-0.049659364 -0.06671586 0.013162532 0.05162076 -0.18978101 -0.07436095 -0.20973487 -0.095033646
-0.04225444 -0.12556265 0.10166089 -0.08192626 0.045916766 -0.0234093 -0.054674152 -0.0029884037
-0.16114111 -0.075830564 -0.061833043 -0.13238016 0.10751645 0.03914713 -0.21379665 -0.049407214

fc2.bias f4 [128]
00000000: 4687 55bd 6a30 96bd e6ef 89bd 9d53 c33b
00000010: 45f8 37bd 92fb 623b cbe0 cbbd fbdb ccbc
00000020: 795f 2dbe 9fb7 dbbd 3e07 ccbd a2d8 fc3e
00000030: 4e54 1ebe 4292 b5bd 5e37 aabd 97cf 57bd
00000040: a497 793d 92bf dbbd 45b5 a83d 545b 883c
00000050: 3006 c8bd 0f55 313e f67a b7bd 7f0b 87bd
00000060: c8d0 05bd 358b 25bc 6f29 82bd 184c 23be
00000070: df06 87bd ed4e f9bc 6fa1 2c3c 1c1d 36bd
00000080: e2da 52bd 24ac cfbc c913 aabd ed82 bebb
00000090: aef4 ec3d 6c70 2e3e 5355 aebc 4d35 d3bd
000000a0: 7488 db39 4fd7 35bd 5aa7 94bd d33d ecbd
000000b0: 89fc c7bd 2ff5 a23c 441a c9bd c36c e6bd
000000c0: 7308 93bd cdf4 c5bd 05b0 49bb 7a18 8cbb
000000d0: 87e5 9abd 4104 02bd e565 21bd 1827 adbd
000000e0: a3bd 67bc 600b 03bd 4df7 a6bc 87dd ab3e
000000f0: 4d7e 883e db8c 29bd f2a8 98bd f4f8 f3bc
00000100: 0f81 75bd 66d3 d6bc 672f 05be 402d f3bd
00000110: a906 f5bd 991c 5bbb 54b8 68bc 0ca4 dbbd
00000120: c609 ccbc d9c0 9cbd bd06 5e3c fe6e 79bd
00000130: 533d 77bd 9424 bcbc 3c0a 73bb d56f c7bd
00000140: 86bc 4fbc dbf5 0cbd cbd2 203f 1375 bdbc
00000150: b079 81bd c097 0bba e3ee dfbb f6d8 0fbd
00000160: 4529 0f3d 9792 93bd 1fde aabc 72cf 223c
00000170: e96e 0dbe 8908 e2bd b9a4 38be cd1a dc3d
00000180: 9dc2 fabd cd99 863d 629f b1bd 2b8d 1fbd
00000190: 6ec2 e7bd cebf 3cbd ae97 9abd aa29 c5bb
000001a0: e60f 8cbd f29e 553e 23cf a3bd 4fa3 babd
000001b0: 0d6a aabd 7313 cc3d 2c8b 0dbc f66a 2fbd
000001c0: 0837 eebc 5a3e 75bd c588 78bd 2952 04be
000001d0: b360 b33e 4ab6 c4bd 290b 763e 21e3 db3b
000001e0: fc3a 7d3c d33e babd f568 893c f782 153e
000001f0: 53f2 bdbd 2b09 e4bd 6380 bfbd 70e0 5ebd
-0.05213096 -0.07333453 -0.0673521 0.005960895 -0.044914503 0.003463481 -0.09954985 -0.025007239
-0.16930951 -0.10728382 -0.09962319 0.49384028 -0.15461847 -0.08865787 -0.08311342 -0.052688207
0.06093563 -0.107298985 0.082376994 0.016645111 -0.09766805 0.17317604 -0.08959 -0.065939896
-0.032669812 -0.01010399 -0.06355559 -0.15946996 -0.065931074 -0.030433143 0.010536536 -0.044461355
-0.051478274 -0.025350638 -0.08304555 -0.0058139474 0.115701064 0.17035073 -0.02128092 -0.10312901
0.000418726 -0.044394787 -0.07258482 -0.115352295 -0.09764964 0.019892303 -0.09819463 -0.112512134
-0.07179346 -0.09665833 -0.0030775082 -0.004275379 -0.0756331 -0.031742338 -0.039403815 -0.08454722
-0.014144334 -0.03199327 -0.020381594 0.3356745 0.2665886 -0.041394096 -0.07454099 -0.029781796
-0.059937533 -0.02622385 -0.13006364 -0.11873865 -0.11964161 -0.0033433794 -0.0142041035 -0.10724649
-0.024907004 -0.0765397 0.013551411 -0.060896866 -0.060361218 -0.02296666 -0.0037084958 -0.09738127
-0.012679225 -0.034414154 0.62821645 -0.023127114 -0.06322038 -0.0005325042 -0.0068338974 -0.03511902
0.034951467 -0.07205694 -0.020857869 0.009937154 -0.1381184 -0.11036784 -0.18031587 0.10747299
-0.12244151 0.06572304 -0.08672978 -0.038952988 -0.113163814 -0.046081357 -0.07548462 -0.0060169296
-0.0683897 0.20861414 -0.079984926 -0.0911318 -0.08321009 0.09964647 -0.008639138 -0.042826615
-0.029078975 -0.059873916 -0.06067731 -0.12921967 0.35034713 -0.096050814 0.24027695 0.0067104255
0.0154559575 -0.09094014 0.01677368 0.1460074 -0.09274735 -0.11134561 -0.0935066 -0.05441326

fc3.weight f4 [1, 128]
00000000: 708d c9bc 7bb0 10bc 8170 faba a14d 8abc
00000010: 8196 91bb e5ad 90bc 1083 13bc 108a 74bc
00000020: f26b b0bc 8ad1 d13b 01d8 58bc 1e99 2bbc
00000030: a0a5 fc3b f79e 06bb 2c36 90b9 7bd3 23bc
00000040: ff8b b6bc 595e e03b 8d2e cf3b 62b0 9cbc
00000050: 4264 f33c 51b8 cebb 1978 95bc 22a0 95bb
00000060: 5e4b 723c ba52 02bc bc75 3b3c d48d 46bc
00000070: e06c 2abb 9dd1 003b 0b0e 813c abab 673c
00000080: 89a3 3a3c 4bb9 7dbc 2235 df3b 1dbc f73a
00000090: d2a3 8a3c ffe4 08bc 24c3 84bc 8907 a2bb
000000a0: a82b 963b 2d76 57b9 e015 e3bb 6ca1 0bbb
000000b0: a7ae a93b c971 82bc 040d 46bb 3fce b6bb
000000c0: d40f 6c3c 9c59 75bc a123 e3bb 8dfe 113d
000000d0: c3db 3c3c c380 df3c 45a5 a1bc 68dd babc
000000e0: f9db ea3c 8f1c 47bc 547e c1bc 8bbe d7bb
000000f0: 48ad ffbb bcd7 0b3c 4bd4 f2bc 30e9 773c
00000100: b66f 87bc b710 3b3c af15 e03a 77eb 6abc
00000110: 2a61 83ba 36a1 0abd 064c 40bc b493 c43a
00000120: 4abf 53bb 614e f43c 59d9 3dbc e0d3 303a
00000130: 9369 b13c c2b6 ad3a 6484 a2bc 1966 7ebc
00000140: f705 95bc be9c 1dbc 4335 79bc da33 343c
00000150: 96ba 2a3c 4d42 053c b9ec 6fbc 2ceb 6abb
00000160: 7f9b cebc b26d 153c 9ae4 1fbc 1c69 d93b
00000170: 3b38 1abc ab2f adbc e93d 7cbc c04d 25bc
00000180: 38a5 a6bc f69f 173c b24b d53b 6955 873b
00000190: cf47 0a3d 7175 a4ba 7168 ea3a c15f 9e3c
000001a0: a7a0 bcbc 0c51 adbb 42b3 35bb 4c7f 15bc
000001b0: c266 813c be7a 6fbc 1fdd ff3b 432b e839
000001c0: 231d cd3b 9a05 9a3b 6c7b 5c3c cd3d 81bc
000001d0: 7f04 12bc c3a4 debb e505 0bbc eacd 043c
000001e0: af56 7b3c 1325 8cbc ca8e 1e3c 5459 48bc
000001f0: ca4d 8a3c e9a1 6cbb 5cac ecbc 6ba2 01bc
-0.024603575 -0.008831139 -0.0019107015 -0.01688272 -0.0044429903 -0.017661044 -0.009003416 -0.014925495
-0.021535847 0.006403153 -0.013235093 -0.010473518 0.0077101737 -0.0020541528 -0.00027506182 -0.009999151
-0.022283552 0.0068471846 0.006322688 -0.019127075 0.029710893 -0.0063085933 -0.018245744 -0.0045662085
0.014788477 -0.007954294 0.011441644 -0.012118775 -0.0026004836 0.001965619 0.015753767 0.01414005
0.011391529 -0.015486072 0.006811754 0.0018900667 0.016923819 -0.008355378 -0.016206332 -0.004944746
0.004582841 -0.00020548022 -0.006930098 -0.0021305932 0.005178291 -0.015923398 -0.003022016 -0.0055787857
0.014408071 -0.014974978 -0.0069317375 0.03564315 0.011527005 0.027283078 -0.019732127 -0.022810653
0.028669344 -0.012152805 -0.023619808 -0.006583994 -0.007802639 0.008535322 -0.029642245 0.01513128
-0.01653276 0.011417559 0.0017096306 -0.014338366 -0.0010023464 -0.03384515 -0.011736875 0.0014997632
-0.0032310062 0.02982253 -0.011587464 0.0006745439 0.021656787 0.0013253319 -0.01983852 -0.015527272
-0.01819132 -0.00961989 -0.0152104525 0.0109986905 0.010420462 0.008133483 -0.014643841 -0.003584574
-0.02522063 0.009120392 -0.009759093 0.0066348445 -0.00941282 -0.021140894 -0.01539562 -0.010089338
-0.020342454 0.009254446 0.0065092677 0.0041300547 0.03375989 -0.0012547207 0.0017883909 0.019332768
-0.023025824 -0.0052892026 -0.0027725254 -0.009124588 0.015796069 -0.014616666 0.007808342 0.0004428272
0.006259577 0.004700375 0.01345716 -0.01577654 -0.008912205 -0.0067945435 -0.008485292 0.008105734
0.015340491 -0.017107522 0.009677598 -0.012228329 0.016882796 -0.0036107248 -0.028890781 -0.007912259
