p3_collab-compet/checkpoint_critic_0.pth (torch_old, 185340 bytes, 5 tensors)

fcs1.weight f4 [256, 48]
0	0x3e4db6b0	0.20089221
1	0x3f287fa5	0.6581977
2	0xbca7ff83	-0.02050758
3	0x3e502fef	0.20330785
4	0xbdfe0518	-0.12403315
5	0xbddd28a5	-0.10798768
6	0xbd162666	-0.036657713
7	0x3e6f54da	0.23372212
8	0x3e1c5842	0.15268043
9	0x3f57ed01	0.84346014
10	0xbe19d31c	-0.15021938
11	0xbd9838d3	-0.07432713
12	0xbc9629b5	-0.018330434
13	0xbe49533a	-0.19660655
14	0xbd335630	-0.043783367
15	0xbde3b139	-0.11117787
16	0x3e356a04	0.17716223
17	0x3f4bab4a	0.7955824
18	0xbd929a47	-0.07158332
19	0x3df368a6	0.118851945
20	0x3d22c4d3	0.039738487
21	0xbdd1bdfa	-0.10241313
22	0xbd021416	-0.031757437
23	0x3cefad6c	0.029257499
24	0x3e98e388	0.29861093
25	0xbdcb1fdb	-0.09918185
26	0xbdc37ada	-0.095449165
27	0xbdd6621b	-0.10467931
28	0x3d5c6354	0.053805664
29	0xbe2fe9bb	-0.17179005
30	0xbe06ff58	-0.13183343
31	0xbd9100eb	-0.07080253
32	0x3f01e867	0.5074524
33	0x3c8aaa23	0.01692683
34	0x3c9db596	0.019251626
35	0x3d0b2c84	0.033978
36	0xbcfaf0cf	-0.030632405
37	0xbe2eb788	-0.17062199
38	0xbae485c4	-0.0017434885
39	0x3db7ab51	0.08968223
40	0x3eece821	0.4627085
41	0xba91a079	-0.0011110447
42	0xbdf36f39	-0.118864484
43	0x3d07d1c6	0.03315904
44	0xbda90844	-0.0825353
45	0xbdd40818	-0.10353106
46	0xbde54bb0	-0.11196077
47	0x3de147d1	0.11000026
48	0x3d5438ad	0.051811863
49	0xbed8259b	-0.4221619
50	0xbc5a30ff	-0.013317346
51	0x3d4f8c46	0.050670885
52	0xbe65d506	-0.22444543
53	0x3e80c9c1	0.25153926
54	0xbd3a2f85	-0.045455474
55	0x3dfc4cb5	0.12319318
56	0x3dfe89e4	0.12428644
57	0xbea7104c	-0.3262962
58	0xbd50300f	-0.050827082
59	0xbdd1e843	-0.102493785
60	0xbd0542a2	-0.03253425
61	0xbd31939e	-0.04335367
62	0xbd7083bc	-0.05871938
63	0xbdad336d	-0.08457074
64	0x3c013ed1	0.007888512
65	0xbeea6ed0	-0.45787668
66	0xbc8687a4	-0.0164221
67	0xbd2a69b2	-0.041604705
68	0x3e881749	0.26580265
69	0xbee991a1	-0.4561892
70	0xbd0fa6c9	-0.035071168
71	0xbdfeb805	-0.12437443
72	0x3c00994e	0.007849051
73	0xbec6b973	-0.38813362
74	0x3ca7c75a	0.0204808
75	0x3d053860	0.032524467
76	0x3e12a310	0.14320016
77	0x3e8cc7fe	0.27496332
78	0xbcd52f87	-0.02602364
79	0x3cb4593b	0.022015205
80	0x3d9b53bb	0.0758433
81	0xbec960eb	-0.39331755
82	0xbce20d27	-0.027594162
83	0xbdbeab75	-0.093100466
84	0xbce15c4e	-0.027509835
85	0xbad88085	-0.0016517794
86	0x3c3ead03	0.011637929
87	0xbe085755	-0.13314565
88	0x3d9c4bd9	0.07631654
89	0xbe92ecc5	-0.28696266
90	0xbd0c9b64	-0.03432788
91	0x3b8b140e	0.004244334
92	0xbe84f165	-0.2596542
93	0xbec94ccd	-0.39316407
94	0xbd617b1e	-0.055049054
95	0x3ce96807	0.028491987
96	0x3e22ef39	0.15911569
97	0x3e1915a7	0.14949666
98	0xbcbccb47	-0.023046149
99	0xbcfd63af	-0.030931322
100	0x3d292d57	0.041303005
101	0x3d871a11	0.06596769
102	0xbd182790	-0.037147105
103	0x3d822a99	0.06355781
104	0x3ed9aa7b	0.4251288
105	0x3ea8b122	0.32947642
106	0xbd78f389	-0.06077913
107	0x3e4ffc34	0.20311052
108	0xbdde8fd4	-0.10867277
109	0x3dfe3d0d	0.12413988
110	0x3d1cee1f	0.038313027
111	0x3e3a20e6	0.18176612
112	0x3f10df96	0.56591165
113	0x3efac594	0.48978865
114	0xbcfd6764	-0.03093309
115	0x3e8f5e26	0.28001517
116	0xbebb4d39	-0.36582354
117	0x3e0ada3d	0.13559814
118	0x3d7328a3	0.059364926
119	0x3ec97806	0.39349383
120	0x3db897d3	0.09013333
121	0xbd897307	-0.06711393
122	0xbd4e020c	-0.05029492
123	0xbd9f8e5f	-0.07790827
124	0xbd14dca3	-0.036343228
125	0x3da45317	0.08023661
126	0x3cfb38e5	0.030666778
127	0xbe1f3b95	-0.15550072
128	0xbdbc9d90	-0.0920974
129	0xbdc43039	-0.0957951
130	0x3d20f969	0.039300356
131	0x3ca8b40c	0.020593666
132	0x3e08cd39	0.13359536
133	0x3dd55779	0.10417075
134	0x3cd03cb6	0.025419574
135	0x3ced23c6	0.028947722
136	0xbe350573	-0.1767786
137	0xbdcee929	-0.101030655
138	0xb9feec04	-0.000486225
139	0xbd7f9a62	-0.06240309
140	0x3ec5d2d3	0.3863741
141	0x3e308aa7	0.17240392
142	0x3ca6e422	0.020372454
143	0x3b17dd4d	0.0023172677
144	0x3dd06f5c	0.1017749
145	0x3ea36853	0.3191553
146	0xbcf9cb93	-0.03049258
147	0x3e9d41cf	0.3071427
148	0x3dea13ec	0.11429581
149	0xbe921ee6	-0.285392
150	0xbd8a6e42	-0.06759311
151	0x3ea963a1	0.33083823
152	0x3e3fe0d6	0.18738112
153	0x3ebe2b3a	0.37142354
154	0x3d86178f	0.06547462
155	0x3eb3c1e0	0.35108852
156	0x3e044ffd	0.12921138
157	0xbf161bf8	-0.58636427
158	0x3dff53d3	0.1246716
159	0x3e73b564	0.23799664
160	0x3ddc2b68	0.107504666
161	0x3ef07f4f	0.4697213
162	0xbc5fea3c	-0.013666686
163	0x3d0a7176	0.03379961
164	0x3dcd0206	0.100101516
165	0xbf1663a2	-0.5874578
166	0xbd991533	-0.074747466
167	0x3da24f8e	0.0792533
168	0xbc0a365c	-0.008435812
169	0x3e54e0ce	0.20788881
170	0xbd82b82f	-0.063827865
171	0xbdb64588	-0.08899981
172	0xbe1696f2	-0.14706019
173	0xbec0bf36	-0.37645882
174	0xbce8aea2	-0.028403584
175	0xbd235dd3	-0.0398844
176	0xbd84693e	-0.06465386
177	0x3e2436f5	0.1603659
178	0x3da30bd3	0.0796124
179	0x3c186292	0.009300845
180	0xbe02b110	-0.12762856
181	0xbf0d44a9	-0.5518289
182	0xbcddd0a8	-0.027077034
183	0xbd07ad67	-0.033124354
184	0x3d896a85	0.0670977
185	0x3e80dfd7	0.25170776
186	0x3d471a8a	0.048609294
187	0xbdce3157	-0.100680046
188	0xbd913a86	-0.070912406
189	0xbf1bb4ea	-0.6082293
190	0x3d128260	0.035768867
191	0xbdf210b4	-0.11819592
192	0xbd1a7014	-0.037704542
193	0xbd3a64a9	-0.045506153
194	0x3d05fb11	0.03271014
195	0xbcd3b4c0	-0.025843024
196	0x3f641c68	0.89105844
197	0x3d601a81	0.054712776
198	0xbd263e0a	-0.04058651
199	0xbd4fed2a	-0.050763287
200	0x3c680bce	0.014162971
201	0xbcd666da	-0.02617209
202	0xbc927c14	-0.01788143
203	0x3ba56fce	0.0050487285
204	0x3fdbe3fd	1.7178952
205	0x3e06c40a	0.1316072
206	0xbba6423f	-0.005073815
207	0x3dc07577	0.09397405
208	0x3c99abf1	0.018758746
209	0x3c6dc162	0.014511438
210	0xbcbd68ac	-0.0231212
211	0x3bf4d886	0.0074721007
212	0x40037368	2.0539188
213	0x3d7a89d4	0.0611666
214	0x3cac5b2a	0.021039564
215	0x3c67fb3f	0.014159023
216	0xbd687765	-0.05675449
217	0xbdae070a	-0.08497436
218	0xbb5ada2e	-0.0033394205
219	0xbd6480c6	-0.05578687
220	0xbf696c46	-0.9118084
221	0x3df42ae1	0.11922241
222	0x3a112d30	0.00055380445
223	0xbd293fe3	-0.041320693
224	0x3cd787e9	0.026309924
225	0xbc89bbf1	-0.01681325
226	0xbd49613d	-0.049165
227	0xbd679e47	-0.05654743
228	0xbfd102bd	-1.6328961
229	0x3d3eef86	0.046615146
230	0x3d32fe43	0.043699514
231	0x3d2b16b5	0.041769702
232	0x3d4e28fa	0.050332047
233	0x3d57aec7	0.052656915
234	0xbcf6863f	-0.03009331
235	0x3d1f8637	0.038946357
236	0xc00208f6	-2.031797
237	0xbbb0077a	-0.005371985
238	0x3cf35e5b	0.029708078
239	0xbc9d1d10	-0.019178897
240	0x3dce5238	0.10074276
241	0x3e50344b	0.20332448
242	0x3d8fa9b0	0.07014787
243	0xbd910465	-0.07080916
244	0x3dafaec6	0.08578257
245	0xbd9f7a98	-0.07787055
246	0x3da9e6dc	0.08295986
247	0xbca6f0d6	-0.020378511
248	0x3e153a5a	0.1457304
249	0x3e41eec1	0.18938734
250	0xbdba0771	-0.090834506
251	0x3d9e41c8	0.077273905
252	0xbd1fab39	-0.03898165
253	0xbe5d5068	-0.21612704
254	0xbd9a6cc5	-0.075402774
255	0x3dde901e	0.10867332

fcs1.bias f4 [256]
0	0xbeb5aecf	-0.3548493
1	0x3df9e472	0.122017756
2	0xbdec41eb	-0.1153601
3	0xbef5b86b	-0.47992262
4	0x3e5c2fff	0.21502684
5	0xbe99b64c	-0.30021894
6	0xbedd99f2	-0.43281513
7	0xbe11cd68	-0.14238513
8	0xbea77535	-0.3270661
9	0xbdebd240	-0.115147114
10	0xbe842985	-0.25812927
11	0xbeacaa1f	-0.33723542
12	0x3eb724f9	0.35770395
13	0x3ec24eba	0.3795069
14	0xbefcbfc5	-0.4936506
15	0x3db4ef13	0.08834662
16	0xbe649b92	-0.2232497
17	0x3c73e5ce	0.014886333
18	0xbe808c17	-0.2510688
19	0x3e9fab1f	0.31185243
20	0xbd815b1b	-0.06316205
21	0xbedfec71	-0.43735078
22	0xbd8d15ae	-0.06888901
23	0xbd01babd	-0.031672228
24	0xbd63ab66	-0.05558338
25	0xbd706ec7	-0.058699396
26	0x3d03d2bc	0.032183394
27	0xbeab62c5	-0.33473793
28	0x3e381ec4	0.17980486
29	0xbe9319b8	-0.2873056
30	0xbdaec39a	-0.08533402
31	0xbe858015	-0.2607428
32	0xbd49faf6	-0.0493116
33	0xbead783b	-0.3388079
34	0xbe88e799	-0.26739195
35	0xbee55a22	-0.44795328
36	0xbee85f1b	-0.4538506
37	0xbea31376	-0.31850785
38	0x3d937a4d	0.072010614
39	0xbdf51d4f	-0.11968481
40	0x3ce2459b	0.027621081
41	0xbe315b95	-0.17320092
42	0x3d80244c	0.06256923
43	0xbe51c92c	-0.20486897
44	0xbec4a92a	-0.38410312
45	0xbd72dffa	-0.059295632
46	0xbe9f978e	-0.31170315
47	0xbed84544	-0.42240345
48	0xbe77e883	-0.2420979
49	0xbea44a62	-0.32088
50	0x3e2d397b	0.16916458
51	0x3dd4c88e	0.10389815
52	0xbd22f6b8	-0.03978607
53	0x3eac5516	0.33658665
54	0xbec02eed	-0.37535802
55	0xbd3a2f78	-0.045455426
56	0x3d18bd0f	0.037289675
57	0xbd410007	-0.047119167
58	0xbdf1ef52	-0.11813225
59	0xbe26acdf	-0.16276883
60	0xbde5efc7	-0.112273745
61	0x3e2bf1a1	0.16791393
62	0xbeb4811b	-0.3525475
63	0x3e5ec9e5	0.21756704
64	0xbdb51bfa	-0.08843227
65	0xbe8cb08a	-0.2747844
66	0xbee54fdc	-0.4478749
67	0xbe895319	-0.2682121
68	0xbf07361a	-0.5281693
69	0xbccb70a0	-0.024833977
70	0x3e9628e8	0.29328084
71	0xbe2d2e97	-0.16912304
72	0xbd417c41	-0.04723764
73	0xbe7e4992	-0.24832752
74	0xbdd7de58	-0.105404556
75	0x3e85e80c	0.261536
76	0x3e601256	0.21881995
77	0xbc987a9d	-0.018613154
78	0xbe7b7e81	-0.24559976
79	0x3d05a9fb	0.03263281
80	0xbe0d2c1f	-0.13786362
81	0xbe504c41	-0.20341589
82	0xbda97349	-0.08273942
83	0xbe9f6391	-0.3113065
84	0xbe6078ba	-0.21921054
85	0x3e5666d6	0.20937666
86	0xbde93446	-0.113869235
87	0xbe597f57	-0.21239983
88	0x3c4fff68	0.012695171
89	0xbebdde82	-0.37083822
90	0xbecc8b45	-0.39950004
91	0xbe239b98	-0.15977323
92	0x3e18fd85	0.1494046
93	0x3ef29855	0.47381845
94	0xbeb3b4c5	-0.35098854
95	0x3d9b8fbd	0.07595775
96	0xbe2d23ab	-0.16908138
97	0x3e903e30	0.28172445
98	0xbe73fdd5	-0.23827298
99	0xbdbf3bde	-0.09337591
100	0xbe15744b	-0.14595143
101	0xbf0ebfaf	-0.55761236
102	0xbe0923a7	-0.13392507
103	0x3de506eb	0.1118296
104	0xbe661223	-0.22467856
105	0xbe4a70d8	-0.19769609
106	0x3bb6a3db	0.0055737323
107	0xbcd22312	-0.025651488
108	0xbdcf11d4	-0.10110822
109	0xbeb457e2	-0.352233
110	0xbe808168	-0.2509873
111	0xbec18140	-0.37793922
112	0x3e32c727	0.17458783
113	0xbe936c8f	-0.2879376
114	0xbeb04bb1	-0.34432748
115	0x3d68efdf	0.056869384
116	0xbe4b924e	-0.1988003
117	0xbe916cef	-0.28403422
118	0x3e332521	0.17494632
119	0xbe740ec5	-0.23833759
120	0xbeae0c6e	-0.33993858
121	0x3cbcd035	0.0230485
122	0x3dad3c97	0.08458822
123	0xbec28720	-0.37993717
124	0xbe8436d3	-0.25823078
125	0xbc5988fa	-0.013277287
126	0xbeb6802e	-0.35644668
127	0x3e57974f	0.21053813
128	0xbc77049f	-0.015076785
129	0xbdd6f72f	-0.10496365
130	0xbd9a0a4e	-0.07521497
131	0xbe8d8519	-0.27640608
132	0xbecf6ace	-0.40511173
133	0xbe920e0b	-0.2852634
134	0xbe8a51d4	-0.27015555
135	0xbe2cabde	-0.16862437
136	0xbe79b6da	-0.24386159
137	0xbef3c910	-0.47614336
138	0x3e07db89	0.1326734
139	0xbeefaa3c	-0.46809566
140	0xbe39d987	-0.18149386
141	0xbf1cb08d	-0.61206895
142	0xbe8ddc3b	-0.27707085
143	0xbe6be98a	-0.23038307
144	0xbe08f05f	-0.13372944
145	0xbaf9fcf7	-0.0019072582
146	0x3e3bb52b	0.18330829
147	0x3d8006f4	0.06251326
148	0xbc32e5d9	-0.010919058
149	0xbdb0a9d8	-0.08626145
150	0x3e90608a	0.28198653
151	0x3d603371	0.05473656
152	0xbd2f92dc	-0.042864665
153	0xbe17410b	-0.14770906
154	0x3d906516	0.070505306
155	0xbeb213a5	-0.34780613
156	0x3d57919a	0.05262909
157	0xbd2d65bf	-0.04233336
158	0x3d3c3ff9	0.045959447
159	0xbd07ec57	-0.033184376
160	0xbd9336b7	-0.071881704
161	0xbd38e536	-0.045140468
162	0xbe5c35a6	-0.2150484
163	0x3c5bb448	0.013409682
164	0xbe95ddcb	-0.29270777
165	0xbe17aa32	-0.14811018
166	0xbe78e827	-0.24307309
167	0xbd58bab2	-0.05291242
168	0xbed45fd5	-0.41479364
169	0xbe136954	-0.14395648
170	0xbdfb718e	-0.12277518
171	0xbd46f268	-0.04857102
172	0xbde92844	-0.11384633
173	0xbe8a3f81	-0.27001575
174	0x3e06f0e0	0.13177824
175	0x3e01adba	0.12663928
176	0x3d4a3ead	0.04937618
177	0xbe5fefc5	-0.21868809
178	0xbe5bf6e6	-0.21480903
179	0xbe2a5c2c	-0.16636723
180	0xbe1b3ca3	-0.1515985
181	0xbed7a8fa	-0.42121106
182	0xbbf18b5d	-0.0073713497
183	0xbeac04d3	-0.3359743
184	0xbed94a4a	-0.4243949
185	0xbe2780dd	-0.16357751
186	0xbe3cc7a3	-0.1843553
187	0x3e2966a4	0.1654306
188	0x3e26cca0	0.16288996
189	0xbe49c723	-0.19704871
190	0x3c258307	0.01010204
191	0xbe24b593	-0.1608489
192	0xbe8275fd	-0.25480643
193	0x3e92c1fd	0.28663626
194	0xbd5af98c	-0.053460643
195	0xbde1335c	-0.10996124
196	0xbf109ba2	-0.56487477
197	0xbebe165a	-0.37126428
198	0xbe28402e	-0.16430733
199	0xbebb722b	-0.3661054
200	0xbd1d2ce4	-0.03837289
201	0xbde633a8	-0.112403214
202	0xbda66e1b	-0.0812647
203	0xbe17225f	-0.14759205
204	0xbe54f696	-0.2079719
205	0xbe693d30	-0.22777247
206	0xbe2df570	-0.16988158
207	0xbe82a729	-0.25518158
208	0xbe8b59dd	-0.27216998
209	0xbe4b7243	-0.19867806
210	0xbe5b944c	-0.2144329
211	0xbead3edb	-0.33837017
212	0x3d80bd7d	0.06286142
213	0xbe6e3745	-0.23263271
214	0xbe2eed93	-0.17082815
215	0x3ea25429	0.31704834
216	0xbd8195f9	-0.06327433
217	0x3e870360	0.26369762
218	0xbea9d134	-0.33167422
219	0xbed9f432	-0.4256912
220	0xbd57841a	-0.052616216
221	0xbe119425	-0.14216669
222	0xbe96acca	-0.29428703
223	0xbe9f6169	-0.31129006
224	0xbd328d2a	-0.043591656
225	0x3cd1f145	0.025627742
226	0xbe7338ec	-0.23752183
227	0xbe35452f	-0.17702173
228	0xbd4bf9a8	-0.049798638
229	0xbf0b55df	-0.54427904
230	0xbeae4d90	-0.3404355
231	0xbe311248	-0.1729213
232	0xbecabba0	-0.39596272
233	0xbf06ad8e	-0.52608573
234	0xbf0bce1f	-0.5461139
235	0x3c29beb1	0.010360406
236	0xbe1a7e79	-0.15087308
237	0x3ee513f9	0.447418
238	0x3ea70764	0.32622826
239	0x3d960eed	0.073270656
240	0xbe504b08	-0.20341122
241	0xbe075859	-0.13217296
242	0xbe322b70	-0.17399383
243	0xbea4dd1e	-0.3219995
244	0xbdd695d0	-0.10477793
245	0xbe4b0791	-0.19827105
246	0xbe213db3	-0.15746193
247	0xbeb9c295	-0.36281267
248	0x3e145fa4	0.14489609
249	0x3e5528d4	0.20816356
250	0xbef88d4e	-0.48545307
251	0xbea65ea8	-0.32494092
252	0xbeb6519b	-0.35609135
253	0xbe313993	-0.17307119
254	0x3e76299a	0.24039307
255	0xbe73421c	-0.23755687

fc2.weight f4 [128, 260]
0	0xbdccc594	-0.099986225
1	0x3d620bc3	0.055186998
2	0x3c379df1	0.01120709
3	0xbd113fc1	-0.03546119
4	0xbd80a693	-0.062817715
5	0x3d8d0b61	0.06886936
6	0xbd0736c3	-0.03301121
7	0xbdd0ce02	-0.10195543
8	0xbdf0cb0e	-0.117574796
9	0xbdd9f396	-0.106421635
10	0xbcfc3a58	-0.03078954
11	0xbe8e768b	-0.27824816
12	0xbe1c4652	-0.152612
13	0xbd3de44b	-0.046360295
14	0xbe4a908e	-0.19781706
15	0x3d7b3573	0.06133027
16	0xbb6c8358	-0.003608903
17	0xbe1cec8d	-0.15324612
18	0xbe9e080a	-0.30865508
19	0xbd67293f	-0.05643582
20	0x3e1cb6c8	0.153041
21	0xbd8aca0d	-0.067768194
22	0xbdb3900d	-0.0876771
23	0xbd101cdd	-0.035183776
24	0x3db8f76a	0.090315655
25	0xbea360d2	-0.31909806
26	0xbe0ddc5f	-0.13853596
27	0xbc5c43dd	-0.013443914
28	0xbe7bcdf6	-0.24590287
29	0xbcbd918f	-0.023140697
30	0xbd996b39	-0.07491154
31	0xbd9bafac	-0.07601866
32	0xbd7ff879	-0.06249282
33	0xbd20fbc2	-0.039302595
34	0xbd0df137	-0.03465387
35	0xbe5f1a46	-0.21787366
36	0x3dde961a	0.10868473
37	0xbbe7a2eb	-0.007068982
38	0xbcb0687f	-0.021534203
39	0xbc1c1c0f	-0.009528174
40	0xbcc1ab58	-0.023641273
41	0x3cb1a728	0.021686152
42	0xbe7744e2	-0.2414737
43	0xbdda8322	-0.10669543
44	0xbd6cd67d	-0.05782174
45	0xbdb01b3c	-0.085989445
46	0x3c082e3f	0.008311807
47	0x3d19f107	0.037583377
48	0xbdccfde1	-0.10009361
49	0xbdf0deba	-0.11761232
50	0xbddb6ec0	-0.10714483
51	0x3d6af87c	0.05736588
52	0xbe16f67f	-0.14742468
53	0xbd4fa440	-0.05069375
54	0x3c947f36	0.018127065
55	0xbdf90214	-0.121585995
56	0xbe21dca6	-0.15806827
57	0x3c81ae42	0.015830163
58	0xbd962bb7	-0.07332557
59	0xbd0f9f52	-0.03506405
60	0xbe8114dd	-0.2521123
61	0xbccb01bb	-0.024781099
62	0xbe50270b	-0.20327394
63	0xbe1d0a09	-0.1533586
64	0xbdc52146	-0.09625487
65	0xbe24f716	-0.16109881
66	0x3ca5e69e	0.020251568
67	0xbe2c6e4a	-0.16838947
68	0xbdb479b1	-0.08812273
69	0xbe273326	-0.16328105
70	0xbd7b16b5	-0.061300952
71	0xbde7afb0	-0.113128066
72	0xbc8425cb	-0.016131302
73	0xbc4b39ca	-0.012403915
74	0xbe9212b7	-0.28529903
75	0x3db2091a	0.08693142
76	0xbdc9042e	-0.0981525
77	0xbe218d00	-0.15776443
78	0xbe18bd2a	-0.1491591
79	0xbc10ea0c	-0.008844864
80	0x3c80af4f	0.015708594
81	0xbe0ca844	-0.13736063
82	0xbcfc3cf6	-0.030790787
83	0xbe0fc82b	-0.14041202
84	0xbe004a32	-0.12528303
85	0xbea9ccf9	-0.33164194
86	0xbcb03602	-0.021510128
87	0xbe4c526e	-0.1995332
88	0x3c83ca18	0.016087577
89	0xbe674902	-0.22586444
90	0xbc9ad023	-0.018898075
91	0xbd060b88	-0.03272584
92	0x3e022b11	0.12711741
93	0xbe004087	-0.12524615
94	0xbe0f3f6c	-0.13989037
95	0x39ab34f9	0.0003265513
96	0xbd610a0f	-0.054941233
97	0xbc9f0659	-0.019412206
98	0x3c709baa	0.014685551
99	0xbe080e1c	-0.13286632
100	0xbcc07466	-0.023493003
101	0x3c10d5c3	0.008840027
102	0x3d471d44	0.048611894
103	0xbd30b36e	-0.043139867
104	0x3c34c0c3	0.011032286
105	0xbe282776	-0.16421303
106	0x3e2ad5ed	0.16683169
107	0xbddf1a24	-0.10893658
108	0xbdf54365	-0.11975745
109	0xbd6a5428	-0.057209164
110	0xbdac0561	-0.083994634
111	0xbd87ed7c	-0.066370934
112	0xbe0c2f27	-0.13689862
113	0xbd89024f	-0.066898935
114	0xbb412f26	-0.0029477566
115	0xbdf0728a	-0.117405966
116	0xbdc8f2e0	-0.0981195
117	0xbd8feb03	-0.07027247
118	0x3d9400b2	0.07226695
119	0xbe81f712	-0.25383812
120	0x3d6fa646	0.05850818
121	0xbe9d4f85	-0.3072473
122	0xbd8d9afc	-0.069143265
123	0xbd88e895	-0.066849865
124	0xbde2a6b8	-0.11066955
125	0xbd9bd1f7	-0.07608407
126	0xbe00d267	-0.12580262
127	0xbe9b07c2	-0.30279356
128	0xbd03f27d	-0.032213677
129	0xbdf2d0f3	-0.1185626
130	0xbcd5f9fe	-0.026120182
131	0xbde3286b	-0.110916935
132	0xbcd0bde6	-0.025481176
133	0xbe2a3926	-0.16623363
134	0xbd71dea8	-0.059050232
135	0x3664c648	3.4090062e-06
136	0xbdb593e0	-0.088660955
137	0xbde99aeb	-0.114065014
138	0x3cf2901b	0.02960973
139	0xbcdbc05e	-0.026825126
140	0xbd064674	-0.032782033
141	0xbcd664f3	-0.026171183
142	0x3cb89338	0.022531137
143	0xbe62d795	-0.2215255
144	0xbddecf4c	-0.108793825
145	0x3d3a2ab6	0.04545089
146	0xbd98f589	-0.07468707
147	0xbd14b727	-0.03630748
148	0x3c74e11f	0.014946251
149	0x3d854a22	0.0650828
150	0xbcad7fa4	-0.021179028
151	0xbe0688f5	-0.13138182
152	0xbdee428a	-0.11633785
153	0xbd54e9df	-0.05198085
154	0x3d484b19	0.048899744
155	0xbdce58a5	-0.10075501
156	0xbcf3bbf1	-0.029752703
157	0x3d2abaca	0.041682042
158	0xbd8d2cf2	-0.06893338
159	0xbd757bdb	-0.05993257
160	0x3d1bc12d	0.038026024
161	0x3d63851f	0.055546876
162	0x3b603398	0.003421044
163	0x3e2cf3c9	0.16889872
164	0xbe054d7a	-0.13017836
165	0x3bcd86f4	0.006272191
166	0xbd7a6dd8	-0.06113991
167	0xbd8bd9fe	-0.06828688
168	0xbda14803	-0.07875063
169	0x3cf33a1d	0.029690797
170	0xbdc93b06	-0.09825711
171	0xbe1cc545	-0.15309627
172	0xbe4c6ae6	-0.19962654
173	0x3ce41ef6	0.027846795
174	0xbd831e6d	-0.06402288
175	0xbd72891a	-0.05921278
176	0x3dbce2c5	0.0922294
177	0xbe25592a	-0.16147295
178	0xbd2ab69f	-0.041678067
179	0xbdd7f0d1	-0.10543979
180	0xbd9b0801	-0.07569886
181	0x3c608a27	0.013704813
182	0xbd869b99	-0.06572647
183	0xbce168bd	-0.027515763
184	0x3dc61a91	0.09673036
185	0xbdc6f4c2	-0.097146526
186	0xbbc75feb	-0.0060844324
187	0xbde3e8f7	-0.11128419
188	0x3c21adb2	0.009868072
189	0x3d9430a9	0.07235844
190	0xbd642a3c	-0.05570434
191	0xbdd7a705	-0.10529903
192	0xbc8aaf6e	-0.016929355
193	0x3d91d3f3	0.07120504
194	0x3ab31917	0.0013664094
195	0xbe2b87f2	-0.16751078
196	0xbd56b72c	-0.05242078
197	0x3bd3bb3f	0.0064615305
198	0xbdb3f0d2	-0.08786167
199	0x3d8dc974	0.0692319
200	0xbbd14e68	-0.0063875206
201	0xbe00a8bd	-0.12564369
202	0xbdf97193	-0.12179866
203	0xbcb0ff1c	-0.02160602
204	0x3d80ca8e	0.06288634
205	0xbcecfc0e	-0.028928783
206	0x3da30609	0.079601355
207	0xbd5fa718	-0.054602712
208	0x3dcbd2f5	0.09952346
209	0x3de6badf	0.112661116
210	0xbe1d0a31	-0.15335919
211	0xbdf2ba41	-0.11851931
212	0xbc7f1cda	-0.015570844
213	0xbe4235f3	-0.18965892
214	0xbddefef0	-0.10888469
215	0x3e00beb5	0.12572749
216	0xbd880d26	-0.06643133
217	0xbdc033be	-0.09384869
218	0xbd2cbe22	-0.042173512
219	0xbd950121	-0.07275606
220	0xbe0e57cf	-0.13900684
221	0xbd3eb0ba	-0.04655526
222	0xbd41f277	-0.047350373
223	0xbe025f2d	-0.12731619
224	0x3c8199dd	0.015820438
225	0x3b665619	0.0035146533
226	0xbdd10f43	-0.10207989
227	0xbda0f662	-0.07859494
228	0xbdf1389a	-0.11778374
229	0xbd663ec2	-0.056212194
230	0xbcd7681b	-0.026294759
231	0xbdaf3306	-0.08554654
232	0x3d24bcf2	0.040219255
233	0xbd8a6a64	-0.06758574
234	0x3c815198	0.015785977
235	0x3d0ec10d	0.034852076
236	0xbe24f7a7	-0.16110097
237	0xbe2fabba	-0.17155352
238	0xbc712341	-0.014717878
239	0xbd92067a	-0.071301416
240	0x3c9b6253	0.018967783
241	0xbdcbb959	-0.09947462
242	0xbd861e9b	-0.06548806
243	0xbde64ff3	-0.11245718
244	0xbdad2eb6	-0.08456175
245	0xbe5c88e9	-0.21536602
246	0xbd832283	-0.06403067
247	0xbe0de620	-0.13857317
248	0xbd9f14af	-0.07767617
249	0xbe5c06ff	-0.21487044
250	0xbddf5d18	-0.10906428
251	0xbdd5f678	-0.10447401
252	0x3db645d4	0.089000374
253	0xbe5e1c15	-0.216904
254	0x3e306a04	0.17227942
255	0xbd8db6a6	-0.06919603

fc2.bias f4 [128]
0	0xbe25be47	-0.16185866
1	0xbec9a8cf	-0.39386603
2	0xbdccd7bb	-0.10002085
3	0x3cb976de	0.022639688
4	0xbdb558b9	-0.08854813
5	0xbdada513	-0.08478751
6	0xbdf54825	-0.11976651
7	0xbd5d0f65	-0.05396976
8	0xbc810e8b	-0.015754005
9	0xbdd84982	-0.105608955
10	0x3d809a93	0.06279483
11	0x3e8a9f78	0.2707479
12	0xbe1e697c	-0.15469927
13	0xbe180628	-0.14846098
14	0xbd59157d	-0.05299901
15	0x3cc6a3ac	0.024247967
16	0xbe44e368	-0.19227374
17	0xbe5ce094	-0.21570045
18	0xbdadd509	-0.08487899
19	0x3d8ba218	0.06818026
20	0xbe77c8e3	-0.24197726
21	0xbddb6597	-0.10712736
22	0xbe3fb330	-0.18720698
23	0xbd671b44	-0.056422487
24	0xbd69a28b	-0.05703978
25	0xbe723bfb	-0.23655693
26	0xbdba2c08	-0.090904295
27	0xbde9057f	-0.113780014
28	0xbdbb74c2	-0.09153129
29	0xbdd44d15	-0.10366265
30	0xbdb340da	-0.08752604
31	0xbd4cfb6d	-0.050044466
32	0xbdd0fd1f	-0.10204529
33	0xbd570dbc	-0.052503332
34	0xbdbdda5c	-0.09270164
35	0xbe502e03	-0.20330052
36	0xbd472d59	-0.04862723
37	0xbe355969	-0.17709889
38	0xbd2d9eb4	-0.04238768
39	0xbe130d6a	-0.14360586
40	0xbe539d4d	-0.20665474
41	0xbe16bdb5	-0.14720805
42	0xbe02e46f	-0.12782453
43	0xbdf9bd75	-0.12194339
44	0xbe1c6c64	-0.15275723
45	0xbe51e315	-0.20496781
46	0xbdbc4250	-0.091923356
47	0x3cfd8300	0.030946255
48	0xbe8efcfc	-0.27927387
49	0xbe42c796	-0.19021448
50	0xbe0bc6a2	-0.13649991
51	0xbe0136d0	-0.12618566
52	0xbdd3917a	-0.10330482
53	0x3cd68555	0.026186625
54	0xbdbfdfb1	-0.093688376
55	0xbe0d44ef	-0.13795827
56	0xbdd72895	-0.10505787
57	0xbe76e6c4	-0.24111468
58	0xbcbc2430	-0.022966474
59	0xbe207a4f	-0.15671657
60	0x3e524273	0.20533161
61	0xbe73b414	-0.23799163
62	0xbc509ddb	-0.012732948
63	0xbd5aef3f	-0.05345082
64	0xbe24fc57	-0.16111885
65	0x3eeef3c5	0.46670356
66	0xbe339c01	-0.1753998
67	0xbe1974ab	-0.14985912
68	0xbdfdf725	-0.12400655
69	0xbd7d0faf	-0.061782535
70	0x3e48379c	0.19552463
71	0x3d089d59	0.033353183
72	0xbd736648	-0.059423715
73	0xbe29ea2c	-0.16593236
74	0x3dc06658	0.093945205
75	0xbe14d462	-0.14534143
76	0xbde119b4	-0.109912306
77	0xbd879b6e	-0.06621443
78	0xbd385293	-0.045000624
79	0x3ceedac4	0.02915705
80	0x3ccb4e60	0.024817646
81	0xbc495c78	-0.012290113
82	0x3e2189c1	0.15775205
83	0xbd95a6bf	-0.07307195
84	0xbe1804f3	-0.14845638
85	0x3e10d089	0.1414205
86	0xbdcd59cf	-0.10026895
87	0xbdd8de13	-0.10589232
88	0x3bd7f403	0.0065903678
89	0x3c2f2269	0.010689356
90	0xbdc4d595	-0.0961105
91	0x3d87fadd	0.06639645
92	0xbe4c8f9f	-0.19976662
93	0xbe0d3ad6	-0.13791975
94	0x3d8cbedd	0.06872342
95	0xbb4777e3	-0.0030436448
96	0x3d581b65	0.0527605
97	0x3caf763b	0.021418681
98	0xbe155481	-0.14583017
99	0xbe2806dd	-0.16408868
100	0xbe12e592	-0.14345387
101	0xbd997f44	-0.07494977
102	0xbdca3340	-0.098730564
103	0xbd4bd768	-0.049765974
104	0x3c83de56	0.016097229
105	0xbb9d59d4	-0.004801968
106	0xbe2aac4d	-0.1666729
107	0xbd9f0bd2	-0.077659264
108	0xbea1d465	-0.31607357
109	0xbd905196	-0.07046811
110	0xbe57b38e	-0.21064588
111	0xbde794c4	-0.11307672
112	0xbdda538c	-0.106604666
113	0xbdccd257	-0.10001057
114	0xbe6c963b	-0.23104183
115	0xbe255c33	-0.16148452
116	0xbe3c1170	-0.18366027
117	0xbe16b017	-0.1471561
118	0xbd081462	-0.033222564
119	0xbdbb14af	-0.091348045
120	0xbd821242	-0.06351139
121	0xbe177980	-0.14792442
122	0xbe037c4d	-0.12840386
123	0x3cacfa39	0.02111541
124	0xbdb4fc51	-0.08837188
125	0xbd1020df	-0.0351876
126	0xbe8a0440	-0.26956367
127	0xbdce7de4	-0.100826055

fc3.weight f4 [1, 128]
0	0x3c3bae38	0.011455111
1	0x3bf5143c	0.0074792188
2	0xbc289ad7	-0.010290823
3	0xbb6f880d	-0.0036549598
4	0xbce30312	-0.027711425
5	0x3a9f5e71	0.0012158883
6	0x3d0c6909	0.034279857
7	0xbcff6725	-0.031177113
8	0x3cee79b4	0.029110767
9	0xbc88ad8b	-0.016684314
10	0x3c62065c	0.0137954615
11	0xbbf5df86	-0.0075034527
12	0xbc0ee9ce	-0.008722736
13	0xbcd9aeb1	-0.026572557
14	0x3c1a79dc	0.009428468
15	0x3c78b688	0.015180238
16	0xbc6dff43	-0.014526191
17	0x3c2ff1a4	0.010738764
18	0x3cbdd7c1	0.023174169
19	0xbc1cd1b0	-0.009571478
20	0xbc31d111	-0.010853068
21	0x3c69f439	0.014279419
22	0xbccefca1	-0.025266947
23	0xbb20184a	-0.002442854
24	0xbb971518	-0.004610669
25	0xba751d12	-0.000935034
26	0xbb9a59ca	-0.0047104107
27	0x3bfe442b	0.007759591
28	0x3c5e1c37	0.013556532
29	0xbd021971	-0.031762544
30	0x3c39f023	0.011348757
31	0x3cd4e80d	0.025989557
32	0x3b8171fc	0.0039503556
33	0xbc63f0b1	-0.013912366
34	0x3b07657b	0.0020659852
35	0xbca11517	-0.019663377
36	0xbcb7ec52	-0.022451553
37	0xbcd31031	-0.025764557
38	0x3c95886c	0.018253528
39	0xbcd5057e	-0.026003595
40	0xbb27af4a	-0.0025586658
41	0xbc668904	-0.014070753
42	0x3cdbd51d	0.026835019
43	0xbc80491e	-0.015659865
44	0xbab9beeb	-0.0014171278
45	0x3ca2c17e	0.019867655
46	0x3c39dffd	0.011344907
47	0x3cb8223a	0.022477258
48	0xbac0a68c	-0.0014698072
49	0xbc01b174	-0.007915843
50	0xbca4f1e4	-0.020134874
51	0x3c83d15e	0.016091045
52	0x3bd7a7d1	0.0065812846
53	0xbbfbc3a9	-0.0076832366
54	0x3ac9ae4f	0.0015387031
55	0x3bdd0587	0.0067450437
56	0xbb7463bd	-0.0037290894
57	0xbc4aef8d	-0.012386215
58	0xbbb2c09b	-0.0054550893
59	0xbc38a14f	-0.011268928
60	0xbbba10fa	-0.0056782933
61	0xbc87aa4a	-0.016560692
62	0x3cddbefa	0.027068604
63	0x3bb37854	0.0054769907
64	0xbc14aa83	-0.009073856
65	0x3c8a891f	0.016911088
66	0xba44bb65	-0.00075047306
67	0x3c13e570	0.00902687
68	0xbbfb6bf3	-0.0076727807
69	0xb9711532	-0.00022991447
70	0xbbbe1871	-0.0058012535
71	0x3c87e0bb	0.016586652
72	0xbbb68c99	-0.0055709598
73	0x3c4b43d5	0.012406309
74	0xbc75de9e	-0.015006689
75	0x3cc77619	0.024348306
76	0x3ce64b4a	0.028112072
77	0x3c98181d	0.018566186
78	0x3d0a55cf	0.03377324
79	0x3c6d8c49	0.014498779
80	0xbbe8807d	-0.007095395
81	0xbc66a763	-0.014077994
82	0xbc0a5e6b	-0.008445363
83	0x3c0f07c6	0.008729881
84	0xbca11aab	-0.019666037
85	0x3c6d5318	0.014485143
86	0xbc43cc32	-0.011950539
87	0x3ce9cd0d	0.028540159
88	0xbbd669b9	-0.006543365
89	0xbc860e48	-0.016364232
90	0xbc2fdff6	-0.010734549
91	0x3bd9eaf1	0.0066503217
92	0x3c0aa828	0.008462943
93	0xbc38d63f	-0.011281549
94	0xbbec81d4	-0.007217625
95	0xbc089373	-0.008335936
96	0x3cac4d1d	0.021032864
97	0x3d35e3d5	0.04440673
98	0xbba166b2	-0.0049255723
99	0xba4a0aa0	-0.0007707272
100	0xbc515847	-0.012777395
101	0x3cc4464b	0.0239593
102	0xbb053c1a	-0.0020330013
103	0x3c1e0411	0.009644524
104	0x3cbc08b7	0.022953374
105	0xbb9f3572	-0.004858666
106	0x3c73c797	0.014879129
107	0xbb286199	-0.0025692938
108	0xbae3df3a	-0.0017385252
109	0xbc4f87d0	-0.012666658
110	0xbb13e1d6	-0.0022565029
111	0xbc9d81e1	-0.01922697
112	0x3b2f7ca9	0.0026777184
113	0xbc9fc599	-0.019503402
114	0xbc238ff2	-0.00998305
115	0x3c3c8b6e	0.011507852
116	0xbcf8d277	-0.030373795
117	0xbcd94f42	-0.02652705
118	0xbc04839b	-0.008088018
119	0xbcae96fe	-0.021312233
120	0xbc226006	-0.009910589
121	0x3bec3022	0.0072078863
122	0x3b9ffb0a	0.004882221
123	0xbaa1c6d6	-0.0012342583
124	0x3bcd8a26	0.006272572
125	0xbc30faff	-0.01080203
126	0x3c3732a1	0.011181504
127	0x3c6cf9a8	0.01446382
