p2_continuous-control/checkpoint_actor.pth (torch_old, 178966 bytes, 6 tensors)

fc1.weight f4 [264, 33]
000000 31 77 c0 3c 56 c0 88 3c 6c 74 41 3d 67 bc 24 be
       0.023494335 0.016693275 0.04723017 -0.16087495
000010 47 08 0c 3d fb 78 92 bd c2 f8 a5 bd 69 3a 7d 3d
       0.03418758 -0.071519814 -0.081040874 0.061823282
000020 95 15 0a 3e 9a 72 ae 3d 39 e5 02 bd f6 ba 0a 3d
       0.13484795 0.08517952 -0.031956885 0.033869706
000030 bd d1 9c 3d ef 27 20 be 10 eb 26 3e e3 93 25 3d
       0.07657192 -0.15640233 0.16300607 0.04042424
000040 ff ed 63 bc ff a6 80 3c 11 2d c9 bd 45 c6 ac 3d
       -0.013911723 0.01570463 -0.09823049 0.084362544
000050 c4 1a af 3d b1 cd 94 bd 2a 05 04 bc 7f 38 1a bd
       0.08550027 -0.07265795 -0.008057872 -0.037651535
000060 fa 3f d9 3c 0c 06 19 3d 39 cd 4e 3e eb 8e 9d bd
       0.026519764 0.037359282 0.20195474 -0.07693275
000070 ab fd 48 3d 50 58 f5 bc f3 8d 89 3d 3c 79 9b bc
       0.04907004 -0.029949337 0.06716528 -0.018978707
000080 cd 6b 0a 3f 8c a2 b9 bd 5d c6 89 bc 3a 1f c5 bd
       0.5407074 -0.090642065 -0.01681822 -0.096250966
000090 0c b6 98 bd 11 26 f5 3b b4 c2 2d bc 62 97 b6 bd
       -0.07456598 0.0074813445 -0.010605503 -0.08915593
0000a0 86 d5 22 3e 48 99 d5 bd 3b 4a 27 be 63 71 3b be
       0.15901765 -0.10429627 -0.1633691 -0.18304972
0000b0 bf 12 4c bd d7 7b 60 3d 65 ef 6b be 32 60 56 bd
       -0.049822565 0.054805603 -0.2304054 -0.052337833
0000c0 c9 ad 09 bc 40 8e 12 3d 74 22 eb bc e7 09 c6 3b
       -0.00840325 0.03578019 -0.028702952 0.006043661
0000d0 3b 4f 1a 3d f0 0e f9 bd 0c f2 36 3c 12 0a 66 3d
       0.037673216 -0.12161052 0.011166107 0.056161948
0000e0 50 ad 47 be 61 cb ac bd fd d4 85 3d 01 b6 9f 3d
       -0.19499707 -0.08437229 0.06534765 0.07798386
0000f0 de 25 0b 3e b1 d5 71 3d a8 3e 87 3c 75 4e 41 bd
       0.13588664 0.059041683 0.016509369 -0.047193963
000100 80 c0 e9 3b 91 43 ca be 02 f7 b6 bd c7 02 3d bd
       0.0071335435 -0.39504674 -0.08933832 -0.046145227
000110 cf 82 e5 bb c6 69 85 3d a6 06 d0 bd e1 40 a9 3d
       -0.007004119 0.06514315 -0.10157518 0.08264328
000120 30 cb c0 bc 55 d2 b9 3b 83 39 85 bd 85 5b d2 bd
       -0.023534387 0.0056708255 -0.0650511 -0.10271362
000130 4e 1f 2e bd 40 e1 7a 3d 91 34 18 3d 2d a2 a6 bd
       -0.042510323 0.06124997 0.037159506 -0.08136401
000140 04 34 b7 bd 68 88 19 3e 92 c1 4f 3d c0 18 d4 bc
       -0.08945468 0.14993441 0.050721712 -0.025890708
000150 ee 16 bb 3c 78 5e 9e 3c b7 34 1c 3e 23 0a 51 bd
       0.022838082 0.019332156 0.15254484 -0.051035058
000160 1d 88 0d 3c ab fe e7 3d c4 85 0b 3d 91 bf f1 3a
       0.008638409 0.11327871 0.034063116 0.0018443932
000170 57 df 36 3c a5 b2 76 3d 65 23 0c 3d ba 33 87 bc
       0.011161647 0.060228962 0.034213442 -0.016504157
000180 8c ce 8b bd a1 0a 49 bd ca d2 bf be ad cc b7 3d
       -0.06826505 -0.049082402 -0.37465507 0.08974586
000190 b0 26 83 bd 17 35 13 3e 3d 5e c3 3c 5d d9 b1 3d
       -0.064038634 0.14375721 0.023848647 0.08684037
0001a0 3c fe c6 bc f3 e2 26 bb e1 0d 1a bd 63 17 39 3d
       -0.02429115 -0.0025464862 -0.037610892 0.04518832
0001b0 10 cb f6 bd 80 16 f2 3c 61 a1 80 3d f2 c2 0c bd
       -0.1205045 0.029551744 0.062807806 -0.0343656
0001c0 16 6e 09 be 8f 36 a0 3d 8b a1 4c 3d 16 2d 43 3d
       -0.134209 0.07822906 0.049958747 0.04765042
0001d0 48 27 d9 3d c1 13 02 be 01 aa 83 3c 5b e9 72 bc
       0.106031954 -0.12702848 0.016072275 -0.014826144
0001e0 11 ce 3d 3e 96 1a 95 3d e0 65 25 be 47 b1 1d 3e
       0.1853564 0.072804615 -0.16152143 0.15399657
0001f0 33 71 bd 3d fc 40 16 3d 98 8d de ba 2a 97 3a 3e
       0.09250107 0.036683068 -0.0016979454 0.18221727
000200 fe f2 e9 bc 31 18 70 bc d8 eb 03 bc 40 dd aa 3d
       -0.02855825 -0.014654205 -0.008051835 0.08342981
000210 22 90 04 be e8 25 bb bd 8c 81 15 bd 96 bd 85 3d
       -0.12945607 -0.091380894 -0.0365005 0.06530301
000220 c7 7c 65 3d 35 d8 0f be 52 7b 0c 3e 03 5e 8e 3d
       0.0560272 -0.1404732 0.13718918 0.06951525
000230 cf 16 86 3c 2c 70 9a bc 4d 50 85 bd 17 d9 a3 3d
       0.016368298 -0.018852316 -0.06509457 0.08000391
000240 0b 35 b9 bd 52 eb 2d 3d bb 2a ba 3d 5f 2f bb bd
       -0.0904332 0.042460747 0.090901814 -0.09139895
000250 60 00 8c bb 0b 6e be 3d c6 45 d8 bc 3b da dc ba
       -0.0042725056 0.09298333 -0.026400458 -0.0016849706
000260 89 05 9f bd a5 11 da bc 5f e9 e9 3d 84 31 25 be
       -0.077647276 -0.026619742 0.11421465 -0.1613217
000270 b0 23 8c 3d a7 4d d6 bd 7f fe a5 bd 0a c5 17 be
       0.06842744 -0.1046403 -0.08105182 -0.14821258
000280 26 e8 9b bd f8 1d ef bc 7e 63 9c 3d bc 1c 1e bd
       -0.07612638 -0.029189095 0.07636164 -0.038601622
000290 25 33 7c 3e 42 bd 11 bd 9f 9c 03 be 59 e0 80 bd
       0.24628885 -0.03558088 -0.12852715 -0.06292791
0002a0 b7 a2 95 3c d2 77 bc 3d 7f 15 2d be 6d 1d 24 3d
       0.018266065 0.092025414 -0.16902731 0.040067125
0002b0 c0 d9 ab 3c 73 77 49 3d 57 d9 50 bb 39 0c 1f ba
       0.020977855 0.04918618 -0.0031867826 -0.000606719
0002c0 34 4e 08 bd 05 c6 8e bd 8f 42 19 bc e2 d2 f1 bd
       -0.033277705 -0.06971363 -0.009354248 -0.11807801
0002d0 5e f3 a9 3d 31 42 bf bd 9c 76 91 3c 3b 64 64 3b
       0.08298372 -0.09338797 0.017756753 0.003484978
0002e0 3d 14 83 3b dc 45 15 3d 2e de fc 3c 0e b1 57 3d
       0.0040002153 0.036443576 0.030867662 0.052659087
0002f0 d9 1e 1d bc d0 8a 1a bd 66 c8 9e 3d be c7 17 3e
       -0.009589874 -0.03773004 0.07753067 0.1482229
000300 58 2c 6d be be d5 40 bd 72 90 04 3d a8 6c 0d 3e
       -0.23161447 -0.04707884 0.032364316 0.1381098
000310 b0 fb 97 3c fe 13 45 3d 57 90 38 3d 22 6a 23 38
       0.018552631 0.04811477 0.04505953 3.8961072e-05
000320 25 7d 59 3e 28 59 be 3d 36 18 6e bd 9d ac 24 bd
       0.21239145 0.09294349 -0.058128558 -0.04020368
000330 51 7a ec 3d 87 21 0b 3c bf 6b d5 bd 79 22 28 bd
       0.115467675 0.00849188 -0.104209416 -0.0410485
000340 66 86 5e bd 86 06 d0 3c 32 e2 be 3d 1c 7e ad 3c
       -0.05432739 0.025393736 0.09320487 0.021178298
000350 d1 e1 86 3b cb e1 86 3d 9e 8e 6e bc a9 73 7a 3d
       0.004116275 0.06586035 -0.01456037 0.06114546
000360 95 6d c9 bd f6 65 64 bc 8e 3f c3 bd ee ce 3d 3e
       -0.09835354 -0.013940325 -0.095336065 0.18535969
000370 d0 84 e7 3c 08 72 99 3d 04 dc 24 bb f9 53 2a bd
       0.028261572 0.07492453 -0.0025155554 -0.04158399
000380 73 ed c8 bd 4a b0 b2 bc 91 98 f5 bb 58 f2 05 3c
       -0.09810915 -0.021812577 -0.007494994 0.008175455
000390 42 f3 b0 3d 64 06 17 bc 5d 22 34 bf e3 9d 65 3d
       0.08640148 -0.009217832 -0.70364934 0.056058776
0003a0 1e 12 c5 3b 14 e9 69 3b 99 df 8e 3d 6e 01 ed bc
       0.0060141226 0.0035691904 0.069762416 -0.028931346
0003b0 89 03 09 3b 1a 9a fd 3c 56 59 82 3d 79 a9 2c 3d
       0.0020906648 0.03095727 0.06364696 0.04215381
0003c0 81 cc 0b 3d ba 17 07 bc 38 c3 12 bb f7 ac 09 3d
       0.034130577 -0.008245403 -0.0022394191 0.033612218
0003d0 e2 f9 72 ba fa b0 98 bd 45 5a 87 bd 02 4c b9 bd
       -0.0009268803 -0.074556306 -0.066090144 -0.090477005
0003e0 af 38 c1 3c 6c 3c 38 3d d8 b9 99 bd 6f 77 63 bb
       0.0235866 0.044979498 -0.0750615 -0.003470864
0003f0 5a 62 38 bd 71 58 82 3d 37 b6 08 be 6f b8 eb 3b
       -0.04501567 0.06364525 -0.1335076 0.007193617

fc1.bias f4 [264]
000000 ed 8a cf 3d 15 d1 8c be ae 6f 07 3e 0d 53 f9 3d
       0.1013392 -0.27503267 0.13226196 0.12174044
000010 f1 e6 8a 3e 19 a8 c9 3d a9 2f 85 bd b3 68 6a 3e
       0.2712932 0.09846515 -0.06503231 0.22891502
000020 d1 f2 54 3e 27 7c b1 bd e6 6d 7c bd 82 a4 75 bc
       0.20795752 -0.08666258 -0.061628245 -0.014992835
000030 84 ce 6c 3e e1 cf 89 bd d1 02 87 be de b2 50 bd
       0.23125654 -0.06729103 -0.26369336 -0.05095183
000040 65 19 d4 bd b4 cb 1b 3e 08 e6 12 be 90 8e 72 3e
       -0.10356406 0.15214425 -0.14345562 0.23687196
000050 cb 97 27 3e a7 93 18 3d 9e a4 3f 3d 2c eb d2 3d
       0.16366498 0.037250187 0.04678785 0.10298762
000060 5d d4 56 be 3f ac 1a be 38 09 30 3e 81 b2 d3 3d
       -0.20979448 -0.15104769 0.17191017 0.10336781
000070 60 7b be bc ca 9b 79 3b b0 1e 2b be a9 61 1c be
       -0.02325219 0.0038087242 -0.16710925 -0.1527163
000080 cb 9b ac 3c 88 c7 4b bd 3f f5 34 3e 6c 2e ef 3d
       0.021070382 -0.049750835 0.17671679 0.11678776
000090 d3 15 0c bd 2f 20 13 bd 35 80 08 3e 75 e7 e5 3c
       -0.0342005 -0.035919365 0.13330157 0.028064469
0000a0 5b a9 02 3e ac f2 ee bc 1a 5a 53 be 25 3a fe 3c
       0.12759916 -0.02916845 -0.2063984 0.031033585
0000b0 9a 81 8b 3d f8 31 ba bc d8 9d 80 3d 76 d6 53 3e
       0.06811829 -0.022728905 0.06280106 0.20687279
0000c0 32 18 43 3e 7f 51 55 bd df fd 63 3e 42 0e af bd
       0.19052199 -0.052079674 0.22264813 -0.08547641
0000d0 5e 3b 40 3d 83 cd 62 3e e2 9b 3f be bc 8b 61 3e
       0.046931617 0.22148709 -0.18711808 0.2202596
0000e0 0f 81 a4 3d 7d 84 eb bd 30 88 5d 3e a3 04 18 be
       0.080324285 -0.114998795 0.21633983 -0.14845519
0000f0 31 44 b1 bd 39 cf c8 3c 21 8e 15 3e 4a 99 0c be
       -0.086555846 0.024512874 0.14604999 -0.1373035
000100 f9 8d 20 3e 10 bb 08 be c1 ea 35 3e dd c7 a4 bd
       0.15679158 -0.13352609 0.17765333 -0.080459334
000110 cc 35 10 3e 9e 9a e4 bc 58 59 21 be ea 76 a6 b9
       0.14083022 -0.027905758 -0.15756738 -0.00031750585
000120 48 75 9f bd 43 dd d8 3d ff 27 bd 3b da 96 c8 bd
       -0.077860415 0.10589077 0.00577259 -0.09794398
000130 db 73 16 be ba 03 00 3d 0f 58 69 bd f6 73 e7 bd
       -0.14692633 0.031253554 -0.056968745 -0.11301415
000140 31 c2 0f 3e 77 2d f1 bd 31 4f 9c bc e9 1a 10 3e
       0.14038922 -0.1177625 -0.01908073 0.14072765
000150 ee f1 23 bd 65 90 09 be d8 a7 02 be 57 4b c0 3d
       -0.040025644 -0.13433988 -0.1275934 0.0938937
000160 52 9b 96 3e ef f0 8b bd a9 3a 94 bd 2f 4b 39 3e
       0.29415375 -0.06833064 -0.07237751 0.18095087
000170 85 0f 0c 3e c5 78 a5 3d 80 b3 e9 3d 62 0e 6f bd
       0.13677795 0.080796756 0.1141119 -0.058363326
000180 5b 63 82 3d e3 2c 44 3e bf 60 08 bd 94 2b 85 bc
       0.06366607 0.19157748 -0.03329539 -0.016256131
000190 9e 09 52 3c e0 5f 29 3e 30 72 fb bd 2b 95 30 bb
       0.012819676 0.1654048 -0.12277639 -0.002694438
0001a0 97 c8 3c be bc 0e 2c 3e e0 c4 48 3c fb 5d 33 be
       -0.18435894 0.16802496 0.01225397 -0.1751632
0001b0 8c 40 24 be f6 7a b3 3d e0 93 5f 3e 32 09 3f 3e
       -0.16040248 0.08763687 0.21833754 0.18655851
0001c0 0e 83 4d 3e 5f 80 ce bd 87 0c 80 3e 95 2e 49 3e
       0.20069525 -0.100830786 0.25009558 0.19646676
0001d0 03 bc 2b 3d 75 2c 61 bd 87 0b b0 bd c7 e5 24 be
       0.04192735 -0.05497404 -0.08595949 -0.16103278
0001e0 85 91 c4 3d 52 4c 8f 3e bf b5 29 3e b7 52 b5 3c
       0.09598068 0.27987915 0.16573237 0.022134168
0001f0 2d b6 73 bd 05 e5 5f 3d 2a 44 12 be eb 6d cf 3d
       -0.05949991 0.05466177 -0.14283815 0.10128387
000200 e1 f1 30 3c 72 e9 95 bd ca 02 21 3d 31 d5 a5 3d
       0.010799856 -0.07319917 0.0393093 0.08097304
000210 24 d1 87 3e b6 b2 32 bd 16 4e 08 3e 0a 10 17 3e
       0.2652675 -0.043627463 0.13311037 0.14752212
000220 59 96 84 be 58 1d 48 3d d6 d8 7b bd 67 5c 27 3e
       -0.25895956 0.04885611 -0.061486088 0.16343842
000230 a4 fd 03 3e ea bc f7 bb a5 e6 3f be 66 af a0 3d
       0.12889725 -0.007560362 -0.18740328 0.078459546
000240 22 e4 00 3e d2 d0 3e bd ec 8e 67 bd 80 85 86 3e
       0.12587026 -0.046585865 -0.056532785 0.26273727
000250 51 e8 33 3e fa 43 db 3b c3 c8 95 3e 7a 4f c5 bd
       0.1756909 0.006691453 0.29254732 -0.096342996
000260 58 b1 9e ba ff b6 34 bd c4 10 f9 3d ad 11 85 bd
       -0.0012107296 -0.04411983 0.12161401 -0.06497512
000270 01 93 2e bd b8 d5 03 3e 35 d6 0f 3e 34 dc 3b be
       -0.042620663 0.12874496 0.14046557 -0.1834572
000280 96 00 5e bd f4 e8 18 3a 36 88 9c 3d 3b d6 34 3e
       -0.054199778 0.00058330526 0.07643168 0.17659847
000290 ca 79 25 3e ba 56 ca 3d 98 37 3c 3d 9f 6c 95 bd
       0.1615974 0.09879823 0.045951456 -0.072961085
0002a0 5d 2a 8e bd 84 7b 15 3e 36 f8 91 3c 42 b2 0b 3e
       -0.06941674 0.14597899 0.017818552 0.13642219
0002b0 7f 5b 0b 3e d0 48 41 3e bc db 37 be 4d cc 87 bd
       0.13609122 0.18875432 -0.17954916 -0.06630764
0002c0 e5 94 08 bd 9f b7 f6 bd eb dc 14 bd 2c 1a a2 3d
       -0.033345122 -0.12046742 -0.036343496 0.07915148
0002d0 70 75 56 3e 31 9b ad bc 14 38 0b 3e e2 77 70 bd
       0.20943236 -0.021192165 0.13595611 -0.05870808
0002e0 5d 67 83 bc 17 69 c9 3c 3f c1 ac be 24 73 48 be
       -0.016040498 0.024586244 -0.33741185 -0.19575173
0002f0 ce b4 68 3d f9 93 f4 3c ec 2c 24 3d cd 2c d7 bc
       0.056813054 0.029855715 0.040081903 -0.02626648
000300 b2 9d 4c be 71 ce 0d be 75 63 3c 3e 45 e5 32 3d
       -0.19982031 -0.13848282 0.18397315 0.04367568
000310 fc 43 81 be 34 f9 1d be 6e 4b 08 be aa 73 4d 3e
       -0.2524718 -0.15427095 -0.13310024 0.20063654
000320 86 ed 18 3e 8f d4 3c bc 81 aa 12 3e c0 44 fc 3d
       0.14934358 -0.011525287 0.14322855 0.123178005
000330 28 74 0d 3e cc 9d 13 be c9 00 7e 3e d1 02 a6 bd
       0.13813841 -0.14415663 0.24804987 -0.08106006
000340 cd 15 70 3d a5 3e e0 3d 13 2d 8a 3c b9 90 9a bd
       0.05861454 0.109494485 0.016867196 -0.07547135
000350 24 76 8b bd c3 2a 4b be 05 98 69 3d 31 03 0b 3e
       -0.06809643 -0.19840531 0.057029743 0.13575436
000360 ea 35 a4 3d 42 02 ec 3d ad af f3 3d 78 7f ff bd
       0.08018096 0.11523868 0.11898742 -0.124754846
000370 f1 bb f3 bd 64 81 08 be c9 e1 59 3e 9e c8 71 bd
       -0.11901081 -0.13330609 0.21277536 -0.059029214
000380 ef 4a 6f 3d 5c 52 bb bc 70 04 95 bd 50 94 16 be
       0.05842107 -0.02286642 -0.07276237 -0.14705014
000390 58 96 86 3e 55 85 57 be 85 a5 4b be dd 53 a9 3c
       0.26286578 -0.21046956 -0.1988736 0.020669872
0003a0 a2 d5 14 bc b6 31 b6 bd 71 f5 1f 3c 6f e4 09 3e
       -0.009084137 -0.088962 0.009763108 0.13466047
0003b0 20 21 89 3d a3 d2 9a 3c 0e 76 16 3e 94 95 01 bd
       0.06695771 0.018899268 0.14693472 -0.03163679
0003c0 10 64 68 bd f4 1b bf bd 9d aa 39 3e c9 d2 0e be
       -0.056736052 -0.093315035 0.1813149 -0.13947596
0003d0 2f 23 4b 3e 55 34 9e bd fe 79 b4 bd c7 85 b9 bd
       0.1983764 -0.07724825 -0.08812331 -0.09058719
0003e0 e0 a5 89 3d 88 bb 7c bd b6 c5 4c 3e 1e 95 1b be
       0.06721091 -0.06170228 0.19997296 -0.15193602
0003f0 04 13 fd 3c e6 a2 91 3e 1d 98 48 3e 6c fd 42 3e
       0.030892856 0.28444594 0.19589277 0.19041985

fc2.weight f4 [132, 264]
000000 1a 1a 26 be 54 78 66 3d 43 52 49 3c e6 ff 04 be
       -0.16220894 0.056267098 0.012287679 -0.12988243
000010 c1 97 f7 3d b6 74 1d bd 11 43 20 be be 46 39 bd
       0.12089492 -0.038441382 -0.15650584 -0.04523348
000020 3d f6 41 3d 1c e6 01 3c cc d3 a9 bc 52 db ac 3d
       0.04735397 0.0079283975 -0.020730875 0.084402695
000030 8f 89 89 bc 49 78 80 bd 85 aa 21 3d fc dd 85 bd
       -0.016789226 -0.062729426 0.03946926 -0.06536481
000040 bc a3 f3 bd b8 59 00 3c 97 d4 9c 3d e0 3e 95 3a
       -0.11896464 0.007833891 0.07657736 0.0011386536
000050 4a 41 73 bd 17 09 b0 3d 49 c0 6e 3d 6f 23 81 3d
       -0.059388436 0.08595484 0.058288846 0.063055865
000060 19 ce e7 3d a5 3a d6 bd 48 5f b8 bd 9d 7e 15 3d
       0.11318607 -0.10460404 -0.090025485 0.0364977
000070 d8 98 9d 3c ba 6f 52 3e 98 fd a3 3d 72 e2 01 3c
       0.01923792 0.20550433 0.080073535 0.007927524
000080 ba 2a b9 3c 53 6f d8 3d 23 6c 03 bd 91 c5 80 3a
       0.022603381 0.105681084 -0.03208555 0.0009824504
000090 aa 05 ac bd 2a b9 96 3a 4f d1 02 bd 5f a4 ac bb
       -0.08399518 0.0011499275 -0.031937893 -0.005268618
0000a0 c3 57 0f 3d 15 02 43 3d d8 42 d9 3d d0 31 21 3d
       0.034995805 0.047609407 0.106084526 0.039354146
0000b0 b3 e2 b5 3d f7 1d 87 bd e2 23 76 3d 8a a9 03 3e
       0.0888113 -0.06597512 0.060092814 0.12857643
0000c0 9b c2 ff bd c3 ed 06 3e db 5b 16 bd 6b ae ae bd
       -0.1248829 0.13176636 -0.036708694 -0.08529361
0000d0 de 16 55 3d c6 d3 23 be ed 0b 24 3d 39 9c bb 3d
       0.05202376 -0.15998754 0.040050436 0.091606565
0000e0 bc d5 57 3d 52 38 b4 bd 9d bb 86 bd af c6 a4 3d
       0.052694067 -0.08799805 -0.06578753 0.080457084
0000f0 cb 84 6d 3d 97 78 62 3e 6a 7c d3 3d c3 ea c8 3b
       0.05798797 0.22116314 0.103264645 0.0061315014
000100 06 b8 83 3d 3b a0 db bd 56 28 cb bd 11 83 56 bd
       0.06431584 -0.10723921 -0.09919803 -0.05237109
000110 c1 6d 0c 3e 51 fa 63 bd 7c 3d fd bd bf 3e 51 3c
       0.13713743 -0.055658642 -0.12365243 0.0127713075
000120 31 d0 08 3e 0d 42 05 3c c3 ad d9 bb 44 93 8c bc
       0.13360669 0.0081334235 -0.0066430285 -0.017160065
000130 67 ef a6 3d 91 de c9 3d f4 4c 1b 3d 0e ba 22 3d
       0.08151131 0.09856904 0.037915185 0.039728217
000140 5a 6c 4e bc 6b 6a ef bd 40 92 fe 3c c6 0f 1d 3d
       -0.012599075 -0.116902195 0.031075597 0.03834512
000150 cb 51 e9 3d 9e e6 c2 3d 7d 80 52 3c 1e a3 15 be
       0.11392554 0.09516643 0.012848017 -0.14613006
000160 49 d8 b7 3d 58 b6 7b bc 63 92 0f 3d 42 82 5e 3e
       0.089768 -0.015363298 0.035051715 0.21729377
000170 45 71 6b bd 09 c7 c7 3d 1c d1 59 3e 34 dd ea 3c
       -0.05748107 0.0975476 0.21271175 0.028669931
000180 03 83 f5 3d 98 13 92 bc ba f0 ba 3d 74 1e 50 bd
       0.11987879 -0.017831609 0.09127946 -0.050810292
000190 16 9a 09 be 45 2e bc 3d e1 a0 54 3b b9 c9 b6 bd
       -0.13437685 0.09188513 0.0032444524 -0.08925194
0001a0 7a 03 53 3d 04 81 1a 3e f5 86 99 3d 21 e3 54 3c
       0.051516987 0.15088278 0.07496444 0.012993605
0001b0 66 50 1b be 00 d0 0d 3d 34 a2 9a bd 6d 2b c7 3d
       -0.15167388 0.034622192 -0.07550469 0.0972508
0001c0 36 74 bf 3c c6 8e 27 3d 0f b2 6f bc 3e 2e cb 3d
       0.023370843 0.040907644 -0.014629855 0.09920929
0001d0 63 ce da bd e9 9e 36 3d cd 73 c9 bc 69 21 da bc
       -0.106838964 0.044585142 -0.02459135 -0.02662726
0001e0 62 9c ae bd e2 15 0e 3d a2 89 ab bb 8e f9 c3 bd
       -0.085259214 0.034688838 -0.005234913 -0.09569083
0001f0 7b e3 c6 3c 29 2e 13 bd a9 28 db 3b 33 a3 57 3e
       0.024278393 -0.035932694 0.0066881967 0.2105835
000200 45 e2 bc bd 2f 17 dd bd 68 6a 0c be 16 14 09 be
       -0.09222845 -0.107954375 -0.13712466 -0.13386568
000210 23 6f c7 3c 3e 0b e8 bd e9 5e 59 3e c9 c1 58 3d
       0.024344986 -0.11330269 0.21227612 0.052919183
000220 c5 53 1e 3d d9 96 cc 3d 3f 03 78 3e c3 ac da 3d
       0.038654108 0.099897094 0.24219988 0.10677483
000230 61 10 89 3c 28 49 e3 bd 05 29 a8 bd 2a 72 b1 3d
       0.016731443 -0.11097938 -0.08210949 0.08664353
000240 1c 6d ff bd bb bc d6 bb 52 b1 9d bd e5 f5 1e 3d
       -0.12471983 -0.00655326 -0.07699837 0.038808722
000250 de 78 2b 3c fe 35 c5 bd 76 bd c2 bd 89 70 a4 3c
       0.010465829 -0.09629439 -0.09508793 0.020073192
000260 41 87 10 3d d5 f6 f4 3a 57 d9 90 bd 2a ea d1 3d
       0.03528524 0.0018689284 -0.07072704 0.102497414
000270 59 28 91 bd 87 e2 c4 bd 8a a2 d4 3d a2 7d 67 3a
       -0.07087774 -0.09613519 0.10382564 0.00088306714
000280 48 56 bd bc 24 e2 ce 3b eb 75 ad bd c8 6d b5 bc
       -0.023112431 0.006313579 -0.08469757 -0.022147074
000290 f2 96 5c 3d d9 87 98 3d 98 3a 13 3c 74 7a d1 3d
       0.05385489 0.07447786 0.008986138 0.10228434
0002a0 ce 2f 0f 3e f6 ac b4 bd 24 48 f4 3c d5 ec 39 be
       0.1398308 -0.08822052 0.029819556 -0.1815675
0002b0 67 04 2f be 68 a3 90 bd 0b f5 2a 3e 79 d3 65 bd
       -0.17091523 -0.07062417 0.16695039 -0.05610988
0002c0 78 a4 f4 3c 3c f1 c1 3d ed e7 d5 bc 46 e3 bd 3d
       0.029863581 0.0946984 -0.026111567 0.092718646
0002d0 f8 9d 64 3d ab f1 36 3d ec c6 d0 bc d0 99 07 3e
       0.055814713 0.044664066 -0.025485478 0.13242269
0002e0 81 2d 5e 3c bd 70 df 3c d6 88 30 bd f3 e1 d9 bd
       0.013560654 0.027275437 -0.043099247 -0.106387995
0002f0 72 ee ca 3b af fb ce 3c fa 67 dd bc 3b a5 1f 3e
       0.0061929757 0.025266496 -0.027027119 0.15590374
000300 70 fa 64 3d c0 b6 04 3c 58 5e 37 3c 6b 15 01 3d
       0.0559029 0.008100212 0.011191927 0.031514566
000310 6b 0f e1 bd 82 55 a7 bd 9c 0a 47 be 29 06 2f 3d
       -0.10989269 -0.08170606 -0.19437641 0.042730484
000320 cc 82 61 bc ff cc d2 3d 41 15 2b 3c 64 48 bd 3c
       -0.013764095 0.10293006 0.010442079 0.023105808
000330 a2 24 a3 3c 1c 27 df 3c 09 9d 9e 3d 95 c8 e8 bd
       0.019914929 0.027240328 0.07744796 -0.11366383
000340 08 6c 78 bd 2f 51 4a 3c 04 2f 25 bd 71 42 dc bd
       -0.0606499 0.012348457 -0.04032804 -0.1075486
000350 62 bc a2 bd 53 df 10 bd 26 2e dc 3d e3 3f af 3c
       -0.079460874 -0.03536923 0.107509896 0.021392768
000360 8f 74 30 3e 29 88 b1 bd 76 98 d8 3d 9b dc c1 bd
       0.17231964 -0.086685486 0.105759546 -0.09465905
000370 de d0 37 3d 91 7d 21 3e fe 2c 1a bd 19 14 a8 3d
       0.044876926 0.15770556 -0.037640564 0.08206958
000380 4b dd b1 bc 3a 18 09 bd 23 cd f6 bd bc ea 42 3d
       -0.021711966 -0.03347037 -0.120508455 0.04758714
000390 4b 77 e4 3c f2 1c b2 3d c3 3b 19 bd ec 53 19 3e
       0.027888915 0.08696927 -0.03741051 0.1497342
0003a0 9d 92 8c bd 99 3a 30 bd 2f 1f 1b 3e c5 ca 7c 3d
       -0.06863902 -0.043024633 0.15148614 0.061716814
0003b0 21 35 4b bd 66 88 01 bc 26 64 e2 3d 88 a0 81 bd
       -0.049611215 -0.007906055 0.11054258 -0.06329447
0003c0 10 55 46 bc d5 eb 2d bc de df 85 3d b3 63 b1 3d
       -0.012105241 -0.010615309 0.0653684 0.08661594
0003d0 01 f4 1e 3d 0f a5 74 3d 44 95 4d be 7a 63 06 3d
       0.03880692 0.059727725 -0.20076472 0.032809712
0003e0 bb 9b e6 3d f4 ce 71 3c 4e 28 e8 bb 7f c4 09 3e
       0.11260172 0.014758814 -0.007084883 0.13453864
0003f0 e9 31 2b 3e e4 ea 52 3e 4e 23 5f 3d 7f 86 6f 3c
       0.16718258 0.20597416 0.05447703 0.014619469

fc2.bias f4 [132]
000000 79 6d 66 bc c5 a7 0d 3d 3c 50 34 3c 0f a3 22 bc
       -0.014064186 0.034583826 0.0110054575 -0.0099265715
000010 29 fd 0f bd 65 bd 42 3d 87 ac 90 bc 5c 25 c1 bc
       -0.03515354 0.047543902 -0.017660392 -0.023577385
000020 85 8b d6 bb ee 9c 58 bb e9 a4 a1 bd 69 68 8e ba
       -0.0065473937 -0.0033052522 -0.07892782 -0.0010864857
000030 77 73 5d 3c 14 0d 81 bd 80 ec 12 bc 0e 76 ce bc
       0.0135162985 -0.063013226 -0.008967519 -0.025202777
000040 2a 6d 3d 3d f6 23 74 3c 29 42 03 3d 54 8f b6 3c
       0.046246685 0.014901152 0.032045517 0.022285141
000050 b8 3f 4e 3c f9 cd 69 bc 41 cb 5f 3d f4 5d c9 bc
       0.012588434 -0.014270299 0.054637197 -0.024580933
000060 ab ae 83 3c 0b 3f 2c bc 18 f9 31 3d 10 ed 21 bc
       0.0160745 -0.0105130775 0.043450445 -0.00988318
000070 3e 58 67 3d 64 f7 46 bd e2 cd 30 3d 29 1d e3 bc
       0.05648064 -0.048575774 0.043165095 -0.027723866
000080 14 e1 d9 bc 2b 93 e7 3c 41 19 72 3d 65 7b cb ba
       -0.026596583 0.028268417 0.059106115 -0.0015524445
000090 b8 88 24 bc 34 da 02 bc 10 5f 18 3c 5f aa 8b bc
       -0.010042362 -0.007986594 0.009300008 -0.017049013
0000a0 06 40 82 bd 0d 1d 1c bc fc b3 e2 bc 47 2e 97 3c
       -0.06359868 -0.009528411 -0.027673714 0.018454684
0000b0 a4 cc 13 bb 56 76 42 3c 3b 8c 4b 3d 6a 07 52 bc
       -0.0022552395 0.011869034 0.04969428 -0.01281915
0000c0 b0 59 cd 3c 62 7d c6 bc 7a 08 9c 3d 29 24 3c 3d
       0.02506718 -0.024229709 0.07618804 0.045932923
0000d0 9a 4d a8 bc 56 9b 08 bc bd e7 9c 3c 84 fd 2f bd
       -0.020544816 -0.008337816 0.01915347 -0.04296638
0000e0 3e 4c c7 3b 65 c3 44 3d f3 bd 5c 3d 43 31 6b bd
       0.006082087 0.048037905 0.053892087 -0.057420027
0000f0 37 6c f9 3c 86 d0 1d 3d 1f 0d 45 bc ab 06 ae bc
       0.030447109 0.03852894 -0.012027054 -0.021243414
000100 b6 fc 4c 3d f8 ab d9 3c 60 33 79 3c 09 07 9a 3c
       0.05004569 0.026571259 0.015210003 0.018802183
000110 a5 fa 0a 3d 33 5c 1b bc ba 59 25 3c 3f ba ad 3c
       0.03393044 -0.009482431 0.010092193 0.021206973
000120 a9 e5 eb ba 60 8b 1d 3d f3 97 b9 bc 7f 48 39 3d
       -0.0017997521 0.038462996 -0.022655463 0.045235153
000130 45 9f 9a 3c 81 80 0b bd 77 51 94 3c 74 36 11 3d
       0.018874774 -0.034058098 0.018105252 0.03545232
000140 8f 9d 6a bd a8 fc 42 3d 22 d4 27 bc 4f 6b 28 bd
       -0.057279166 0.047604233 -0.0102434475 -0.041117962
000150 05 15 05 3d dc 36 7d 3b fa 4b a8 3d 4f f3 e5 3b
       0.03249075 0.0038637435 0.082176164 0.00701753
000160 cf c2 eb bb 8e 2d 4a 3d 67 24 52 3c 0e 07 5e bd
       -0.007194854 0.04935985 0.012826062 -0.054205947
000170 f7 96 3c 3c 85 15 56 3c 7c 00 16 3b 6b 43 61 3c
       0.011510602 0.013066654 0.0022888472 0.013748984
000180 41 ff 33 3d 9d 47 ff 3c 36 32 f3 3c 92 b5 75 bc
       0.0439446 0.031162078 0.029687028 -0.014996903
000190 c6 64 24 bb 51 b4 c6 3c 01 f2 50 bd 8b 5a 75 bd
       -0.002508448 0.024255903 -0.051012043 -0.0599008
0001a0 da e4 94 3c 72 78 1d bd 53 19 3e bc 71 61 b3 bc
       0.018175531 -0.038444944 -0.011602717 -0.02189705
0001b0 8d 8c 00 bd 68 c1 52 3b 49 4e 33 bd c1 51 e2 bc
       -0.03138404 0.0032158736 -0.04377583 -0.027626874
0001c0 8e 6d f9 bc 1f d0 ba bd 4d e5 0d bd 68 bb a6 bd
       -0.030447748 -0.09121727 -0.034642506 -0.08141214
0001d0 c3 88 b1 3c f8 03 67 bc 25 48 16 3b fe 54 e6 bc
       0.021671658 -0.014100067 0.0022931185 -0.0281167
0001e0 39 9d 67 3d 01 c6 16 3d 37 23 6c 3c 76 64 53 3d
       0.056546424 0.036809925 0.014412693 0.05160948
0001f0 5e 54 13 3d 57 b2 b9 3c f4 dd ad bd d3 c8 cd 3c
       0.03596913 0.022668047 -0.084896 0.025120175
000200 cc 4e 0d 3d 0c 84 fe 3a df cb 91 bc 3e 09 62 bc
       0.034498975 0.0019418015 -0.017797409 -0.013796149

fc3.weight f4 [4, 132]
000000 71 56 df bd 5f 3a f2 ba 67 91 17 bd a1 89 90 3d
       -0.10905159 -0.0018480531 -0.0370039 0.07057501
000010 ef 50 bd 3d 6e e5 f0 3c da f2 bb be 02 78 ea bd
       0.092439525 0.029406276 -0.3670872 -0.11448671
000020 3d 4d eb bd 3f b3 96 be ba c6 00 3e 7a de db 3c
       -0.114893414 -0.2943363 0.12575808 0.026839484
000030 d4 a8 ea 3d ca 3b cf bc 78 6f 09 bd f9 ae ef 3d
       0.11457983 -0.025297064 -0.03355357 0.11703295
000040 13 ab 0d 3d 1d 8e cc bd 66 7a 1e be be c3 ff bd
       0.034586977 -0.099880435 -0.15476379 -0.12488507
000050 47 a4 57 bc 23 a6 fe bd ae b2 69 3e e8 cd 36 be
       -0.013161725 -0.12434032 0.22822067 -0.17851985
000060 fc 76 c4 be 4e ea 5e be 1b 93 0f 3c 70 b1 78 be
       -0.38372028 -0.21769068 0.0087631 -0.24286437
000070 b5 76 18 3e 2a 98 90 3d 78 46 f2 3d fd 7a ae 3c
       0.14889033 0.07060273 0.11829847 0.02129888
000080 14 de e3 bd 46 bb 87 be b9 e3 d6 3c 73 ee 85 be
       -0.111263424 -0.26510066 0.026231633 -0.26158485
000090 6a 82 15 be 16 35 55 bc f7 e9 a8 bd ea 61 85 bd
       -0.1460053 -0.013013145 -0.0824775 -0.06512816
0000a0 bf 2b be bd 36 bc 81 3e 21 cd 24 3e 9e 54 cd 3d
       -0.09285688 0.25338906 0.16093875 0.10025905
0000b0 51 05 37 3e 9c b6 cf 3d 7d 4d 6f 3c dc dd 81 3d
       0.17873122 0.10142252 0.014605877 0.063411444
0000c0 7f ea e6 bd b1 d9 4b 3e 9d e6 8f be f8 0c 61 be
       -0.11275195 0.19907261 -0.2810563 -0.21977603
0000d0 e3 4f 48 3e b7 b8 75 be ab 7a 16 3d 8c e0 4c 3e
       0.19561724 -0.23996244 0.03673808 0.20007533
0000e0 fa 14 95 bd ff 9a b3 3d 0e 8b 92 3d 85 01 82 be
       -0.072793916 0.087697975 0.07155429 -0.25391784
0000f0 45 3b e9 bd c6 6e 8b 3d 71 f0 ee 3c 31 3c ad 3c
       -0.11388258 0.06808238 0.029167386 0.021146866
000100 8b 9d 34 3d 9f e3 f7 bc b0 9d 30 bc 84 0a 71 bd
       0.044095557 -0.030259905 -0.010779783 -0.05884792
000110 fe b5 89 3d 50 84 3b be 13 4b 48 bd c9 8e 02 bd
       0.067241654 -0.18312192 -0.04889972 -0.03187445
000120 21 30 2f 3e b8 48 8d 3c a3 f8 81 be a1 0c 04 be
       0.17108203 0.017246589 -0.25385007 -0.12895443
000130 f2 be 83 3e 53 28 7c 3e b9 51 bd 3d de a9 b7 be
       0.25731617 0.24624757 0.09244103 -0.35871786
000140 00 4f 25 3b c1 d6 ec bd 90 df 1a bd 60 89 e5 3e
       0.002522409 -0.115643986 -0.037810862 0.4483137
000150 70 cc 90 3e 65 b7 27 bd e5 72 9b 3d 55 89 a9 be
       0.28280973 -0.040946383 0.07590274 -0.3311259
000160 f0 e0 59 bd 2b 0c 4a 3d 8b 69 ea be cf c8 09 3f
       -0.053193033 0.04932801 -0.45783648 0.53822035
000170 28 ea 74 bd 01 9c 05 3f 6d 89 2c be 02 98 ac 3e
       -0.05979362 0.5219117 -0.16849299 0.33709723
000180 fe a0 58 3e e2 a0 21 3e 35 9f 14 3e f3 7e 8b be
       0.21155164 0.15784028 0.14513858 -0.27245292
000190 e8 c4 9a 3d 96 7e 0b be e2 10 c4 3d 69 e6 a6 3e
       0.07557088 -0.13622507 0.09573533 0.32597664
0001a0 b5 db 0e be 69 a6 be bd df 8d 7a be 36 20 eb bd
       -0.13950999 -0.09309084 -0.24468182 -0.11480753
0001b0 32 47 92 3e b3 d4 f0 3d 32 62 eb bd c1 f5 93 be
       0.28569943 0.11759319 -0.11493339 -0.28898433
0001c0 17 10 dc 3c bf 0f 7a bd 2b 5a a9 be 7c 5a fa 3c
       0.026863141 -0.061050173 -0.33076605 0.030560724
0001d0 de 67 d5 bd e5 49 45 3e 4b 1d 4f be 28 84 e3 bd
       -0.10420202 0.1926647 -0.20226018 -0.11109191
0001e0 a7 bf 82 bd 49 43 51 3d 6f 7a 18 bd b4 4e 01 be
       -0.06384211 0.05108956 -0.037226137 -0.12627679
0001f0 65 08 45 3e bc 79 bf 3d 78 c2 04 3f 7d 12 98 3d
       0.19241484 0.09349391 0.51859236 0.07425401
000200 f2 15 df be a3 e8 b8 be 94 38 51 bd aa 1f 92 3d
       -0.4357143 -0.36114988 -0.051079348 0.07134946
000210 60 57 27 bd 43 4b ae bb 24 1e ee bc 95 8e 07 bc
       -0.04085481 -0.0053190305 -0.029067107 -0.00827374
000220 b7 e0 2f 3e 52 75 4c 3d d5 7d f9 3d 43 05 05 3e
       0.17175566 0.049916573 0.12182204 0.12990288
000230 5b ae a8 3e 00 ef 89 be 6d b2 93 be 20 cb 91 bd
       0.32945523 -0.26940155 -0.28847066 -0.07118821
000240 02 f7 df bc f4 6c 55 3d 6d 13 a6 be 56 74 1f 3e
       -0.027339462 0.05210586 -0.32436696 0.15571722
000250 6e 4b c9 bd 8c 40 19 bd 73 78 1e be ca 34 a9 3d
       -0.0982884 -0.037415072 -0.15475635 0.08262022
000260 fc 9a d9 3d b0 17 1d 3e a7 8f 0d 3f 79 76 ee 3d
       0.10625264 0.15341067 0.5529732 0.116436906
000270 15 19 db 3d b1 17 03 3e b4 7f a4 be fb 27 85 be
       0.106981434 0.12802006 -0.3212868 -0.26007065
000280 42 1e ae 3e 61 75 51 be 6a 4a 9c bd ec 4a 4c bd
       0.3400746 -0.20454933 -0.07631381 -0.04987614
000290 04 4c ec 3c fb a9 60 3d 05 54 b2 bd 04 24 21 3e
       0.02884484 0.054849606 -0.08707432 0.15736395
0002a0 c2 0d 75 3e 20 cb 51 bd a8 1a 91 bd 8c cd 87 bd
       0.2393103 -0.051219106 -0.070851624 -0.06631002
0002b0 1f 72 9e 3e 8e 10 ab 3e 3c 5b 24 be fe 57 14 bc
       0.30946442 0.33411068 -0.16050428 -0.009054182
0002c0 26 65 43 bd 22 5b 24 3e b3 25 4c bd 5a 7e 7d be
       -0.047703885 0.1605039 -0.04984064 -0.2475523
0002d0 98 4f 90 3e 90 ff eb 3a a8 5b a1 be 41 42 2f be
       0.28185725 0.0018005241 -0.3151524 -0.17115118
0002e0 fa 8b 0d 3e 0e c0 00 3d ae 77 8e 3e a3 24 00 3e
       0.13822928 0.031433158 0.27825683 0.12513976
0002f0 85 23 f4 3e 69 b4 39 bb 9a fc fa bb a1 9a 83 3e
       0.4768335 -0.0028336293 -0.007659507 0.2570391
000300 e7 f9 73 bd 76 66 f5 3c 0e ac 95 3e ed fa a9 bd
       -0.059564497 0.029956084 0.2923283 -0.082998134
000310 ce 8d 9e bc e4 0b 2e be 72 f5 62 be 0a 94 0f bd
       -0.019354727 -0.16996723 -0.22163942 -0.03505329
000320 cb 6f c1 bc a5 61 8b 3e 5e 65 e8 bd e1 d6 94 3e
       -0.023612877 0.27222934 -0.11347459 0.2907019
000330 c3 59 e7 bd 24 7d 34 bd 84 e6 bc 3e a8 c1 be 3e
       -0.112964176 -0.044064656 0.3689462 0.37257123
000340 cf ea 56 3d 53 3b ce 3e ed f1 9b 3e fe 29 29 3d
       0.052470025 0.40279636 0.30458012 0.041299812
000350 f9 4e e1 bd 88 50 3c be 45 92 eb bd 1c c3 db be
       -0.11001391 -0.18390095 -0.11502508 -0.42922294
000360 db 50 5b bd 34 ed 46 bd 50 ee c6 bc ac 5a 9b be
       -0.053543907 -0.04856606 -0.024283558 -0.30342615
000370 ca 54 f1 be e8 44 2a be 44 b2 ab be 07 ea e6 bd
       -0.47135 -0.16627848 -0.33534443 -0.11275106
000380 74 82 a1 3e b4 e3 c2 3d 73 35 31 3e 4d 0f dc be
       0.3154484 0.09516087 0.17305546 -0.42980424
000390 3f 6d bf be ab 6b a2 3e fe f5 92 be 98 89 71 be
       -0.37388036 0.3172277 -0.28703302 -0.23587644
0003a0 e6 52 52 3d 5f 05 13 3d 88 1f e7 3d 1a b5 a0 be
       0.05134859 0.035893794 0.11285311 -0.3138817
0003b0 68 ae a1 bd cd 28 99 bd 05 15 f4 3e 81 6d 40 3e
       -0.078945935 -0.07478485 0.47672287 0.18791772
0003c0 e7 6e 23 3e 96 bc 01 3e 2c d3 d8 3e bd f5 cc be
       0.15960275 0.12669596 0.4234861 -0.40031233
0003d0 54 ab 5a 3e 6f 2b b5 bd 64 b0 c0 3e 4c cc 11 3a
       0.21354419 -0.08846175 0.37634575 0.00055617536
0003e0 37 8c 01 3e 1c 76 58 3e af 1f d8 bd d5 e9 99 3e
       0.12651144 0.21138805 -0.10552918 0.30061212
0003f0 f0 67 7f 3e d1 48 41 3e 42 5b 98 be 7c e8 df 3b
       0.24941993 0.18875434 -0.29757124 0.006833134

fc3.bias f4 [4]
000000 5a d2 51 bd 9c 85 96 bd 8d f8 25 bd 3c 17 d4 bd
       -0.051225998 -0.07349703 -0.04052024 -0.10355994
