p2_continuous-control/checkpoint_critic.pth (torch_old, 179484 bytes, 5 tensors)

fcs1.weight f4 [264, 33]
00000000: 1e22 37bd 1bfe 6ebd 43ce 343c 8a7c 88bc
00000010: 56ab 043c 80dd 50bd 2a85 4dbc 0f96 bd3c
00000020: e482 8d3d 78a2 01bd baad 333b f7bc 32bd
00000030: 8f72 54bd 07c9 04bd 334e 643d 83c6 cd3c
00000040: a197 86bd fc0d bd3c e19e 903d b9e6 5b3d
00000050: 09d0 4b3d 3ef3 2ebd 939e 313d 9fb2 cd3b
00000060: 6a56 44bb cc23 113d 0f16 3fbd 54e6 38bb
00000070: f355 c1bc 8c27 f7bc 230f 80bd ba80 98bc
00000080: dcc4 6cbd 8f9f 98bb 6d4e 01bc c0bb 2dbd
00000090: 9e69 bdbd fa73 77bd eb36 2abd 8101 91bd
000000a0: b654 ad3d 7df3 10be 0851 88bd 6d18 f5bc
000000b0: fd38 643d dddc 67bd f6c1 1abc 587f b8bd
000000c0: 904e 163c a8d2 9d3c f0ef ef3c 650b 483d
000000d0: 0646 23bd 4c77 eebc 848f 053d 9020 3c3c
000000e0: f929 033d efcc 8fbd 97dc 523d 06e2 48ba
000000f0: 19b7 043e a924 b33c 6224 3f3d 125b 04be
00000100: 9884 d8bc 45ae 823d c192 febc 91e5 813d
00000110: eb6c babc 6ae3 9abc a445 7fbd f7b5 693b
00000120: 3e3e 383d 2356 053c cb2a 8dbc 5dfa a13b
00000130: b7ef 063d 33cb bebc 6202 803b 35e5 b73d
00000140: a293 9e3c ceb1 6c3d 327a b53d 492e 40bd
00000150: 79f4 56bc a153 973c 252d 363b 22ca 8c3c
00000160: dfa7 5fbd 6372 96bd 20b4 de3c 3ced b83c
00000170: e4f8 c3bd d2f4 9b3d 652d b0ba 60bf cdbc
00000180: 47f1 b9bb 4e21 b0bc 61bc fdbe 86f7 8f3d
00000190: 6523 44bc 1737 69bd 124d 263c 6955 93bc
000001a0: 75ae 4ebd b91b 31bc e4d4 8a3b 8a46 4f3d
000001b0: b9a8 763d 7a57 8a3b 403e 2dbc 8bdd 603d
000001c0: 0307 903c d3f4 de3a 7c00 8e3d d253 12bd
000001d0: 77dd 06bd 3690 c63c 9711 9bbc 3e01 84bc
000001e0: f38e 86bc 7c0b 1bbc c3ba 2f39 1992 19bd
000001f0: 49d2 13bd 1ca1 8cbd 2e03 553d 2d48 9bbd
00000200: b499 d43c c9dc 88bd 1660 4cbd 1029 a43e
00000210: d4d3 6c3d 5bf3 8d3b d05d 65bd d220 c23c
00000220: efc9 953b b3ae 7539 a079 0f3c e9cf 9e3c
00000230: cd3c 9fbd eccd a2bd 51f4 56bc dbc0 6d3c
00000240: 18fb 9f3b d888 f3bd 432b 0f3d f4f1 eebc
00000250: 8481 173d ef9d 113d 346b 30bc ca70 4c3d
00000260: 448b 9f3c c81d 94bb dbd4 a33c 59c0 42bd
00000270: 68d1 263d fc6d 2bbc db33 8c3d 5bc3 4e3d
00000280: 3d81 b0bc 749a 68bd 2ade e7bc dc7c f53c
00000290: d904 813e e570 933c ea87 6b3c 7cbd c33d
000002a0: 44e1 003c a613 9d3c a5c8 0f3d 99a0 573d
000002b0: 4630 68bd 3a7f 49bd 753e 7e3d fdf4 ef3d
000002c0: 0e5a 0f3c e45a 7b3d 5516 57bc d83d 713c
000002d0: f0f8 ca3c 9d46 22be e554 d73d 965f 34bd
000002e0: 4fcb e4ba 90b9 8c3d aa7b 02be b30a 873c
000002f0: c01b 6a3d c1c3 65bd 41c6 363d 2770 dfbc
00000300: 26b5 0e3c 025c 94bc e0be 91bc 6bf3 d2bc
00000310: fa91 47bd 545d 49be 04f5 0dbb 51e2 5e3d
00000320: 1f9d 69bc 51c6 5c3d 5cd4 bc3c 630d 63bd
00000330: b69f 78bc 8117 08bd 755e a73c dea2 50bd
00000340: 1c2a e3bc bbbf a6bb 9805 a93c 4486 b5bd
00000350: abdf 8abd 444e 86bb 9918 0c3d b281 9f3d
00000360: 7d3b 87bd 239a b63b 2688 f4bc fffc bebd
00000370: 840e afbc e4ba 0c3d f618 e6bd 54c0 97bd
00000380: 4927 493d 34c2 233d 9934 bcbc 5858 8fbb
00000390: cb1e 123c 3ad0 1bbd 4efb b2bc 9f51 f83d
000003a0: bde4 88bd 4685 a6bb 4160 40bb 82fe b7bd
000003b0: 1929 643c c808 9fbc ba68 b3bc 5864 173c
000003c0: 7b7e 73bd cff1 9abc 3cb1 60bd 89bc fb3c
000003d0: 60de c1bd eb98 603d 7d73 9f3c b23f a6bd
000003e0: 18d5 ba3c 34ea c63c 56f1 33bd 7d27 17bc
000003f0: db67 ff3b 2872 cebc 0c62 be3c e52e ed3c
-0.04471027 -0.058347803 0.011035505 -0.016660947 0.00809749 -0.05099249 -0.012543956 0.023142843
0.06909731 -0.031649083 0.0027416782 -0.043637242 -0.051867064 -0.032418277 0.05573864 0.025119072
-0.0657189 0.023077957 0.07061554 0.05368683 0.049758945 -0.042712443 0.04336412 0.006277397
-0.0029958733 0.03543453 -0.046651896 -0.0028213458 -0.023600554 -0.030170225 -0.06252887 -0.01861607
-0.057804927 -0.0046576927 -0.007892233 -0.04241538 -0.092486605 -0.06041334 -0.04155628 -0.07080365
0.08463423 -0.14155383 -0.066560805 -0.029918874 0.05571841 -0.056607116 -0.009445658 -0.09008664
0.009174004 0.019265488 0.029289216 0.04883899 -0.0398617 -0.02910962 0.03260757 0.011482373
0.03202245 -0.0702151 0.051479902 -0.00076630746 0.12960471 0.021868067 0.046665557 -0.12925366
-0.026430413 0.063808955 -0.031075837 0.063426144 -0.022757014 -0.018907268 -0.062322274 0.0035661438
0.044981234 0.008138212 -0.01723232 0.0049431757 0.032943454 -0.023290252 0.003906534 0.08979265
0.019357506 0.057786755 0.088611975 -0.04691914 -0.01311981 0.018472495 0.0027797904 0.017186228
-0.054603454 -0.07346036 0.0271855 0.02257406 -0.095689565 0.07615055 -0.0013441263 -0.025115669
-0.0056745145 -0.021500256 -0.49557784 0.07029633 -0.011971329 -0.056937303 0.010150211 -0.017985063
-0.050459344 -0.010809832 0.0042368043 0.05060438 0.0602195 0.004221854 -0.010573924 0.05489878
0.017581468 0.0017010219 0.06933686 -0.03572447 -0.03292605 0.024238687 -0.018929286 -0.016113874
-0.016425585 -0.009463187 0.00016758875 -0.037492845 -0.036089215 -0.06866667 0.052004986 -0.07582126
0.025952198 -0.066827364 -0.049896322 0.32062578 0.057819203 0.0043319887 -0.05599767 0.02369729
0.0045711915 0.00023430101 0.008757025 0.019386249 -0.07775269 -0.07949433 -0.013119773 0.014511312
0.0048822276 -0.11891335 0.034953367 -0.029168107 0.03698875 0.035551008 -0.010767747 0.04991225
0.019475587 -0.0045201518 0.019998958 -0.04754672 0.04072705 -0.010463234 0.06845828 0.050479274
-0.021546 -0.056787923 -0.028304178 0.029966764 0.2519901 0.017998168 0.014375666 0.09557626
0.0078662075 0.019174408 0.03510346 0.052643392 -0.056686662 -0.0491936 0.062071282 0.1171665
0.008749498 0.061365977 -0.013127883 0.014724217 0.024776906 -0.1584725 0.10514239 -0.04403647
-0.001745561 0.06871331 -0.12742487 0.016484594 0.05715537 -0.05609489 0.044622663 -0.027275158
0.008710181 -0.018110279 -0.017791212 -0.025750836 -0.0487232 -0.19664508 -0.0021660933 0.05441505
-0.014258652 0.053900067 0.02305048 -0.05543269 -0.015174797 -0.03322554 0.020430783 -0.050936572
-0.02773004 -0.005088774 0.02063255 -0.088635 -0.067809425 -0.0040986855 0.034203146 0.07788409
-0.06603143 0.0055725737 -0.029850077 -0.09325599 -0.021369226 0.03435792 -0.1123523 -0.074097306
0.04910973 0.03998013 -0.0229743 -0.004374545 0.008918474 -0.038040377 -0.021848347 0.12124943
-0.06684253 -0.0050818054 -0.0029354247 -0.089840904 0.013925814 -0.019413367 -0.021900523 0.009240232
-0.059446793 -0.018914131 -0.054856524 0.030729549 -0.09466243 0.054833334 0.019464249 -0.08117618
0.02280669 0.024281599 -0.043931328 -0.009225723 0.007794363 -0.025200918 0.023240112 0.028953025

fcs1.bias f4 [264]
00000000: 111f da3c f1e5 75be 2f8c cd3d c7a2 bc3d
00000010: 3433 133e 1d8e 12be 6982 07be 7edf 013e
00000020: 23ca f63d 5762 17be fae5 1bbe 34c2 bcbc
00000030: 49bb 223e be92 6fbd 1b2e 2cbe 34bb 12be
00000040: 8ee1 18be 27c3 213e fb4a 1bbe 0c36 e53d
00000050: 1816 0c3e c355 cfbc 280b 32bd c824 f33d
00000060: 84c3 e5bd b21d ebbd 4c12 b13d b957 9bbd
00000070: 8aa8 433d 10ce bb3d b179 20be f30d a8bc
00000080: b243 70bd e262 83bd b9ed 4f3e 551d f43d
00000090: 06af 233d 58dc 05bd 679a c23d cf2a c1bd
000000a0: 9afd 173e 292f 30be 107e 53be b006 153d
000000b0: 088a 023e 07e2 54be 899a 043d c368 033d
000000c0: 1024 4a3d 5598 a53d 862d d93d 18be e2bd
000000d0: ace9 13bc e127 073e bf75 06be c9c0 753d
000000e0: 6418 3c3a f34e 38bd 07ab a23d ad10 72bd
000000f0: 63f9 edbc b44d dbbd 9b77 443e 672c d0bd
00000100: daf1 0c3e da66 9bbd e86b 0b3e a9b5 a6bd
00000110: 6ecc 3f3e c23c 60bd 053e e8bd deb9 05be
00000120: 5011 97bd 6df5 4a3e f486 983d 2b14 17be
00000130: f776 22be 087f f7bc a386 6d3d 0880 90bd
00000140: c2b5 de3d 7287 0fbe 382a 953d a7a7 3e3d
00000150: bec3 f9bd 4a13 21be 883e 42be 60d3 c43d
00000160: 4257 be3d 91ad a1bd e4cb 8abd affc 863d
00000170: 5b28 113e 2f20 be3d b3ad a93c c791 bf3d
00000180: 8609 043d 3e14 623d d526 123d 7577 863d
00000190: 66a7 47bb 9dcc 3c3e d820 4abe 7abe aabd
000001a0: 3c03 21be 0cdf 133d ad23 e0bc d7c0 39be
000001b0: 6fd6 11be a173 053d aa18 0d3e 60c1 5e3e
000001c0: 0312 733d 2488 39be ea0b 0d3e b98b 2f3e
000001d0: 7b39 613d f1a6 26be 4792 e4bd 3267 32be
000001e0: 8855 07bd 281a 5a3e 1847 283e 0770 85bd
000001f0: c183 03be 745e 173d d29c cbbd 288b 9bba
00000200: 7545 953d 3062 56bd f160 123b 2c7f 1ebd
00000210: 7498 3d3e 5019 91bd 27bd 0f3e 5799 e73d
00000220: 6abf 01be e089 c03d 45f8 0abd c594 9ebc
00000230: 1061 c23d 97c1 97bd 9575 a1bd c0f1 2bbe
00000240: 1e0d cf3d a3b5 43be 9302 36be caed 0a3e
00000250: e787 633d 4049 183d 55d6 fa3d 884f 20be
00000260: 986b 883b 512c bb3b 60f7 5a3e f446 4fbd
00000270: 1fa7 aa3b 89da a83d ce37 eb3c a1ff 89bd
00000280: a66d dcbd afce 23be 4a1c 433d 1557 d83d
00000290: 4c91 213c c027 0c3e 2e6f 0a3e 71dc 78bd
000002a0: a1fb 35bd 2d6a 4d3e b09f 3a3d f90b 023c
000002b0: 578b fd3d 6373 bd3d b8da 043d ad51 4dbc
000002c0: a840 91bd 1b0a debd 31c3 14be 2a34 b83d
000002d0: 5f02 243e bebf 20be 9d58 3c3e d4ce febd
000002e0: 7a2a 43bd 892d 463c d631 0bbe 3011 1bbe
000002f0: 99e5 9ebd 369a 93bd f60b 663d 9adc 493c
00000300: fc79 1cbe be5d 53be dd1b 023e abf1 333d
00000310: c247 6abe d595 1bbe 68db 3ebd fc4a 013e
00000320: 6b65 143e 7d6f c23d f7b4 c03c 8ba5 f7bc
00000330: 5b55 033e bf5a 10be f8b0 0b3e 6bb1 94bc
00000340: f4bd 813d 0e87 8c3d 1d53 10bc fd50 e2bd
00000350: 7a40 bdbd b9e3 b6bd cf38 063d a9d3 633d
00000360: dab0 773c 5c51 31bd 2a81 eb3c 8700 3abe
00000370: 6880 9abd 4205 1cbe 18b4 293e 7fdd 50be
00000380: 0083 663d 8b0f ca3d 9da0 c0bd 944e c0bc
00000390: 41b8 0f3e 9ab4 29be 7f1c 3cbe b7f3 f63c
000003a0: 9c0e 34bd 0626 a4bd a2e0 84bc 0a4d 78bc
000003b0: 11f8 b53d 7cfb 5e3d 3341 193e db32 87bd
000003c0: 99a9 7b3b 16a5 dd3c 2bfc c53d 0aa1 a3bd
000003d0: 2b9c c73d 913e f5bd 05b7 9cbd 23f4 f5bd
000003e0: 55d8 0abd 49ba 30be 54b8 a03d a50c 1dbe
000003f0: 1218 a9bc 659a 3c3e 37ba 293e f360 dc3d
0.026626142 -0.24013497 0.100365035 0.09210735 0.14375001 -0.14312024 -0.13233341 0.12682912
0.12050273 -0.14783607 -0.15224448 -0.023041822 0.15891756 -0.058489554 -0.16814463 -0.14329225
-0.14929792 0.15797101 -0.15165322 0.11191949 0.13680303 -0.025309449 -0.04346767 0.1187225
-0.11218932 -0.11480273 0.08646068 -0.07585091 0.047768153 0.09170163 -0.15671422 -0.020514464
-0.05865831 -0.06415345 0.20305528 0.11919657 0.039961837 -0.03268084 0.09502106 -0.09431993
0.14842835 -0.1720549 -0.20653558 0.03638333 0.12747967 -0.20789348 0.03237394 0.03208233
0.049350798 0.08085696 0.10604386 -0.11071414 -0.00902788 0.13198806 -0.13130854 0.059998307
0.00071752653 -0.044997167 0.07942777 -0.059097935 -0.02904958 -0.1070818 0.19186251 -0.10164719
0.13764134 -0.07587977 0.13615382 -0.08140118 0.18730327 -0.054745443 -0.11339954 -0.13059184
-0.07376349 0.19820185 0.07447615 -0.14753787 -0.15865694 -0.03021194 0.057989728 -0.0705567
0.10874511 -0.14016512 0.07283443 0.046546604 -0.12195538 -0.15730014 -0.18969166 0.09610629
0.09293987 -0.07894433 -0.0677717 0.06591164 0.1417555 0.09283482 0.020712709 0.09353977
0.032235645 0.055195086 0.035681564 0.06565753 -0.0030464767 0.18437429 -0.19739091 -0.08337112
-0.1572389 0.036101386 -0.027360762 -0.18139969 -0.14241956 0.032580975 0.1377894 0.21753454
0.05934335 -0.1811834 0.13774076 0.17143144 0.05498646 -0.1627462 -0.11160713 -0.17422178
-0.033040553 0.2129904 0.1643337 -0.06515508 -0.12843229 0.036955312 -0.099420205 -0.0011867033
0.072886385 -0.052339733 0.0022335614 -0.0386955 0.18515188 -0.07084906 0.14037 0.11308544
-0.12670675 0.094012976 -0.033928175 -0.019358048 0.094911695 -0.07409971 -0.07883755 -0.16791439
0.10109924 -0.19112258 -0.1777442 0.13567272 0.05554953 0.03717923 0.12247912 -0.15655339
0.004163217 0.00571207 0.21383429 -0.050604776 0.0052079107 0.08244807 0.028713133 -0.067382105
-0.10763101 -0.15996812 0.0476344 0.105634846 0.009861302 0.13687038 0.13518974 -0.060757104
-0.044429425 0.20060034 0.045562446 0.007937425 0.123800926 0.09250524 0.03243515 -0.01253168
-0.0709241 -0.10841771 -0.14527585 0.089943245 0.1601653 -0.15698144 0.18393178 -0.12441793
-0.04764793 0.012095817 -0.1359323 -0.15143275 -0.07758636 -0.07207148 0.05616375 0.012320662
-0.15280908 -0.20641229 0.12705941 0.043931644 -0.22878936 -0.15193875 -0.04659596 0.1262626
0.14491813 0.09493921 0.02352379 -0.030230304 0.1282553 -0.14097117 0.13641727 -0.018151006
0.06335059 0.06861697 -0.008808878 -0.110506035 -0.092408136 -0.089301534 0.03276902 0.055621777
0.015117848 -0.04329048 0.028748114 -0.18164264 -0.07544023 -0.1523638 0.16572607 -0.20396994
0.056277275 0.09866246 -0.094056346 -0.023474969 0.14035131 -0.165728 -0.18370245 0.03014551
-0.043959245 -0.08015065 -0.016220395 -0.015155086 0.088852055 0.054439053 0.14966278 -0.06601497
0.0038400649 0.027056258 0.09667238 -0.079897 0.097465836 -0.11974824 -0.07652096 -0.12009456
-0.033897717 -0.17258562 0.07847658 -0.15336855 -0.02064136 0.18418272 0.16574942 0.10760679

fc2.weight f4 [132, 268]
00000000: 9b66 0bbd a3f0 cebd 815b 3cbd c346 3d3d
00000010: 84d7 20be b5de 50bd 74f0 eb3b e310 6fbc
00000020: 46cb b63c 706c 923d 951b e4bc 86cc 8b3a
00000030: cf8b 6ebd e97c 16bd f5b3 fc3c 5a1e 59be
00000040: 01f8 05be 0fa1 5c3d 5578 9cbd 9350 c6bc
00000050: 115c 97bd c339 54bd f24b 41bd feb2 95bd
00000060: d3cc 68bd f9ad cebc bf2d 233c abcd c6bc
00000070: 8f1b 53bc 75ac 66bb 26c8 ce3c 35a4 75bd
00000080: 46c7 453d da47 e2bb 16dd ae3c b6f2 f43d
00000090: 3f5b e63a cd1f 4dbd d585 2fbc 244d ec3c
000000a0: 89a8 28bd 9d11 fd3d 7284 fcbd 7212 3abd
000000b0: 8a23 2abd c762 04bd 929b c1bd 723e 93bc
000000c0: 8a90 183d d6e8 9c3c bf76 a4bd e40b 663d
000000d0: c9af 913d 6b78 28be 513d c23d 10a6 0b3d
000000e0: 259a b4bd 0620 3cbd 55b1 6abe 3510 c63d
000000f0: df93 91bd 2438 aa3b 262d 1f3e e833 9d3c
00000100: b33a e83c ddb1 143d e64d 2bbd 7902 a2bd
00000110: 50ac 5cbc 8c63 8dbd ab2d d33c 078f b83c
00000120: 5c06 a9bc 0b14 403d e3ac 813d 06fb 503d
00000130: 5f9d c3bc 53a9 9f3d 779c d8bc 3ab4 263d
00000140: 2e3e 213d 0b09 e7bd 923a 41bd 020f e7bb
00000150: 780d eabc d5c1 a93c 5757 0cbd 12b3 893d
00000160: d945 0dbe f9c2 d73d 98db 21be 9948 e2bd
00000170: 136c be3d f1ae 94bd b491 133e 0aad 18bd
00000180: 6aee c9bc 1671 4b3d 760b d53c f903 4dbb
00000190: 9f02 c03c 8042 833c f8b8 503b 11af bb3c
000001a0: cb6d 69bd 07fb 4b3d c4f2 0ebe 86a6 b1bd
000001b0: 71fc 1cbd ef0d 293d 78f5 7ebd 8bc2 5b3c
000001c0: dff7 873b 7a28 90be deda 883d 1613 253d
000001d0: 4361 08bd 6f8c 8dbd fc24 e23d f302 173d
000001e0: 878d 883c bd48 f83d 5c8b f83c 1946 903d
000001f0: 46f4 f63d 9e59 85bc f092 9d3d 73e6 773c
00000200: 184e e4bd e606 0abd dc30 263d 37a9 6b3d
00000210: 6eaf 85bd 4091 6a3c 2cd5 cd3d 881b 343d
00000220: b01f a23d 2585 3839 5631 f1bc 17c3 623a
00000230: f3cb 3b3d 6f0a 2bbd d6b6 653d c2f6 12bc
00000240: 327f 1ebd 5322 efbd 7263 c5bd 79f2 723c
00000250: f68b 0abd 6214 27be 33cb c03d 1d79 d43d
00000260: e193 b53d d2b8 ee3d 2aa3 7a3d 9ca2 b23d
00000270: a6c4 173c b4b0 9b3c 8430 4f3d 29b6 c4bb
00000280: 9043 a0bd 6594 743c 0e4c bc3d d6f4 5ebc
00000290: c99b 313d 0aa2 3a3d 8e84 233c b3ab ae3d
000002a0: d355 29bd e70d ccbd e267 3d3d 22a5 acbc
000002b0: 8fee 353d c105 d2bd 5f4e 8fbc a39a 213c
000002c0: e0aa f9bd 9520 92bc 6251 193d 68f3 5fbd
000002d0: 955b 183d 27f8 18bd a153 b6bd 83f9 99bc
000002e0: b60b c13d 08de a43d fddc 2abd 017f 1d3b
000002f0: c2eb 1fbd c734 f73c aa90 743c 440c f1bb
00000300: 2ede 9dbc 7242 443b 3324 c03c bc25 1e3d
00000310: 9abf 20bd 316d 3d3d 4f7f aebb 4314 413d
00000320: 97da 8f3d 32b4 f1bb 89f5 fd3d cf2f f23c
00000330: 840d b43d 0a36 a23d ceb8 ecbd d1e6 8ebd
00000340: 07ee bfbd 19dc a83d 8220 873d a846 78bc
00000350: 530c d83d 057a d7bc f13b b13d b660 033d
00000360: 8291 c43d 5cd8 28bb c9c9 d23c 9aea 51be
00000370: 7276 5c3d 8495 6cbd 8aec 4ebd 5c2c ffbd
00000380: bcc4 883d 6664 ba3c a70c 013d 8560 65bd
00000390: d9f4 773d 2f1d 22bd 1e7e 17be f314 563d
000003a0: 24c3 1f3d e70d cbbd 6a0a d73b 35aa e33c
000003b0: b7de fd3d 34a4 9ebd e603 873d 70bc 963b
000003c0: 4dff 893d 1040 95bc 98a0 53bd caed 3cbc
000003d0: 7b44 dcbc a4e5 e83b 9550 c93c 9949 75bd
000003e0: aac3 c13d a1a6 0bbd 4cf7 0a3d f44a 9b3d
000003f0: bdd6 993c 8d1e bc3b 76cc cbbc 82b4 d03c
-0.0340334 -0.101044916 -0.045985702 0.04621006 -0.15707213 -0.05099364 0.007200295 -0.014591428
0.022313725 0.07149589 -0.027845183 0.0010665811 -0.0582388 -0.036740217 0.030847529 -0.21202984
-0.13082887 0.053864535 -0.07640139 -0.024208343 -0.07390607 -0.0518129 -0.047191568 -0.07309531
-0.05683596 -0.025229441 0.009959637 -0.024267992 -0.012884988 -0.0035198007 0.025241923 -0.059971053
0.048285745 -0.006905538 0.021345656 0.11960356 0.0017574801 -0.050079156 -0.01071306 0.028845377
-0.041176353 0.12356875 -0.123299494 -0.045427747 -0.0415378 -0.032320764 -0.09453501 -0.017974112
0.03724722 0.019153994 -0.080304615 0.056163684 0.071136065 -0.16452186 0.094843514 0.034093916
-0.08818463 -0.045928977 -0.2291921 0.0967106 -0.07108282 0.0051946808 0.15544567 0.01918979
0.028348302 0.036302436 -0.041822337 -0.07910628 -0.013468817 -0.06903753 0.025778612 0.022529138
-0.020632915 0.046894114 0.06331804 0.051020645 -0.023878751 0.07795968 -0.026441796 0.04069922
0.03936594 -0.11281022 -0.047174998 -0.0070513496 -0.028570876 0.02072231 -0.03426298 0.06723608
-0.13796176 0.10535235 -0.15806425 -0.11049003 0.09297957 -0.0725993 0.1441105 -0.037274398
-0.024649817 0.049668394 0.026006442 -0.0031282885 0.02343875 0.01602292 0.0031848531 0.022910627
-0.056989472 0.049799945 -0.13959795 -0.0867434 -0.038326684 0.041273054 -0.062245816 0.013413082
0.0041494216 -0.2815588 0.066823706 0.040301405 -0.03329588 -0.06911551 0.110422105 0.036868047
0.016669048 0.12123249 0.03033989 0.0704462 0.1205831 -0.016278084 0.07694042 0.015130627
-0.11147708 -0.033697985 0.04057394 0.057534423 -0.06527601 0.014316857 0.10050425 0.04397157
0.079162 0.00017597208 -0.02944247 0.00086502865 0.045848798 -0.041757997 0.05608257 -0.008969964
-0.03869552 -0.11676469 -0.09638108 0.014828318 -0.033824883 -0.16316369 0.09413757 0.10374663
0.08866096 0.116563454 0.06119076 0.087224215 0.009263193 0.019005157 0.050583377 -0.0060031605
-0.078253865 0.014927958 0.09194194 -0.013608178 0.04336146 0.04556469 0.009980334 0.08528843
-0.041341614 -0.09963589 0.04624165 -0.021074835 0.04441696 -0.10255004 -0.017493425 0.009863528
-0.12190795 -0.017837802 0.03743113 -0.05467549 0.037196714 -0.03734603 -0.0890267 -0.018795734
0.09426062 0.080501616 -0.041714657 0.0024032 -0.039043196 0.030176533 0.014927069 -0.0073561985
-0.019270983 0.002994683 0.023454761 0.038610205 -0.039245225 0.04624671 -0.005325235 0.047138464
0.070241146 -0.0073762173 0.12400348 0.029563813 0.087916404 0.079204634 -0.11558686 -0.069776185
-0.09371572 0.08245105 0.06597997 -0.0151535645 0.10549226 -0.0263033 0.08654011 0.032074653
0.09598066 -0.0025763726 0.025730984 -0.2049965 0.053823896 -0.057759777 -0.05051855 -0.12459633
0.06678149 0.022752952 0.031506207 -0.05600025 0.06053624 -0.039578613 -0.14794204 0.052266072
0.03900446 -0.09914761 0.0065625207 0.027791122 0.12395995 -0.07746163 0.065925404 0.0046001
0.06738148 -0.018219024 -0.051666826 -0.011531303 -0.026888123 0.0071074534 0.024574557 -0.05988464
0.09461148 -0.034094457 0.033927247 0.075826555 0.018779153 0.0057409466 -0.024877768 0.025476698

fc2.bias f4 [132]
00000000: a2bb e03d 90f3 d43d 6f53 35bd 4466 4dbc
00000010: 38d4 e93d d196 e33c e004 5ebd 90b3 243e
00000020: 8ae7 143e 2361 fc3d 3fd8 c93d af62 e73c
00000030: c950 6abd 3d69 f33c 72c5 0ebd 437e f3ba
00000040: 2197 3b3d f077 06bd 1246 40bd 5b71 0a3e
00000050: e626 c7bd 98cd 0bbc 0a6d 773d 0527 87bd
00000060: 2f93 b7bd 215a a63d d0e3 03bd 2ff9 8dbd
00000070: a84d b5bd 690d b3bc 590e 1cbd 8e7c 653d
00000080: 39a0 aebd d907 71bc b2f5 bc3c 0fb8 d33c
00000090: 92f7 90bc aa36 f93c 03a4 07bd a95d e03d
000000a0: 77ef 0dbc 59dd 1dbc 407e 223c 2ece eebc
000000b0: 612b 7fbd a22c 96bd b052 d2bd ae0c 8a3d
000000c0: 3b1c 1d3e 9be0 a3bb 835d 133d 959e b8bb
000000d0: bad7 2b3c 4b3f 6abd f45e 67bd b3c4 c0bd
000000e0: a657 0a3e 0b12 2d3d 6487 a6bd b81c 84bd
000000f0: 33bc 97bd 1e6c b9bc 3c8e 5b3b 28b7 3f3d
00000100: 93ea 80bd c045 bd3b 1050 2b3d 511e 08bd
00000110: addb cc3d 9e7e b93d c091 d5bd 4ea9 f03d
00000120: 8631 e1b9 a48e 1ebc 9a58 08be 5d94 46bc
00000130: 24cd d43d 06a5 9cbc d2cd 003e a40f 5abd
00000140: 9a3b f63c 8b8e cc3c 14fc 1b3b f713 11bd
00000150: be63 d53d 95d8 993d d0a2 db3d 9609 3fbd
00000160: 14f6 c33c 2635 1c3d e441 453d 2fad 643c
00000170: ae6a b0bd ca6a 453c 975f afbd e57d 183d
00000180: 2da5 e4bb cd6a 353e 0139 673d 0d50 9abb
00000190: ab62 863d 12a3 b3bd c739 08bd e3ad 3dbd
000001a0: 004b aebd be18 bd3c 8c26 8bbd 65f8 b2bd
000001b0: ddd8 ce3d bff0 c83c 4f6d 973c 7daf ed3d
000001c0: 1df5 2aba e712 163c aaf1 c43c 5cc5 283d
000001d0: 2e78 55bd 005e 063d 73d1 82bd 8bf9 0f3d
000001e0: 9cf6 84bd ef05 88bd 6bc4 8fbd 79a1 8b3d
000001f0: 786c 263d 58bb d0bd 46b7 113e fc87 5bbd
00000200: 6857 eebc 4f58 9ebd 6cd9 cf3d 68f8 b2bd
0.10973288 0.10398018 -0.04426902 -0.012536589 0.11417431 0.027781876 -0.054203868 0.16084123
0.1454145 0.12323215 0.09855699 0.028245298 -0.05720595 0.029713267 -0.034856267 -0.0018577058
0.045798425 -0.032829225 -0.046941824 0.13519804 -0.09724216 -0.008532904 0.060406722 -0.06599239
-0.0896362 0.081226595 -0.03219968 -0.069322936 -0.088527024 -0.02185698 -0.03809962 0.056026988
-0.08526654 -0.014711344 0.023066375 0.025844602 -0.017696176 0.030421574 -0.0331154 0.10955364
-0.00866305 -0.009635293 0.009917796 -0.029151049 -0.06229723 -0.07332732 -0.10269678 0.067407
0.153428 -0.0050011403 0.03597785 -0.005634139 0.010488445 -0.057189267 -0.05648704 -0.094125174
0.13509998 0.042253535 -0.081312925 -0.0645079 -0.07408943 -0.022634562 0.0033501526 0.04680553
-0.062947415 0.005776137 0.0418244 -0.033232037 0.10002837 0.090573534 -0.1042819 0.11751042
-0.00042952242 -0.009677563 -0.13315049 -0.0121203335 0.1039069 -0.019121658 0.12578514 -0.053237572
0.030057717 0.024970314 0.0023801373 -0.03541943 0.10419415 0.07512013 0.107244134 -0.04664
0.02392105 0.038136624 0.04815854 0.013957306 -0.086140975 0.012049386 -0.08563154 0.037229437
-0.0069776983 0.17716523 0.056450848 -0.00470925 0.06561788 -0.087713376 -0.033258226 -0.04630841
-0.08510399 0.023083087 -0.067944616 -0.08738784 0.10099957 0.02452886 0.01848474 0.11605737
-0.000652151 0.00915978 0.024041016 0.04120384 -0.052116565 0.03280449 -0.063876055 0.035150092
-0.064923495 -0.06641757 -0.07019886 0.06817908 0.040630788 -0.10191983 0.1423007 -0.05359648
-0.029094413 -0.07731687 0.10148892 -0.08738786

fc3.weight f4 [1, 132]
00000000: da25 e33d d10c e53d f2fc 0e3e 4c90 51bd
00000010: e35d 893d 66f7 eabd 88ee 37be fe5a db3d
00000020: 7e86 ed3d 23e8 a73d 3e27 8d3d dafd ae3d
00000030: faef 02be 5c3d a53d 4515 1ebe bfac 03be
00000040: 8bf9 0e3e a103 68be 2930 68bd 2a1f 0f3e
00000050: d0a5 90be a4fb a43d ce37 6c3e fea9 29be
00000060: 5500 0bbe 2250 f83d abcc 213e 365f d2bd
00000070: f79e e0bd 52b9 bebd 037b 9abd 06d6 333d
00000080: 7a1c 19be e70b b53d 6fc2 663d 5884 113e
00000090: 4b79 41be 9ee4 363e 5f0d 8bbe 9f57 a43d
000000a0: 28a9 1a3e 4475 ef3d 7b1d 96be 29b9 83be
000000b0: c671 8ebe ce0f 16be 114b 8dbe 23e4 2b3e
000000c0: 0dc8 993d f324 013e f7e4 ff3d ae74 c6bd
000000d0: bac6 f1bd 699a b6bd 5260 55be 4e18 d9bd
000000e0: f98a 1d3e 2299 003e c1cf a6bd d059 1abe
000000f0: 9f56 e5bd 46ce 1abe d70b 63be 38fd 623d
00000100: a8cb 3dbe ee7e 0abe 6cc9 57be 7964 cebd
00000110: e575 a63d 0b8c b53d 9966 97bd ad9d cd3d
00000120: cda2 3d3e 165b 74be 6f5f 43be 0029 f13d
00000130: 49b1 de3d e702 86bd 8631 933d f395 02be
00000140: 48a1 853e 97a6 6dbe 959b 5abe 6140 8cbe
00000150: 6cbf b53d c76d 083e e9e8 c03d 01a2 68be
00000160: c687 7abe 242f b23d a6e2 263e b923 abbd
00000170: e738 cbbd 35e5 33be 72e2 fdbd ea45 6b3d
00000180: e7d0 113e 17b6 8e3d fca5 5a3e db24 11be
00000190: 3066 af3d 429b a9bd 37f0 07be 2a3a 8ebd
000001a0: 087e a9bd c80c c4bd 2602 9bbe aa26 b1be
000001b0: 41c4 9b3d 0738 80be cfac 963d 0aa4 5d3e
000001c0: fa94 40be 4ab2 15be 381e 47be 01d8 c63d
000001d0: 886f 19be a286 ba3d 88e4 9dbd 1ed9 3b3e
000001e0: fa9a 8fbd 4e1c 03be e48e 85bd 086a bd3d
000001f0: 78d6 ab3d 0c3d 57be 5404 cf3d d981 39be
00000200: 23c5 ba3d fa7a 65bd 4b1a 343e b0cf 59be
0.11091204 0.11184085 0.13963678 -0.051163003 0.067073606 -0.11472969 -0.17962086 0.10710715
0.11597918 0.081985734 0.068922505 0.08544512 -0.12786856 0.08068344 -0.15437801 -0.12858866
0.1396238 -0.22657634 -0.056686554 0.13976732 -0.28251505 0.08055809 0.23068163 -0.16568753
-0.13574345 0.12124659 0.15800731 -0.10272066 -0.1096782 -0.09312691 -0.07542994 0.04390528
-0.14952269 0.08840161 0.05633777 0.14210641 -0.18893926 0.17860648 -0.2715864 0.08024525
0.1510359 0.116922885 -0.29319367 -0.25727203 -0.27821177 -0.14654467 -0.27596334 0.16786246
0.0750886 0.12611751 0.124948435 -0.09690224 -0.11805482 -0.0891617 -0.20837525 -0.10600339
0.15385045 0.12558416 -0.08145095 -0.15073323 -0.11198162 -0.1511775 -0.22172485 0.05541727
-0.1853472 -0.13524982 -0.2107293 -0.100777574 0.08127955 0.08864602 -0.07392616 0.1003984
0.18519135 -0.23862872 -0.19079374 0.11775398 0.10873658 -0.06543522 0.0718718 -0.12752514
0.2609961 -0.2320808 -0.21348412 -0.27392867 0.088744015 0.13323127 0.09419424 -0.2271805
-0.24465856 0.087003976 0.16297397 -0.08356423 -0.09922963 -0.17567904 -0.12396707 0.057439722
0.14239846 0.06968325 0.2135238 -0.14174215 0.085644126 -0.08281566 -0.13275228 -0.06944688
-0.08275992 -0.0957275 -0.30275077 -0.3459981 0.07605792 -0.25042745 0.073571794 0.21644607
-0.1880683 -0.14618793 -0.19445121 0.09709168 -0.14983952 0.091077104 -0.077096045 0.18344542
-0.07011981 -0.12803766 -0.06521395 0.092487395 0.08390516 -0.21019381 0.101082474 -0.18115939
0.09119632 -0.056025483 0.17588155 -0.21270633
